checkpoints/StockPrediction_epoch_4.pt (torch, 255962 bytes, 27 tensors)

lstm.weight_ih_l0 f4 [256, 1]
000000 41 dc a2 3c 81 88 f6 3c fa a5 a5 bd 9b 9c 21 3d
       0.019880416 0.030094387 -0.08088298 0.03945599
000010 05 ec 45 bd d8 b4 6a bb 13 b6 d8 bd 65 e3 e1 ba
       -0.04832079 -0.0035813358 -0.10581603 -0.0017233907
000020 ae af 37 3d 8a 78 ba bc fe 08 33 3d da 29 5a bd
       0.044845276 -0.022762556 0.043709747 -0.05326257
000030 39 02 b6 3d 6a 0a 7a bd cd f2 d6 ba 8b 3e b4 bd
       0.08887143 -0.061045088 -0.0016399265 -0.088009916
000040 33 5e 1e 3d 17 24 27 bd a5 48 ae bd 75 22 21 bd
       0.038664054 -0.040805902 -0.085099496 -0.0393395
000050 25 b1 00 be c0 ab b0 bd 01 c3 fc bd 1e a6 71 3d
       -0.12567575 -0.08626509 -0.123418815 0.058996312
000060 86 0b 99 bd fa cc 08 be 7c 2a e5 bd 78 10 0c be
       -0.07472901 -0.13359442 -0.11189744 -0.13678157
000070 49 bd 84 bd 55 96 2a be 7f 45 1e 3d c8 1b 30 be
       -0.06481416 -0.1665891 0.038640495 -0.17198098
000080 7b d0 50 3d c4 09 47 3c e6 5b ca bd 43 8f c4 3d
       0.050980072 0.012148324 -0.098808095 0.095976375
000090 d3 46 07 bd 36 2c ef 3d c2 b1 8c bc cf e4 e4 bd
       -0.033026528 0.116783544 -0.017174605 -0.11176454
0000a0 4a 93 15 bd c0 7f dc bd c8 be 00 3e 94 b1 5a 3d
       -0.03651742 -0.10766554 0.12572777 0.053392008
0000b0 76 e7 19 bc 65 ba ff bd 9c de 1e 3b 7a f2 65 bd
       -0.0093935635 -0.12486724 0.0024241572 -0.056139447
0000c0 86 7a 68 bc 9a 98 1b be 59 03 13 be e1 13 fe bd
       -0.014189368 -0.15194932 -0.14356746 -0.12406135
0000d0 90 b2 17 be 07 34 00 3d d4 ad fa bc bf f3 07 3e
       -0.1481421 0.031299617 -0.030600466 0.13276576
0000e0 91 e3 e8 bc 45 57 93 bd 96 0b a2 3c af c5 d0 bd
       -0.028428825 -0.0719438 0.019780915 -0.10193955
0000f0 86 d7 8f bd f6 89 29 be 8d 8a 65 3e b0 9e c8 bd
       -0.0702353 -0.16556534 0.22416134 -0.09795892
000100 db ad 11 bd 69 b4 cc bd be 8c 5a 3d 3b 10 18 be
       -0.035566192 -0.09995348 0.05335688 -0.14849941
000110 ff 2d ae bd 00 4e d3 bd 82 65 91 3d bd f6 05 bd
       -0.08504867 -0.10317612 0.07099439 -0.03270601
000120 91 3d 6a 3d 89 c7 10 bd 2f b0 3b be 24 81 30 be
       0.05718762 -0.03534654 -0.18328927 -0.17236763
000130 dd 57 a5 bd d8 27 d4 bc 7b f1 a4 bc 5f 15 11 3d
       -0.08073399 -0.025897905 -0.020134678 0.03542077
000140 5e 07 f7 bd 4e f3 11 be 92 09 50 3d a7 5d f8 bd
       -0.12061952 -0.1425297 0.050790377 -0.12127238
000150 48 6f 2b 3c c6 a2 c8 bd db 95 9e 3a 42 8a f1 bd
       0.010463543 -0.097966716 0.0012099104 -0.11793949
000160 60 d1 24 bd 6b cb 08 bd 39 b2 4c bd 03 74 bf bd
       -0.040238738 -0.03339712 -0.049974654 -0.09348299
000170 d5 13 a1 ba 0e b7 3c 3d 7a c8 26 be ce 26 05 be
       -0.0012289236 0.046073012 -0.16287413 -0.13003084
000180 52 dd 82 3d 53 ee 2d bd eb c7 d5 bd 99 9c ce bd
       0.0638987 -0.04246361 -0.10438522 -0.100884624
000190 38 56 ff bd e5 40 c4 3d 81 c7 2a bd 1b ce 22 be
       -0.12467617 0.0958269 -0.041694168 -0.15898935
0001a0 6e 2d 84 bd 60 a4 1f be aa 7c 15 bc 00 7d 01 be
       -0.064539775 -0.15590048 -0.0091239605 -0.1264534
0001b0 ba c0 41 be 56 2b 17 be bc 7f 66 3d cd 26 64 bd
       -0.18921176 -0.14762625 0.05627416 -0.055701066
0001c0 8f ca 18 bd 1a 25 44 be 3f 50 c1 bd e6 03 e6 bd
       -0.03730255 -0.19154778 -0.09439134 -0.11231212
0001d0 1a db d0 bc a9 4f 36 be 02 e1 e6 bd 6b ec 7f 3d
       -0.0254951 -0.17803825 -0.112733856 0.062481325
0001e0 45 ee 87 bd 2d 95 ea bd a1 09 b0 bd 98 df b8 bd
       -0.06637243 -0.11454234 -0.085955866 -0.09027022
0001f0 2b 04 26 be 33 18 1b be aa 4e 49 3e 48 1a 17 be
       -0.16212527 -0.1514595 0.19658914 -0.14756119
000200 3f 53 3f 3e b1 8c c4 bd 6e 7b 8a 3d d4 4d e6 3d
       0.186841 -0.09597147 0.067618236 0.11245313
000210 8b 1c 16 be 96 0b 18 3e a4 e9 fe 3b b0 23 ef bd
       -0.14659326 0.1484817 0.007779317 -0.11676729
000220 17 c3 33 be be e6 26 be bd cd d6 3d c4 88 d0 bd
       -0.1755489 -0.16298959 0.1048846 -0.10182336
000230 50 46 5c 3d 73 67 03 bd be a5 10 3d 21 43 28 be
       0.053777993 -0.03208108 0.035314314 -0.16431858
000240 b4 92 9d bd 05 35 b4 3d 53 ea 27 3d e3 cb 21 3d
       -0.07693997 0.08799175 0.040994953 0.039501082
000250 1c 8f 3b 3e 83 de 33 be b7 32 c9 3d a3 0e c3 bd
       0.1831631 -0.1756535 0.09824126 -0.09524276
000260 09 98 e8 3b 99 d2 2f be ce 1f 3d 3d 86 7f 21 be
       0.007098202 -0.1717018 0.04617291 -0.15771303
000270 67 d7 12 3b 84 4b ee 3d 71 ba ef 3d d6 b3 0f be
       0.0022406222 0.11635497 0.11705483 -0.14033446
000280 c1 9b 22 3e 95 03 20 3d 36 14 b4 3d 6c 63 01 be
       0.15879728 0.039065916 0.087929174 -0.12635583
000290 86 54 0a bc f9 23 b1 bd 58 ee b8 bd 80 dc 3e 3e
       -0.0084430035 -0.08649439 -0.090298355 0.18638802
0002a0 df 18 c4 3d 5b 20 49 bb 90 e8 dc bd c6 6b 77 bd
       0.09575056 -0.0030689451 -0.10786545 -0.060405515
0002b0 4e ac 31 ba fc 74 c8 bd c2 9b 13 be e6 79 17 3d
       -0.00067776896 -0.09787938 -0.14414886 0.036981486
0002c0 d5 34 2e be 94 0e ee 3d 75 50 00 3e e3 22 44 be
       -0.17012341 0.11623874 0.12530692 -0.19153933
0002d0 63 62 cb 3d 5c 33 0b 3e 63 5e 50 bd f0 e6 e0 bd
       0.09930875 0.13593811 -0.050871264 -0.10981548
0002e0 61 f2 10 3b dc ea 0c 3e ce 46 cd bc 61 76 0f bd
       0.0022117125 0.13761467 -0.025058176 -0.035025004
0002f0 a1 00 e5 bd 61 8e 7b bd 2a 3a e0 bd 72 19 e9 bd
       -0.111817606 -0.06141508 -0.10948594 -0.113818064
000300 14 f3 29 3b 46 43 fc 3c 13 67 87 bd 7f 68 d5 bd
       0.002593224 0.030793797 -0.06611457 -0.10420322
000310 3b 2b 91 bc 97 94 fa bc 8d 3e 41 bc 31 dc 32 bd
       -0.01772081 -0.030588431 -0.011794698 -0.043667022
000320 20 0d 3d be 10 75 f1 3c e9 a7 1e 3d 47 3c fb bc
       -0.18462038 0.029474765 0.03873435 -0.03066839
000330 51 5f 10 bc 9a de 23 be e1 2a 0f be 65 a1 3e be
       -0.008811788 -0.16002885 -0.13981201 -0.18616255
000340 54 b7 d1 bd b0 4c a3 bc 67 44 65 3d 8c ee 88 bc
       -0.10240045 -0.019934028 0.055973437 -0.01671531
000350 52 fe 3e be 32 95 1a be 3e fc c5 bd 67 0a cb 3d
       -0.18651703 -0.15095976 -0.09667252 0.099140935
000360 fa b4 ff 3c c2 41 ea bd 41 67 fb bc 9a 24 ec bd
       0.031214226 -0.114383236 -0.030688884 -0.11530419
000370 5d ed 26 be ec 07 12 3d 4b 72 09 be 5e e5 bf bd
       -0.16301484 0.035652086 -0.13422506 -0.0936992
000380 d6 39 2b be d9 eb 98 3d f5 d5 04 3d 88 5d 85 3d
       -0.16721281 0.07466859 0.032430608 0.0651198
000390 a2 54 0f be ce e9 bb bd 6a 05 07 be a8 23 5e 3c
       -0.13997129 -0.09175454 -0.13185659 0.013558306
0003a0 be 80 8d bc a2 10 d4 3c 4e 71 1a 3e 20 3c fd bc
       -0.017273303 0.025886837 0.15082285 -0.030912459
0003b0 b6 57 b0 bd b8 78 2c be 79 d2 37 be 2b 94 4c be
       -0.086104795 -0.16842926 -0.17951383 -0.19978397
0003c0 0b c3 ef bc 59 df 11 be 9c 81 34 bd 70 74 1c be
       -0.029267808 -0.14245357 -0.044068918 -0.15278792
0003d0 9b 88 98 bd d7 4c 24 be ce 87 22 be bc be 05 3e
       -0.074479304 -0.16044937 -0.15872118 0.1306104
0003e0 2b a5 d8 bd c3 64 19 3b 00 a2 f7 bd d5 1c d6 bd
       -0.10578378 0.0023406006 -0.12091446 -0.10454718
0003f0 1d 7c d3 bd aa 3e 13 be 90 0e 2f 3e 44 ac 2f be
       -0.10326407 -0.14379373 0.17095399 -0.17155558

lstm.weight_hh_l0 f4 [256, 64]
000000 f7 29 b9 3c 15 0a 37 bd a4 90 89 3d d7 1e f2 3b
       0.022603018 -0.04468735 0.06717041 0.0073889303
000010 bd 9a 0c 3e 1e 1f 22 be 33 46 80 3d 75 52 76 bc
       0.13730903 -0.15832183 0.062633894 -0.015034308
000020 65 7d c5 3d 9a 6a 52 3e e9 8f 6d bd bf 02 41 3d
       0.09643058 0.20548478 -0.05799857 0.04712176
000030 4c 62 72 bd 85 52 10 be d9 e5 b2 3d 3d e3 8d bd
       -0.059175774 -0.14093979 0.08735246 -0.06928108
000040 de 86 f2 3d 78 97 5e 3d b7 5d e1 3d b3 1e a5 39
       0.1184213 0.05434367 0.11004203 0.00031494125
000050 66 45 1c be 74 64 ae 3d b8 95 eb 3c 50 04 c2 bd
       -0.15260848 0.08515254 0.028757915 -0.09473479
000060 c0 f6 2b bc 49 8d d6 bc a2 e4 c8 3c e1 7e 52 bc
       -0.0104958415 -0.026190417 0.024523083 -0.012847633
000070 68 ea 5a bc 20 bd 89 bd 14 45 2c be f1 0f 1d 3e
       -0.013361551 -0.06725526 -0.16823226 0.15338112
000080 78 a1 4b 3d 47 32 30 bd 06 d2 59 bd 74 78 8a 3c
       0.049714535 -0.0430167 -0.05317881 0.01690314
000090 4b b2 b8 bd be fa 8f bd 04 4e b6 3d 49 6b fb bd
       -0.09018382 -0.07030247 0.08901599 -0.122763224
0000a0 0d b7 00 be d2 ad 3c bd ec ce a0 3c bc 75 9e bb
       -0.12569828 -0.046064205 0.019629918 -0.0048358124
0000b0 96 f5 2a 3d 8a 98 97 3c 92 20 cc b9 8d 1b ca bd
       0.041738115 0.018505353 -0.0003893418 -0.09868536
0000c0 ce 80 64 bd c1 49 75 3d af 3c c1 bd ee 53 a1 3d
       -0.0557869 0.05988479 -0.094354026 0.078773364
0000d0 8c ff b1 bd 5f 2f 24 bd 5a 9a 1d 3e 97 93 c7 3d
       -0.0869132 -0.04008424 0.15390912 0.097449474
0000e0 f1 10 a0 bd 49 73 35 3b 61 99 1f 3e 60 00 82 3d
       -0.07815731 0.0027687124 0.15585853 0.06347728
0000f0 7d 64 07 3e 8c af 2a 3e c6 e9 a1 3b 6d 3d 45 3d
       0.13221927 0.16668528 0.004941198 0.048154283
000100 62 a2 0a be d9 dc 95 3c bc 19 cd 3d d2 68 61 3c
       -0.13538507 0.018293785 0.10014674 0.013757901
000110 e4 2d 09 bd b2 80 20 be 9e cb f1 bd 2d d1 9e bd
       -0.03349103 -0.15674093 -0.11806415 -0.07754741
000120 ba 7e 3d bd cd e1 3f 3d 8f 62 30 3d d7 68 8f 3d
       -0.046263434 0.0468462 0.043062743 0.070024185
000130 69 5a 01 be c9 16 10 be 4b f1 c5 3d 39 87 1b bd
       -0.12632145 -0.14071192 0.096651636 -0.037970755
000140 2e 83 d6 3c 16 f2 9f 3c a3 88 58 bd 37 f7 7d 3c
       0.026185598 0.019524615 -0.052864682 0.015500835
000150 f9 9d 7b bd ac f1 e0 3c a7 a4 d9 bd bd b2 ca bd
       -0.06142995 0.027458988 -0.10627108 -0.09897373
000160 fc e1 a5 bd cb 60 8d bc 1c ef 23 3e 9c 0b 3a bc
       -0.08099744 -0.017258069 0.16009182 -0.011355307
000170 2c 3a 2d bd 78 69 6c 3b 65 88 82 bc 68 af f4 3d
       -0.042291805 0.0036073606 -0.015934179 0.119475186
000180 ff d5 2b 3d f8 e1 35 3d 92 67 26 be 55 24 9b 3d
       0.04195213 0.044404954 -0.16250446 0.07575289
000190 3b 44 c4 3d cd d5 06 3d 5e 83 09 bd e7 96 84 3d
       0.095833264 0.03291874 -0.033572547 0.06474095
0001a0 a2 6f c0 bd 42 5f e2 bd ca 54 88 bd 89 9c 31 3d
       -0.09396292 -0.11053325 -0.06656797 0.043362174
0001b0 e9 0e c7 3d 4b b3 97 3d fa 86 8c 3d d1 66 0b be
       0.09719641 0.07407244 0.06861682 -0.1361344
0001c0 2d fe 8e bd fd c9 34 bd ee 78 93 3d 82 12 f4 3d
       -0.06982074 -0.044137944 0.072008 0.119175926
0001d0 4c 80 e1 bd 5b 17 88 bd d6 d7 77 bd 14 3a 0e bd
       -0.11010799 -0.0664508 -0.06050857 -0.034723356
0001e0 68 1e 5c 3d a7 48 a1 3c eb cb 13 3e 36 5d b0 bd
       0.053739935 0.019687964 0.14433257 -0.086115286
0001f0 a8 f3 08 3e d2 fa 2e bd 64 ca 68 3d de 94 07 3e
       0.13374197 -0.04271967 0.05683364 0.13240382
000200 9e 6f e3 bc 13 73 10 3e 7d a0 8a bd bb 8a a3 bd
       -0.027763184 0.14106397 -0.06768892 -0.07985445
000210 01 e1 c4 3d 25 0a 63 bd 8b 5c 3c bd cd e9 bb bc
       0.096132286 -0.055429596 -0.045986693 -0.022938633
000220 42 3d ed 3d 7c 66 84 3d 61 c7 83 3c a9 d7 23 bd
       0.115839496 0.0646486 0.016086282 -0.04000059
000230 16 e2 cb bd d2 c9 76 bc b0 41 79 3d 2f 94 c1 bc
       -0.09955232 -0.015062766 0.06085366 -0.02363023
000240 24 31 34 bc 28 9e 77 3d 72 4e 2a 3d 3b bd 24 3d
       -0.010998044 0.060453564 0.041578718 0.040219527
000250 66 6e 7a bd 5f d5 9f bd a5 10 14 be 2b 87 ae bd
       -0.06114044 -0.07804369 -0.14459474 -0.08521875
000260 6e 05 0d be e8 3e 8d 3d 6b b9 e7 bb 97 f5 a3 bc
       -0.13771603 0.06896764 -0.007071664 -0.020014567
000270 a5 21 17 3e f5 e1 15 ba 9a bb 6b 3d 82 24 fc bc
       0.14758928 -0.0005717569 0.057551958 -0.030779127
000280 8f 07 a3 bd 97 25 2c 3d 80 4d 05 be b0 39 66 bd
       -0.07960426 0.042028036 -0.13017845 -0.05620736
000290 22 b4 09 3d 36 15 84 bc ad 1f 9b bd 94 d9 28 3d
       0.033619054 -0.016123395 -0.07574401 0.041223124
0002a0 e5 50 90 3d 86 80 bf bb b0 65 d1 bc df 36 c1 bd
       0.070466794 -0.0058441786 -0.025561184 -0.09434294
0002b0 a8 ac 91 bc 37 fa 77 3d de e5 ae 3d 2a c3 2c bd
       -0.017782524 0.060541358 0.085399374 -0.04217831
0002c0 5d d3 ad bc cf a1 26 3d d3 ed f5 bd d7 6d dd 3d
       -0.02121895 0.040681656 -0.12008252 0.10811966
0002d0 bc 10 c7 bd d9 9e e4 bc 3f 43 b6 3c 44 01 46 3d
       -0.09719989 -0.027907776 0.022248862 0.04834105
0002e0 80 85 b4 bc 6d 32 77 3d 1a 3e c0 3c e8 19 8c 3d
       -0.022036314 0.060350824 0.023467112 0.06840879
0002f0 1f 60 1b 3e ca bc 04 bd 06 99 7a bd 25 25 15 3e
       0.15173386 -0.032406606 -0.06118109 0.14564951
000300 ed f9 36 3d bb 60 39 bd 55 81 06 3c e9 b7 35 be
       0.04467194 -0.045258265 0.008209546 -0.17745937
000310 6e 08 5a bd 9b fd 05 bd b2 fd a1 bb 72 73 a0 3d
       -0.053230695 -0.03271256 -0.004943573 0.078345194
000320 b3 54 a5 3c 1c 5c 40 3e e0 d9 ee bc b2 2e 9f bc
       0.02018199 0.18785137 -0.029156625 -0.019431446
000330 5b 99 32 bd 5c 0c 8b bc 43 55 b0 3d 78 8f f7 bc
       -0.043603282 -0.016973667 0.086100124 -0.030219778
000340 0c 0d c1 3d 40 c9 e1 bd 30 72 c8 bd 95 a6 e1 bc
       0.094263166 -0.110247135 -0.097874045 -0.027545253
000350 47 ea 86 3d 6f 2b 2b 3e 60 85 81 3d 27 2b b3 3d
       0.065876536 0.16715787 0.063242674 0.08748465
000360 b5 83 e1 3d c5 ca 1a 3d 97 df b9 bc 98 12 ed 3d
       0.11011449 0.037791032 -0.022689624 0.11575812
000370 95 e2 87 bc c0 85 ed bd b2 ce c1 bd 14 74 a7 3d
       -0.016587535 -0.115977764 -0.09463252 0.08176437
000380 37 fd 06 3c 6d 62 aa bd 1e 41 ef bd bf 11 b4 3d
       0.008239082 -0.083195545 -0.11682342 0.08792447
000390 2f c2 37 bd c9 8b 27 bd f2 6b e3 3d e2 7a a1 bd
       -0.044862922 -0.040904794 0.11104573 -0.07884766
0003a0 45 25 7e 3d 83 58 9a 3d 1b e5 92 3d d9 16 b3 3d
       0.06204726 0.075364135 0.07172605 0.08744592
0003b0 b8 e0 9d 3d d1 52 5c 3d c8 c0 25 3d 77 1a 3c bd
       0.07708877 0.053789917 0.040467054 -0.045923676
0003c0 94 74 c8 3d 26 22 83 3d 3e c0 a0 bd 50 ab 29 ba
       0.097878605 0.06402998 -0.07849167 -0.0006472366
0003d0 32 5c 92 bd 8e 12 eb bd f4 a2 78 3d 61 28 d7 3d
       -0.07146491 -0.114781484 0.06070228 0.105057485
0003e0 13 8b 0c 3e e1 d1 98 3b ed 68 39 bd be ce d8 bc
       0.13724928 0.0046636914 -0.04526608 -0.02646577
0003f0 07 95 de 3c ae 4d e7 3c 7b 06 ee ba e9 2b af bd
       0.027170671 0.028235283 -0.001815989 -0.08553297

lstm.bias_ih_l0 f4 [256]
000000 fb bc 11 3d fb 05 cf bc f3 c7 33 bd b8 45 27 bb
       0.035580616 -0.025271406 -0.04389186 -0.0025523733
000010 ab ad 79 3d 1b 4b 77 bd 19 42 ed 3d ad 2b 30 bd
       0.06095664 -0.06037436 0.11584873 -0.043010402
000020 bf b3 8b 3d 4d 7f 33 3e df 09 04 bd 62 6f 44 bd
       0.06821393 0.1752903 -0.032235976 -0.047957785
000030 1e 97 a2 bd 08 f0 bb bc ce ce 83 bd 1e 1d b2 bd
       -0.079389796 -0.022941604 -0.06435929 -0.0869696
000040 34 48 44 bd bc 4a 14 bd 1a 7a d5 3d 07 00 ab 3b
       -0.04792042 -0.036204085 0.1042368 0.005218509
000050 e5 c5 48 3d 70 06 11 3c e5 49 33 3d 3f 61 9a 3d
       0.049016852 0.0088516325 0.043771643 0.075380795
000060 1b f7 5a 3b 4d 82 56 3c 05 81 09 3d 7e a3 11 3e
       0.0033411446 0.01309259 0.03357031 0.14222524
000070 b0 e3 5d bd 09 ab 10 3e 9a c9 e7 3b 1a 82 e7 3d
       -0.054172218 0.14127745 0.0070735933 0.11304112
000080 fa 13 e4 3d 48 9b d6 bc d1 f6 bd 3c b1 1b aa 3d
       0.11136623 -0.02619709 0.02318898 0.08306063
000090 76 3b 62 bc 61 0d 92 3d 73 49 e4 3d f0 e4 7d 3c
       -0.013808122 0.07131458 0.11146822 0.0154964775
0000a0 f4 fb 19 bc af d1 fc 3d 1f 2c 17 3e 0b 56 05 3e
       -0.009398449 0.123446815 0.14762925 0.13021104
0000b0 5e 67 be bd fe c8 db 3d 15 6f aa 3d d5 16 5e bd
       -0.092970595 0.107316956 0.083219685 -0.054220993
0000c0 85 fa e7 3d 61 23 09 bd 41 f0 65 3d 51 29 25 3d
       0.1132708 -0.033481006 0.056137327 0.040322606
0000d0 9b 4c 89 3d 9c 29 29 bd f1 37 ee 3b 04 73 e5 bc
       0.067040645 -0.041299447 0.0072698523 -0.028008945
0000e0 5b d5 9d 3d 18 37 84 bd 68 a3 05 3d aa 28 cf 3c
       0.0770671 -0.06455821 0.03262654 0.025287945
0000f0 67 51 d3 3c d1 a4 44 bc 65 32 8f 3d b0 3d 0c 3d
       0.025795652 -0.012002186 0.06992034 0.034238517
000100 f8 87 17 bd 4d 55 96 3a 58 22 16 bc 4c c1 c7 bc
       -0.036994904 0.0011469513 -0.009163462 -0.024384163
000110 f3 1d 51 ba 4a cb a1 bb ce 5e 8b bd cd ee 82 bd
       -0.000797718 -0.004937564 -0.06805192 -0.06393204
000120 7a ca 39 bd ff aa 04 3c 53 9d f1 3d 99 60 bd 3c
       -0.045359112 0.008097409 0.11797585 0.02311735
000130 4c b4 a8 bd 3f f7 7c bd 8f 5a 1b 3d 5e 4e 18 3e
       -0.08237514 -0.06175923 0.03792816 0.14873645
000140 7f 0f c5 bd ac 13 db 3d 2e 9d d7 3d d2 cd 64 3d
       -0.09622096 0.106971115 0.105280265 0.055860348
000150 d6 64 d0 3d 00 c3 b5 3d 72 78 a1 bd 68 91 24 bd
       0.10175483 0.08875084 -0.07884301 -0.040177733
000160 bd 51 4b bd 42 89 2c bd 84 d5 cd 3c 62 c1 6b 3d
       -0.0496385 -0.042123087 0.025126226 0.05755747
000170 ac e2 19 3d 91 d8 c4 3d 78 75 18 bd 9a d5 07 3e
       0.037569687 0.09611619 -0.037221402 0.13265076
000180 e9 08 ca bc d9 ca 96 3d 62 19 11 3e 29 1e eb bd
       -0.024662452 0.07362909 0.14169839 -0.11480362
000190 2f a4 ed bd 9d b6 0e 3e c1 71 b5 3d c3 74 f0 3c
       -0.11603581 0.13936849 0.088595875 0.029352551
0001a0 aa 95 7f 3d ef db 49 3d f3 db 6f 3b 12 da 9d 3d
       0.06239859 0.04928201 0.0036599606 0.07707609
0001b0 6d fb 8d 3d 9d f8 bb bd ef d8 35 bc cc 99 2e bd
       0.06932721 -0.091782786 -0.011099084 -0.04262714
0001c0 0b 14 b2 3d 3e d4 ad bd ca b9 f0 bd 48 b9 9d bd
       0.08695229 -0.084877476 -0.117541865 -0.07701355
0001d0 ac ce 6f bc 3d c3 71 bd 7b ca 69 3b 7b 69 26 bc
       -0.014636677 -0.059024084 0.0035673666 -0.010156984
0001e0 15 83 c2 3d e4 cf 18 3e ca 87 95 3d 5e 5a 85 bd
       0.09497658 0.14923054 0.0730129 -0.06511377
0001f0 40 6b a8 3d ac a0 9c bd b3 2c 40 3c 1d 6e 7d ba
       0.08223581 -0.07647833 0.011729407 -0.0009667592
000200 2d ea e7 bd 0f 94 0a 3e 47 51 fa 3d 42 03 4d 3d
       -0.11323962 0.13533042 0.12222534 0.050051935
000210 d4 72 ab 3c 1c 1a 08 3e 31 91 6b bd be 0f 42 3d
       0.020928778 0.1329121 -0.057511512 0.047378294
000220 a0 72 37 bd 78 bb aa bd 38 5d db bd ad 26 b4 3d
       -0.04478705 -0.08336538 -0.107111394 0.08796439
000230 6f 22 85 bd 57 bf ad bd 80 9b 07 3e ab 5e 93 bd
       -0.06500708 -0.08483761 0.13242912 -0.07195791
000240 07 02 82 3c 84 a6 cf bd c4 40 68 bd d5 fd 12 3e
       0.015870107 -0.10139182 -0.05670239 0.14354642
000250 67 9f 7a 3d 09 eb 3c 3c 17 98 9e bd da 3f 1b 3d
       0.061187174 0.011530646 -0.077438526 0.03790269
000260 44 c3 a6 3d 5e 9e f6 3c 0f 0b 71 bd 1c 9b 09 3b
       0.08142713 0.030104812 -0.058848437 0.0020996993
000270 e7 54 b1 3d 1a 1f 11 3d 53 f2 d6 3d 95 f9 e0 3d
       0.08658772 0.03543005 0.104954384 0.10985104
000280 cd bf c5 3d c5 29 68 bd 56 4a 82 bc 51 f7 24 bd
       0.09655724 -0.05668046 -0.015904587 -0.04027492
000290 07 f7 05 bd ff 47 6e 3c c2 87 7c 3d 8a 43 97 bd
       -0.032706287 0.014543532 0.061652906 -0.07385929
0002a0 14 75 53 bd 90 79 f4 bd 7c fb 28 bd 78 62 a1 3d
       -0.051625326 -0.11937249 -0.04125546 0.078801095
0002b0 85 1b 0e 3e 00 85 77 3c 6d 6e a7 3d bb 59 0d be
       0.13877685 0.015107393 0.08175359 -0.1380376
0002c0 a9 f0 16 bc 30 fc 42 bd 22 3b f2 bc 73 e9 fc 3d
       -0.009212651 -0.047603786 -0.029569212 0.123492144
0002d0 1c d7 97 3d 75 22 e5 bd 63 45 b8 bd f1 9c ca bd
       0.07414076 -0.11188213 -0.089976095 -0.098932154
0002e0 4b 1b 80 3d f5 4d 61 3d 46 35 a7 3d 41 86 9c 3d
       0.06255206 0.055005986 0.08164458 0.076427944
0002f0 f1 42 94 bd 4f 3d ed 3c 0a 1d f2 bd b2 c9 34 bd
       -0.072393306 0.028959898 -0.11821945 -0.044137664
000300 12 3e 26 3d 87 14 c2 3c 10 d1 9f bd 27 4e 2c 3d
       0.04058654 0.023691429 -0.078035474 0.04206672
000310 ff 39 71 3d 3e 50 12 3e 86 de ee bc 64 90 fb 3d
       0.0588932 0.14288422 -0.029158842 0.122834
000320 3e e1 20 3c c4 da 28 bd 65 e3 08 3e 17 20 42 3c
       0.009819327 -0.041224256 0.13367994 0.011848471
000330 b0 ba 33 bd 1b fa 79 3c 75 d5 03 3e 13 95 3c bc
       -0.04387921 0.015257384 0.12874396 -0.011510151
000340 6f 02 32 bc c3 7a c1 3c 5c 0a ad bd e4 81 a2 3d
       -0.010864838 0.023618108 -0.084492415 0.07934931
000350 ec 7d 18 3e 14 f0 c9 3d a0 dd d9 3a 74 10 37 bc
       0.14891785 0.098602444 0.0016621836 -0.011173356
000360 ce 60 0c be 6f 24 6d bd af e8 ad ba 26 1b d1 3d
       -0.13708803 -0.057896074 -0.0013268198 0.10210256
000370 6a 7b 17 3e 76 2e a2 3c b7 a8 e1 3c 27 8b f0 3d
       0.14793172 0.019797545 0.02754627 0.11745291
000380 6f 46 60 bc 78 e1 eb bd 1f 5d ca 3d 5e b5 6f bd
       -0.013688668 -0.11517614 0.09881043 -0.058522575
000390 42 ef a7 bd 08 a0 25 3d 5a 36 bd bd ba b3 3d bd
       -0.08199932 0.04043582 -0.09238882 -0.04631398
0003a0 29 9a d7 bc 47 18 d9 3c 7a 4b a5 3d c2 b7 13 bd
       -0.026318626 0.026500834 0.08071037 -0.036063917
0003b0 06 79 be bd 78 3c 38 bc ec 69 0e 3e 37 3d 52 3b
       -0.09300427 -0.011244886 0.13907593 0.0032079944
0003c0 25 41 4b bd 09 a2 9a bb ef 84 d3 3d c7 48 75 3d
       -0.049622674 -0.004719023 0.103280894 0.05988386
0003d0 5d 3a 55 3c 26 dd 21 3e ac 25 5e 3d 34 35 73 3d
       0.013014403 0.15807018 0.054235145 0.05937691
0003e0 7a 29 05 3e b4 24 02 3d ea 55 9b 3b 9d 21 9e 3d
       0.13004103 0.031773284 0.0047404664 0.07721255
0003f0 32 9d 9b 3d 3a 17 5e bd 09 59 04 3e 9a c5 e7 bc
       0.07598342 -0.05422137 0.12924589 -0.028292466

lstm.bias_hh_l0 f4 [256]
000000 21 c0 9a bd 20 f3 11 3e 44 22 8e bd c3 1d 31 bc
       -0.07556177 0.14252901 -0.069401294 -0.010810318
000010 c8 e2 b9 bc f0 0f e0 3c 5e 10 47 bc 26 66 02 3e
       -0.022691146 0.02735135 -0.012149898 0.12734279
000020 ee ba 01 3e bb e4 76 bd 30 5b be bd 0f 9a b1 bd
       0.12668964 -0.060276728 -0.092947364 -0.086719625
000030 d4 29 b7 3d e6 91 6a 3c 47 a4 4a bd 52 80 3d bd
       0.08943525 0.014317011 -0.049473073 -0.046264954
000040 1e c5 05 3d 8d 31 30 3d 8e 92 8a 3d 66 80 02 3e
       0.03265869 0.043016005 0.06766234 0.12744293
000050 ac 15 15 3e 15 68 10 bd b1 d5 90 3c 8b 57 82 bd
       0.14559048 -0.03525551 0.017680021 -0.06364354
000060 b6 41 82 bd 71 5f 03 3d 52 bf be 3d 06 6c 02 bd
       -0.063601896 0.032073442 0.09313835 -0.0318413
000070 b4 86 29 bd b7 0f 6d bc 93 2c b1 3d e4 58 e0 3c
       -0.04138823 -0.014469079 0.0865108 0.027386136
000080 e0 a4 dd 3d 57 7e 12 be d2 c5 86 3d f9 89 ba 3d
       0.10822463 -0.14306007 0.065807 0.091083474
000090 7d 8b a8 3d 4d 2a 93 bd c9 85 bb bd 9b 68 2c 3d
       0.0822973 -0.071858026 -0.09156377 0.042091947
0000a0 96 44 10 3d 3c cc ce 3d f7 91 0c 3e ee 22 0a 3b
       0.03522166 0.10097548 0.13727556 0.0021077949
0000b0 4e aa 40 bc b6 c7 be 3d 77 15 73 bd fb f5 00 bd
       -0.011759354 0.093154356 -0.059346642 -0.031484585
0000c0 88 8f 40 3d 6f b1 4e 3c 45 4e 86 3d 34 f4 9e 3b
       0.047011882 0.012615546 0.065578975 0.0048508886
0000d0 e7 93 27 3d a6 85 91 3d 8a fd a9 3c c9 94 81 b9
       0.040912535 0.071055695 0.02075078 -0.0002471565
0000e0 81 f4 b1 3d d0 cf d5 3d d4 f9 9c 3b 45 04 d3 bd
       0.086892135 0.10440028 0.004790524 -0.10303549
0000f0 cc 36 49 bc 18 89 e5 3d 73 9f ea 3d 68 57 86 bc
       -0.012281131 0.11207789 0.11456194 -0.0163991
000100 21 51 cd 3d 71 cc a6 3c 7c d2 31 3c f0 87 50 bc
       0.1002524 0.020361157 0.010853406 -0.0127277225
000110 93 83 78 b9 b5 a7 fe 3b a6 05 0c 3d ae 00 a7 bd
       -0.00023700138 0.007771457 0.034185074 -0.081544265
000120 27 f4 ea 3c 70 b8 7f bd bd 02 c9 bd 49 5a b0 bd
       0.028680874 -0.062431753 -0.098149754 -0.086109705
000130 9f ca 10 bd fd 2a 69 3d 72 09 f3 3c 96 32 93 3d
       -0.035349485 0.056925762 0.02966759 0.07187383
000140 c9 a2 18 bd 96 e1 93 bd f8 e3 08 bd eb aa 87 bd
       -0.03726462 -0.072207615 -0.033420533 -0.06624397
000150 35 01 c3 3c d9 7a 9f 3d b7 1c 44 3d 50 b4 d4 bd
       0.023804286 0.07787103 0.047878947 -0.103859544
000160 bd 60 c9 3d 2b 75 0f 3e a1 aa dc bc 0a 2f 9a bd
       0.098329045 0.1400954 -0.026936831 -0.07528503
000170 7f 22 53 3d 62 e6 65 3d c2 0e 46 3b ee 18 f5 bc
       0.05154657 0.056127913 0.0030221199 -0.029919114
000180 5d d6 11 3d 05 47 d2 bd 54 51 18 bd e6 ae df 3c
       0.035604823 -0.10267452 -0.037186936 0.027305078
000190 85 89 92 3c 0f bf c6 3d 2b 0f cb 3d f9 0e 2a 3d
       0.01788784 0.0970441 0.099150024 0.041518185
0001a0 70 d4 a1 3d f5 f2 f5 3d 4b 30 15 bd 2b af c1 3d
       0.07901847 0.12009231 -0.03642301 0.09457239
0001b0 13 12 e7 3d ac 1b 9b bc 41 fb f7 3d 09 7f d2 bc
       0.11282744 -0.018934093 0.1210847 -0.02569534
0001c0 44 ea d7 bc d4 a9 04 3e ca 12 44 3d 2f f6 c5 3c
       -0.026356824 0.1295541 0.04786948 0.024165241
0001d0 58 44 90 bd 27 91 de 3d 67 61 72 3d f3 94 5f bc
       -0.070442855 0.10867529 0.05917492 -0.013646352
0001e0 f6 50 23 3c 2e fb 04 3e 6a 98 9e 3d 69 bb 97 bd
       0.009968033 0.12986442 0.077439144 -0.074087925
0001f0 0f ec f4 3c 01 58 5a bc eb 84 20 3e df d4 ab 3d
       0.029897718 -0.013326646 0.15675704 0.08390211
000200 35 c4 73 bc a4 eb 62 3b 4c cc 4f bd 7a 7c 11 bd
       -0.014878322 0.0034625316 -0.050731942 -0.0355191
000210 9a 2f c0 3c ab 3e e1 bd cd a4 c3 3b 1d 99 0b 3e
       0.023460198 -0.10998281 0.0059705735 0.13632627
000220 e0 19 51 3d 88 1b 61 b8 eb 8f 1d bd fa b2 2f 3b
       0.051050067 -5.366982e-05 -0.03846733 0.002680956
000230 51 54 a7 bd 13 3a b7 bd 27 a5 56 3d a2 85 34 3d
       -0.08170379 -0.08946624 0.052403595 0.044072755
000240 ca 89 96 3d 38 d9 69 bd a4 1c 54 3d 90 4c 1f bd
       0.073505 -0.05709192 0.051785126 -0.038891375
000250 bc 22 c9 bd 63 ce 2a bd 04 11 cd bd 9c 23 0a bd
       -0.09821078 -0.041700732 -0.10013011 -0.033725366
000260 7d 8d 87 bc 1e a6 ae 3d 64 32 b2 3d c7 8c b5 3c
       -0.016546959 0.08527778 0.087010175 0.022161854
000270 4c 65 97 3d c8 79 18 3d 89 bf 00 be 94 b9 77 bd
       0.07392368 0.037225515 -0.12573065 -0.060479715
000280 5c ec 8c bd 50 ee 2c bd 9a 3f 82 3c 2f b3 5a 3d
       -0.068810195 -0.04221946 0.015899468 0.05339354
000290 e7 a7 c3 3d ec 04 97 bd c7 50 15 3c 9c 3b a3 3d
       0.09553509 -0.07373986 0.009113497 0.07970354
0002a0 57 38 4d 3c 44 8d 01 be a8 bc 39 bd 48 cf 60 3d
       0.0125256395 -0.12651545 -0.045345932 0.05488518
0002b0 f7 2a 3d 3d b4 58 fb 3d 5f 5d d6 3d f6 82 b2 bd
       0.046183553 0.12272778 0.10467028 -0.08716385
0002c0 ba 54 b5 3d 67 27 0b be 03 01 30 bd aa 70 6f 3d
       0.08854051 -0.1358925 -0.042969715 0.058457054
0002d0 ab ec fc b8 48 48 cd 3d 4f 85 c8 3d 85 38 89 bd
       -0.00012060379 0.10023552 0.097910516 -0.06700233
0002e0 0e 02 0f 3e 2a 86 c0 bd 3c ca 24 3d 47 51 a1 3c
       0.13965628 -0.0940059 0.04023193 0.019692076
0002f0 d7 b4 d7 3d a7 19 10 3e 0f 67 cc ba 0e 96 20 bd
       0.10532539 0.14072286 -0.0015594679 -0.039205603
000300 92 3e 0f 3e 5d 4b f7 3d 04 35 aa 3c e9 d3 08 3e
       0.13988712 0.12074921 0.020777233 0.13362087
000310 3c 2f 99 3c 05 19 a3 3c 62 1d 31 3d 94 53 1e 3d
       0.01869928 0.019909391 0.043240912 0.038653925
000320 a5 36 27 3b b4 0c 8d 3d 2b 94 ca 3c 3a 38 36 bd
       0.0025514748 0.068871886 0.024728855 -0.044487216
000330 f4 f8 d9 bd c6 ad 9e 3d 99 84 05 bd 4a 09 38 3d
       -0.10643187 0.077479884 -0.032597158 0.044930734
000340 e9 e6 07 3e 8d 51 de 3d 08 cc 88 3d b4 fe c6 3d
       0.13271679 0.10855398 0.06679541 0.097165495
000350 c8 65 03 3e 26 32 f9 bc a2 97 17 3e 01 ab a2 bd
       0.12831795 -0.03041942 0.14803937 -0.07942773
000360 99 be c3 bd 21 10 2d bc 7a d5 1e 3e 14 7f d2 3d
       -0.09557838 -0.010562927 0.15511122 0.102781445
000370 02 99 88 3d eb e7 ce 3d 2b 85 a3 bd 71 c7 b2 bd
       0.06669809 0.101028286 -0.07984384 -0.08729447
000380 06 d3 52 3d 3b 3c 83 bd 4e e8 b3 3d 55 db be bd
       0.05147078 -0.064079724 0.08784543 -0.09319178
000390 3b 61 00 3e b0 b7 8e bd e7 29 5f 3d a0 ac ef 3d
       0.1253709 -0.06968629 0.05448332 0.117028475
0003a0 e5 4a c8 bc 5a 5a 17 3e 88 7b d5 3d eb 55 29 bd
       -0.024449775 0.1478056 0.10423952 -0.041341703
0003b0 69 d5 f5 bc 63 02 02 3e 9f c3 02 bc ba 0a 25 3d
       -0.030008988 0.12696223 -0.00798121 0.040293433
0003c0 79 9c ca 3d ad 99 cd 3d 29 39 93 bd e9 42 09 3e
       0.09893126 0.10039077 -0.07188637 0.1340443
0003d0 15 2d 8c 3d c4 b3 9b 3d ca 1d 89 bc 85 10 c6 3d
       0.06844536 0.07602647 -0.016737837 0.096711196
0003e0 6d 1b 0e bc f5 71 08 3e 91 11 ba 3d b7 7b 8a 3d
       -0.008673531 0.13324721 0.09085382 0.06761878
0003f0 c7 cd 9e 3c 30 ed ea 3d 18 e3 14 3e 7c 55 54 3d
       0.019385232 0.11471021 0.14539754 0.051839337

fc1.weight f4 [32, 64]
000000 4b 9e 0e bd 12 c5 62 bd 45 45 b5 bc d7 71 26 3d
       -0.03481893 -0.055363722 -0.022127757 0.04063591
000010 cb 89 82 bd 92 a4 ab bd 0b 1a 4c 3d 7f 5b 17 bd
       -0.06373938 -0.08380999 0.049829524 -0.03695249
000020 68 13 8c bd b4 81 e9 3c c0 1e 09 3d c6 55 ad bd
       -0.06839639 0.02850423 0.03347659 -0.084636256
000030 ac ed 17 3d 6a f0 fd bd 61 47 a8 3d 30 e4 cd 3d
       0.037091896 -0.12399371 0.082167394 0.10053289
000040 bf 8b 82 3d c3 1f d2 3d ed 9c 0a 3c d5 03 83 bc
       0.06374311 0.10259964 0.008460266 -0.015993038
000050 bd 2a ee 3b e8 76 92 3d f9 a8 a3 bd f5 12 d2 bd
       0.0072682784 0.07151586 -0.07991213 -0.10257522
000060 fd 8d 66 bd bf 03 a2 3d 06 02 a8 3d 38 e8 ff bc
       -0.056287754 0.07910871 0.08203511 -0.03123866
000070 b2 09 09 3e fb 1d 11 be ba 40 39 bd 82 dc 69 3d
       0.13382605 -0.14171593 -0.045227744 0.05709506
000080 03 2f e6 bd 8b c3 f7 3d ad 9d d8 bd 97 bf b0 3d
       -0.112394355 0.12097844 -0.10576949 0.08630293
000090 f7 78 46 3d d0 1f 30 bd 8f 67 f0 3d c2 15 39 bd
       0.048455205 -0.04299909 0.11738502 -0.045186765
0000a0 92 a5 d6 bb d1 06 c1 3d 21 5a e2 bd 12 f5 fa 3d
       -0.0065504992 0.09425128 -0.11052347 0.12253775
0000b0 55 0f 07 bd 2f a9 9c bd 3e fe b9 3d 1b ec 7b bd
       -0.032973606 -0.07649457 0.09081696 -0.061504465
0000c0 2d a6 97 bd 23 77 b0 bd 39 15 9b 3d 37 e5 a3 3d
       -0.074047424 -0.086164735 0.07572407 0.08002704
0000d0 1f 07 4f bd a9 a2 1a 3d 91 fc 81 3d 4c a8 24 bd
       -0.0505439 0.03775278 0.06347001 -0.040199563
0000e0 50 35 15 3d ea 95 77 3d 9b a6 6f 3c 99 35 0d bd
       0.036427796 0.060445704 0.014627124 -0.034474943
0000f0 79 86 1e 3e 1c 99 24 bc 15 58 58 3e e2 ef 22 3e
       0.15480985 -0.01004627 0.2112735 0.1591182
000100 40 ca ea 3d ee 93 9f 3c 16 95 a6 3c ab b0 3b 3d
       0.114643574 0.019479718 0.020334762 0.04582278
000110 92 a3 03 be 0c 49 11 bd 7d 35 64 bd d9 27 03 bd
       -0.12855366 -0.035470054 -0.055715073 -0.032020424
000120 ce e3 9b bd a2 b9 e3 bc 27 f9 91 bd 09 f9 d5 bd
       -0.0761181 -0.027798478 -0.071276 -0.1044789
000130 e1 7d 7f 3d 6b e1 0a 3e b0 5c 84 bd 7a e9 c4 bd
       0.062375907 0.13562553 -0.06462991 -0.096148446
000140 f7 7c 64 bd f6 06 09 bd 79 f7 0a be 50 c0 c4 3d
       -0.05578324 -0.033453904 -0.13570966 0.09606993
000150 b1 93 c9 3d cf 5d a2 3d 8d cb 50 bd 22 41 8c bd
       0.09842623 0.07928049 -0.05097537 -0.068483606
000160 a5 dd 07 3e cd 99 b6 bd 1a 00 f3 bd 24 42 f1 bd
       0.13268144 -0.08916054 -0.11865254 -0.117801934
000170 9e 69 c8 3c 43 d8 3b bb 33 59 80 bd 39 58 be 3d
       0.024464425 -0.0028662838 -0.062670134 0.09294171
000180 1b c4 63 bd 1b ab ad bb 06 69 9b 3d 33 ff 98 3d
       -0.055606943 -0.0052999384 0.07588391 0.074705504
000190 0a 03 ba 3d be 36 f2 bc 6e 94 4d 3d 7f 4b 71 3b
       0.09082611 -0.029567119 0.05019038 0.003681868
0001a0 f3 fd f6 3c ca bb 74 bd 00 d8 7d 3d 37 d2 6f 3c
       0.03015039 -0.059749402 0.06197357 0.0146375215
0001b0 78 19 3b 3c de c8 bd bc a6 4d 17 3d eb 60 db bd
       0.011419646 -0.02316707 0.036939286 -0.10711845
0001c0 dc 0f b5 3d 7f 8d e4 3d cb 21 a6 3d ce 20 94 bc
       0.088409156 0.11159801 0.08111914 -0.018082049
0001d0 74 cb d2 bd 82 0b a5 bc 8d 6c e9 bd c1 d9 97 bd
       -0.10292712 -0.020147089 -0.113976575 -0.0741458
0001e0 59 fa ab 3d 7f 0d 58 ba 95 0c e3 3d 98 76 57 bd
       0.083973594 -0.0008241757 0.11086384 -0.052603334
0001f0 c0 d6 92 bd c3 d1 e8 bd 1a 08 0d 3d 8b aa 05 3d
       -0.071698666 -0.11368134 0.034431554 0.032633346
000200 37 a2 0b 3c c3 81 24 3e ee e2 dc 3d 77 74 2d be
       0.008522562 0.16065125 0.10785471 -0.16938959
000210 ca 50 4b 3d ef 1a 79 3d c2 99 40 3d 6a 2b d0 3d
       0.049637593 0.0608167 0.047021635 0.101645306
000220 4a 16 8f bb 4d 34 b9 bd ff 5b 90 3d b2 8a 6c 3c
       -0.0043666707 -0.09043179 0.07048797 0.014437364
000230 1e ab 3d 3d 05 f6 ac bd 68 8e 49 b9 24 3c ce 3d
       0.04630577 -0.08445362 -0.00019221904 0.10070065
000240 8c 43 2a 3e 7e 08 a2 bd ca 45 95 3d 12 8e c5 3d
       0.1662733 -0.07911776 0.07288702 0.096462384
000250 ab 3d 97 bd 77 07 a9 3d e3 a7 12 bc 06 b6 e5 3d
       -0.07384809 0.08253377 -0.00895116 0.11216359
000260 48 c4 3b bd 0a 05 1a 3e 3e e3 2d 3d ac e5 cf 3d
       -0.045841485 0.15040985 0.042453043 0.10151228
000270 2c 43 4d bd fc e6 47 3d 22 09 4e 3d 49 40 ad 3d
       -0.05011289 0.04880427 0.05030168 0.08459527
000280 53 d8 4e bd f1 15 86 3b e7 ea 13 be 4a 85 77 bd
       -0.05049927 0.004091971 -0.14445077 -0.06042985
000290 e9 9b 05 3e 1a 9b a1 bd d8 ed 28 3c e9 f7 07 be
       0.13047756 -0.078909114 0.010310613 -0.13278164
0002a0 2a bd 2d be c4 50 d2 bd 86 c1 9b 3c 68 a1 55 bd
       -0.16966692 -0.10269311 0.019013178 -0.052155882
0002b0 22 34 35 bd 8b 8a 45 bd e6 1d 3e 3d bc ac ab bd
       -0.04423917 -0.048227828 0.046415232 -0.08382556
0002c0 37 d1 13 3e 80 c7 30 be 4c 2c 19 be 50 ea 69 3c
       0.14435278 -0.17263603 -0.14958304 0.014277056
0002d0 62 40 a0 3d 0e a9 77 3d d5 c4 01 3d c0 3b fd bb
       0.0782478 0.060463957 0.031681854 -0.00772807
0002e0 36 65 74 3d 32 a3 44 bd 4b fe 7e 3d 0f 24 50 bd
       0.059666835 -0.048007198 0.06225423 -0.05081564
0002f0 cb 4b 49 3d e4 46 9d 3d 8e d8 c2 3d d0 b4 35 bd
       0.049144547 0.07679537 0.09513961 -0.04436189
000300 38 2e a1 bd 6f 8d ef 3d d7 cb e6 3d ad 04 30 3c
       -0.07870144 0.11696898 0.11269348 0.010743302
000310 f8 b9 cd 3b 9a 64 81 bc d1 2b af bd a7 6e 24 3e
       0.0062782727 -0.01579504 -0.08553279 0.16057836
000320 bb e0 ff 3d 0d df cd bd b1 ed 52 3c 2b bb 36 3e
       0.12494036 -0.10052309 0.012874053 0.17844836
000330 7e e0 5d 3c f4 26 1d be 17 e9 03 3e 4e 62 84 3d
       0.013542293 -0.1534689 0.12881885 0.06464063
000340 e8 30 82 3c 42 b0 f2 3b be e0 dc 3d 75 0f de 3d
       0.015892461 0.0074062655 0.10785054 0.10842792
000350 17 af 1a be c9 f1 e4 3d a4 c4 04 be da d7 ea bd
       -0.15105854 0.11178929 -0.12965637 -0.11466952
000360 87 36 27 bd 11 69 f5 3d c5 8e 1a 3e 2f d2 b2 3d
       -0.040823486 0.119829305 0.15093525 0.087314956
000370 12 5f 07 3e 22 1d 19 be 4a db f0 bd 43 86 94 bc
       0.1321986 -0.1495252 -0.11760576 -0.018130427
000380 74 35 1e be 05 93 d4 bd ce 55 0d be 37 03 96 bd
       -0.15450078 -0.10379604 -0.13802263 -0.07324832
000390 8f 8b 58 3d f4 32 f2 bc 8a c9 0e 3d ac 63 9e bd
       0.05286747 -0.029565312 0.03486017 -0.07733855
0003a0 1b 99 40 bd aa dc 28 be ed 80 ae bd 75 96 80 bd
       -0.047021013 -0.16490427 -0.085206844 -0.062786974
0003b0 71 ef 12 3e 16 9d 66 3d 65 97 6d bd 1b ed cb bd
       0.14349152 0.056302153 -0.05800571 -0.09957334
0003c0 85 c3 4c 3d 97 72 0a be 04 f6 8e 3d 67 2d 11 3e
       0.04999115 -0.13520275 0.069805175 0.14177476
0003d0 ff 48 9c bc 39 93 99 bd 90 1a 00 3e 4f 9b 0b 3d
       -0.019077776 -0.074987836 0.12510133 0.03408366
0003e0 0c f2 56 3d 78 10 1e bd 6e ac 60 bd 6a e3 49 3d
       0.052476928 -0.038589925 -0.05485194 0.049289145
0003f0 8c 49 d4 3d ba 7a 05 3e 27 bc bc 3c fc f0 07 3e
       0.103655905 0.13035098 0.023038937 0.13275522

fc1.bias f4 [32]
000000 44 23 dc 3d 9a 90 de bd c2 98 d5 3d b4 cb bc 3d
       0.10748914 -0.10867424 0.10429527 0.09218541
000010 e4 ba 1f 3d a7 58 4a bd be 55 85 bd 7d e2 8c bc
       0.038996592 -0.04940095 -0.06510495 -0.017197842
000020 2a e9 2d bd 62 15 c7 3d f2 6c d4 bd 1c 67 cc 3d
       -0.04245869 0.09720875 -0.10372342 0.09980604
000030 a3 b4 4f bd 6d 90 6e 3d 43 f8 31 3d 68 2e 9c bc
       -0.050709378 0.058243204 0.04344965 -0.019065097
000040 8d 13 e3 3b ea 1e bc bd 55 85 82 3d dd 5b b3 3d
       0.006929821 -0.09185584 0.06373087 0.08757756
000050 20 35 bf bd 06 1d a5 3d a9 ff ff bd 20 49 04 3e
       -0.09336305 0.080621764 -0.12499935 0.1291852
000060 94 13 69 bd 7a 2f f3 bd a7 1a ca 3d 05 c5 b8 3d
       -0.056903437 -0.1187429 0.09868365 0.090219535
000070 31 9c 21 3d f5 d1 83 3d 60 99 8d bd 73 53 ee 3d
       0.039455596 0.064365305 -0.069140196 0.116370104

fc2.weight f4 [32, 32]
000000 eb dc 1d be f8 f4 46 bd e9 86 b9 bd ec 72 d5 bd
       -0.15416305 -0.048573464 -0.09058935 -0.1042231
000010 c9 3d 05 3e 66 c4 06 3e ca 14 ba 3d 14 71 27 3e
       0.1301185 0.13160858 0.090859964 0.1635173
000020 3d 09 df bd 79 9d 76 bd 9d 72 a6 bc c4 a9 4a 3b
       -0.10890434 -0.06020877 -0.020318324 0.0030923942
000030 56 ea e6 3d 02 51 31 3e 56 6e 89 3e c8 b6 14 be
       0.11275165 0.17316058 0.26841992 -0.1452285
000040 3a 92 20 3e a7 a3 81 3d 76 b9 ca bb 40 ca f6 ba
       0.15680781 0.06330042 -0.0061866594 -0.0018828586
000050 b0 ca 00 bd 04 1a a9 bd ce 23 9c bd eb c7 82 3e
       -0.031443298 -0.08256915 -0.07624017 0.2554315
000060 02 c4 e6 bd 6c c6 0e 3d 09 50 10 3d 2d 56 e0 3d
       -0.11267854 0.0348572 0.035232577 0.10953937
000070 7c ee d1 bc c9 f5 03 3e 73 26 31 be 77 e4 00 be
       -0.025626414 0.12886728 -0.17299823 -0.12587152
000080 6c 4f 1d be 20 d5 a6 bb 42 e5 df bd 2e a2 f1 3d
       -0.15362328 -0.0050913244 -0.10932399 0.117985114
000090 49 1c ac bd 20 3b 76 3c e9 08 19 3e f2 66 32 be
       -0.084038325 0.015028745 0.14944805 -0.17422083
0000a0 de 57 95 3d 08 32 1a be 06 70 af 3d ac bb 3d bd
       0.0729215 -0.15058148 0.08566289 -0.046321556
0000b0 48 52 1b be 18 a2 ee 3c 70 7c 53 3c 10 e6 7b 3d
       -0.15168107 0.029130027 0.012908086 0.0614987
0000c0 06 18 d9 3d 70 7e 95 bc 9a e4 a7 bd 67 ea 30 3e
       0.10600285 -0.018248767 -0.08197899 0.17276917
0000d0 ec 9a 5f bd 8b e0 1a 3e 06 6b f1 3d c0 87 31 be
       -0.054591104 0.15124719 0.11787991 -0.17336941
0000e0 c8 ad 51 bd b0 18 3b 3c 6e 10 11 be 48 8d f7 3c
       -0.05119112 0.01141946 -0.14166424 0.030218735
0000f0 bb a5 95 bd 74 ca b9 bd df bb 06 3e 32 a7 9b 3d
       -0.07307001 -0.09071818 0.13157605 0.07600249
000100 52 c2 22 3e b0 1e 14 bd ed 69 8d bd 52 92 08 be
       0.1589444 -0.03616208 -0.06904969 -0.13337067
000110 82 ae d5 3b 8b 06 0e 3e 50 80 9e bc 86 af 31 3e
       0.006521047 0.13869683 -0.019348294 0.17352113
000120 06 6c e7 3d 0d a8 04 bd 68 ae cd 3c d2 a8 1e 3e
       0.11299901 -0.03238683 0.025107577 0.15494087
000130 d5 98 4a 3e 05 61 30 3e 98 ef c9 bc 28 ed f5 3c
       0.19784863 0.1722451 -0.02465038 0.030020311
000140 57 07 15 3e 4f 7d 20 3e e0 1f 31 be 33 03 ed 3d
       0.14553581 0.15672801 -0.17297316 0.11572876
000150 77 46 a7 bd 15 f2 dc bd 8f eb cb bd a3 f3 97 3c
       -0.08167737 -0.10788361 -0.099570386 0.018548792
000160 90 72 e2 bc 40 ca 4f bb 63 12 d2 bd ee db bd 3d
       -0.027642518 -0.0031706244 -0.10257413 0.09270464
000170 d4 d1 f2 bd ce 00 12 3e d7 5b 23 be 44 4f 20 3d
       -0.11856428 0.1425812 -0.15953003 0.039138094
000180 45 86 0c be c6 53 c9 bd f5 e8 61 3c 01 b2 7a bd
       -0.13723095 -0.09830432 0.013788451 -0.061204914
000190 12 e5 f2 bd c8 40 87 bc 3a 7b 02 be 73 51 d7 bd
       -0.11860098 -0.016510382 -0.1274232 -0.10513582
0001a0 ce fa d5 3d f1 f7 8e bc 80 7a 4c bd f2 3b 07 3e
       0.10448228 -0.017452212 -0.049921513 0.13206461
0001b0 9c 0d 7c 3c b5 e9 02 3e e0 e7 95 3d 00 cb 6d 3c
       0.015384104 0.12784465 0.07319617 0.014513731
0001c0 6b 68 85 bd ba 1c cd bd 11 bc 08 3e fb 0c ce 3c
       -0.06514057 -0.10015245 0.13352992 0.025152674
0001d0 95 53 1a 3e be 60 9f 3d 4e 2d a9 bc e1 ce 26 be
       0.15070947 0.07782124 -0.020651486 -0.16289856
0001e0 c2 00 92 3d 34 cb 47 bd 1f 85 f0 3b 41 b3 bf bd
       0.07129051 -0.048777774 0.007340088 -0.09360362
0001f0 4e 57 e3 3d 1f f8 10 3e 1c b7 d6 bd d8 66 8e bd
       0.111006364 0.1415715 -0.10484144 -0.0695321
000200 ca c0 06 be 3a 3f af 3d 3b 29 03 be 9e f8 0b be
       -0.1315948 0.085569814 -0.12808697 -0.13669059
000210 1e 54 04 be 78 ff 11 be 17 d6 0b 3e eb e0 9b bd
       -0.12922713 -0.1425761 0.13655888 -0.07611259
000220 c2 cc df 3d 50 60 48 bd d6 7f 5a bd c8 58 46 bd
       0.10927726 -0.048919976 -0.05334457 -0.048424512
000230 0e d6 12 be fc d1 4f 3d 3b 9f 91 bd 44 be 58 3d
       -0.14339468 0.050737366 -0.07110449 0.052915826
000240 8a 3d 1a be 68 84 e2 3c 5f 06 13 3e 28 92 5e bd
       -0.15062538 0.027651027 0.14357899 -0.054338604
000250 c4 58 1a 3d 9f b5 32 be 86 df 93 bd d3 ee 15 3e
       0.03768231 -0.17452095 -0.07220368 0.14641885
000260 9e 9a 8f 3d 30 a5 84 3d 9a 1f 9d 3d 50 d8 13 bd
       0.07011913 0.064768195 0.07672043 -0.036094964
000270 14 ad 99 bd f3 5a 2a 3e 5c c2 84 bd 50 fc 66 bc
       -0.07503715 0.16636257 -0.064823836 -0.014098242
000280 5d 30 09 be e1 c1 0a 3e ae 8e 6c bd 57 fa 86 bd
       -0.13397355 0.13550521 -0.057753257 -0.06590717
000290 6a 2e e1 bd d4 88 28 3d 46 2a 0c be d6 cb 0d 3e
       -0.10995181 0.041146114 -0.13688001 0.13847288
0002a0 df 13 05 3e 55 c4 09 be 84 18 26 be ec 9c 04 3d
       0.12995861 -0.13453801 -0.1622029 0.032376215
0002b0 82 44 d7 bd c3 96 41 be 41 00 c7 3d bc 16 36 bd
       -0.10511114 -0.18905167 0.09716845 -0.044455275
0002c0 23 8e ba 3c 78 e1 9a 3c 7e f5 fd bd 26 e1 cd bd
       0.022772854 0.01890634 -0.124003395 -0.10052709
0002d0 e0 bb 7b 3d 07 d5 1f be 68 e0 c6 bc de a5 f0 bc
       0.06145847 -0.15608607 -0.024276927 -0.029375967
0002e0 c4 ba c8 bd 8d e9 32 3e 9a 69 20 be 89 2a 1b be
       -0.09801248 0.17471905 -0.15665284 -0.15152945
0002f0 a0 de 02 be c6 4e cd 3d 52 17 1a be d6 c5 db 3d
       -0.12780237 0.100247905 -0.15047958 0.107310936
000300 6f 5e 27 3e 6d e5 29 3e 9b 29 20 3e 57 06 a4 3c
       0.16344617 0.16591425 0.15640871 0.020022554
000310 c8 6d bc bd 84 52 31 3d 6a 0f 95 3d 75 ed 76 3e
       -0.092006266 0.043291584 0.072783306 0.2411402
000320 82 a3 1e be 46 85 00 3e 48 48 32 3d 08 7a 85 3e
       -0.15492061 0.1255084 0.043525964 0.26069665
000330 77 5d 30 3c 13 2d 1a bd b9 b2 91 3e 01 2b 31 be
       0.010764471 -0.037640642 0.28456667 -0.17301561
000340 14 42 16 bb 17 b6 1a 3e f7 7d 67 bd db 99 60 3e
       -0.002292757 0.15108524 -0.056516614 0.21933691
000350 ba c4 dd 3d 92 d1 ef bc ec 98 11 bd 5f 31 62 3e
       0.10828538 -0.029274736 -0.03554623 0.22089146
000360 ac ef 12 bd ba a0 95 3d 2a e8 85 bd 23 46 d8 bd
       -0.0358731 0.07306047 -0.065384224 -0.105602525
000370 b3 4d f9 bd 2c 5d 3c be 32 75 5c bd f4 6f b8 bd
       -0.12173023 -0.18394917 -0.053822704 -0.09005728
000380 0a 44 34 3d 80 36 c9 3a de 41 04 be f2 12 19 be
       0.0440102 0.0015351325 -0.12915751 -0.14948633
000390 3a c8 00 bd 32 82 82 3d d0 69 2a 3c f5 94 8c 3e
       -0.03144095 0.06372489 0.010401204 0.27457395
0003a0 10 6c c2 bd 50 58 0b be 88 b6 18 bd 25 53 9e 3d
       -0.094932675 -0.13607907 -0.03728345 0.07730702
0003b0 7f 2d 07 be 27 ea c1 3d fa 95 74 3e f8 dc 32 be
       -0.13200949 0.09468489 0.23885337 -0.17467105
0003c0 c8 c3 b1 3d f5 0b d7 3c 39 7f 57 3d 15 94 cf bd
       0.086799204 0.026250819 0.052611563 -0.10135666
0003d0 2a 24 e4 3d 0e 47 ef bd ad 80 9d bd 5f 9d 35 3e
       0.1113971 -0.116834745 -0.076905586 0.17735814
0003e0 80 f4 1b bd 06 54 fc 3d 79 ed 83 bd 68 f4 23 be
       -0.03807497 0.12320714 -0.06441779 -0.16011202
0003f0 74 29 1f be b4 2c 5e 3b 2a 10 0d be 0b 84 12 3e
       -0.15543157 0.0033901157 -0.13775697 0.14308183

fc2.bias f4 [32]
000000 9f ce 9e 3d 3c d2 40 bd 4d 05 d0 3a 37 2a be bd
       0.077542536 -0.047075495 0.001587072 -0.092853956
000010 3e eb 6c bd d7 d0 4e bd 3b ec 6e bb c9 95 d4 3b
       -0.057841532 -0.050492134 -0.0036456722 0.0064875823
000020 81 0b 66 3d 4f 9f d3 3d 88 61 26 3e c5 24 56 3c
       0.056163315 0.1033312 0.16248143 0.01307029
000030 7f 18 a4 bd e7 04 5c 3d 76 0a f1 3d c8 e6 20 be
       -0.08012485 0.053715613 0.117695734 -0.15713036
000040 74 51 49 bc 11 04 b8 3d fd 8d 01 be 01 b3 00 3e
       -0.012287486 0.089851506 -0.1265182 0.12568285
000050 e3 5d f4 bd 56 34 58 3d c1 2e 4c 3d 10 bf 0d 3d
       -0.1193197 0.052784286 0.049849275 0.03460604
000060 f1 90 f9 bd ec b3 38 3d 4a c4 01 be 3e 40 b6 bd
       -0.121858485 0.045093462 -0.12672535 -0.08898972
000070 9e ea 69 3d 28 c5 11 be 0b cc 13 3e 0c 9b 83 3d
       0.057108514 -0.14235365 0.14433305 0.06426057

fc3.weight f4 [1, 32]
000000 23 85 21 3e 8f d2 cd bd 0b 65 22 3d 10 70 eb 3d
       0.15773444 -0.100499265 0.039647143 0.114959836
000010 76 dc 85 3d a9 28 f5 bc ac 43 8d 3e ad 7a 41 3e
       0.0653619 -0.029926615 0.27590692 0.18894453
000020 29 b5 f5 3c 27 00 e6 bd 88 ea 24 be 3c 52 2f 3e
       0.02999361 -0.11230498 -0.16105092 0.17121214
000030 31 ac e2 bc 83 de a6 bd 12 4c 59 bd 82 79 be bd
       -0.027669998 -0.081479095 -0.053051062 -0.093005195
000040 19 0f 84 3d bd 2d 0c 3d be 07 d5 3c 68 e3 a1 bd
       0.06448192 0.034223307 0.026004668 -0.079047024
000050 1e 8b 4a 3d 42 b7 0d 3e 8c d1 0e 3e 31 26 04 3e
       0.04944908 0.13839439 0.13947123 0.12905194
000060 f4 cd 5e 3d bf 20 7e 3d 86 26 6a bd fc 25 fc bd
       0.05439563 0.062042948 -0.057165645 -0.123119324
000070 c2 1f ce 3d 02 39 ba 3b 14 f9 66 bd 93 ef 60 ba
       0.10064651 0.0056830654 -0.056389883 -0.0008580621
