checkpoints/StockPrediction_epoch_2.pt (torch, 255962 bytes, 27 tensors)

lstm.weight_ih_l0 f4 [256, 1]
0.0196177 0.029558448 -0.07917955 0.038488656 -0.05178488 -0.007177544 -0.10449188 -0.001653856
0.043600585 -0.031179678 0.04265938 -0.053208422 0.08353725 -0.060412247 -0.0010520713 -0.08822506
0.03867984 -0.041431367 -0.08361638 -0.03804668 -0.12666175 -0.087281734 -0.12327902 0.058886375
-0.08012052 -0.13445911 -0.11162129 -0.1377297 -0.064117104 -0.16967642 0.038411386 -0.17339209
0.05136164 0.010159386 -0.09979716 0.09488196 -0.033061188 0.10752111 -0.016993735 -0.11306929
-0.036903255 -0.10732167 0.11543959 0.05378865 -0.009107393 -0.124859296 0.0016737651 -0.055714775
-0.014112006 -0.15172939 -0.14419708 -0.12420598 -0.14919895 0.030669332 -0.03132619 0.12352027
-0.027978359 -0.07307635 0.020082489 -0.1032178 -0.070957854 -0.16503139 0.21220773 -0.09787253
-0.035457984 -0.100144744 0.055066437 -0.14948662 -0.08934411 -0.107034214 0.0726764 -0.032424957
0.056305908 -0.04711796 -0.18425807 -0.17205322 -0.085795924 -0.025031399 -0.019752938 0.035432473
-0.12042808 -0.142637 0.0526137 -0.11997609 0.009880503 -0.09866173 0.0016268495 -0.11949011
-0.04308857 -0.033817284 -0.04941895 -0.0939045 -0.00036757044 0.04300151 -0.16275284 -0.13120604
0.06426338 -0.045814566 -0.10491553 -0.103028506 -0.12455358 0.076006174 -0.04132055 -0.15991746
-0.064853266 -0.15530199 -0.029607922 -0.12553556 -0.18870309 -0.14729202 0.055963654 -0.05474851
-0.03686756 -0.19096696 -0.09505644 -0.11217362 -0.026282122 -0.17856579 -0.113071956 0.044635344
-0.06560724 -0.11536077 -0.085244186 -0.09122094 -0.16245157 -0.15063296 0.17472881 -0.14745267
0.18699208 -0.0949689 0.07162267 0.11182304 -0.14629155 0.14763011 0.005878369 -0.11614594
-0.17622896 -0.16313188 0.10418802 -0.10129982 0.057969067 -0.03233635 0.035232626 -0.16513741
-0.07567169 0.08733734 0.045102216 0.042275146 0.1831562 -0.17658591 0.09795421 -0.095167994
0.0044302656 -0.17249475 0.04661142 -0.15736778 0.0031252652 0.11679835 0.11741353 -0.13993226
0.15868814 0.041468397 0.08772259 -0.12494841 -0.007707527 -0.08521627 -0.09013352 0.18713255
0.09452544 -0.0038050816 -0.10541379 -0.05808626 -0.0007088789 -0.09736484 -0.14409384 0.03530709
-0.17076696 0.11596156 0.12375863 -0.19141279 0.09905004 0.1358848 -0.049599506 -0.10825681
0.0026919467 0.13755147 -0.023752427 -0.036933746 -0.11201238 -0.061418504 -0.10449575 -0.113868885
0.002661051 0.030586286 -0.06444171 -0.105349086 -0.021644859 -0.036334034 -0.010330954 -0.043235183
-0.18527755 0.017245524 0.03844835 -0.030121963 -0.014948252 -0.1591936 -0.13923298 -0.18612267
-0.10196285 -0.019851137 0.05797258 -0.01555296 -0.18690977 -0.15190813 -0.09618282 0.098882325
0.02817911 -0.114470966 -0.030177344 -0.115246736 -0.16214244 0.034776863 -0.13413478 -0.09440888
-0.16699892 0.072446354 0.03186505 0.063459 -0.13950919 -0.10656339 -0.13129549 0.0133309215
-0.017138744 0.026635773 0.13558863 -0.03001116 -0.085526444 -0.16792415 -0.17999496 -0.198963
-0.028801152 -0.14186728 -0.04474986 -0.15245049 -0.075781584 -0.1609245 -0.15879487 0.11709596
-0.105103634 0.0017799219 -0.12034276 -0.106040195 -0.10358067 -0.14300108 0.15073578 -0.17200565
00000000: 4cb5 a03c 8f24 f23c e328 a2bd 48a6 1d3d
00000010: 621c 54bd 9a31 ebbb d7ff d5bd 33c6 d8ba
00000020: 8796 323d 866c ffbc 9abb 2e3d 13f1 59bd
00000030: 9415 ab3d d572 77bd a8e5 89ba 57af b4bd
00000040: c06e 1e3d f0b3 29bd 113f abbd d6d6 1bbd
00000050: 9eb3 01be c4c0 b2bd b679 fcbd d732 713d
00000060: 3a16 a4bd a6af 09be b499 e4bd 0409 0dbe
00000070: d44f 83bd a8bf 2dbe 4255 1d3d b28d 31be
00000080: 9560 523d 8e73 263c 7462 ccbd 7951 c23d
00000090: 2b6b 07bd 0734 dc3d 7236 8bbc df90 e7bd
000000a0: de27 17bd 77cb dbbd 976b ec3d 7d51 5c3d
000000b0: 2d37 15bc 3bb6 ffbd 3d62 db3a 2d35 64bd
000000c0: 0b36 67bc f35e 1bbe 66a8 13be b45f febd
000000d0: 9cc7 18be 403e fb3c e44f 00bd 32f8 fc3d
000000e0: df32 e5bc 0ea9 95bd 0884 a43c db63 d3bd
000000f0: 5a52 91bd fdfd 28be fc4c 593e 6571 c8bd
00000100: 643c 11bd b018 cdbd 588d 613d 0513 19be
00000110: 0bfa b6bd c134 dbbd 5dd7 943d 08d0 04bd
00000120: 06a1 663d c3fe 40bd 26ae 3cbe b82e 30be
00000130: c6b5 afbd a60e cdbc ead0 a1bc a421 113d
00000140: ffa2 f6bd 6f0f 12be 7781 573d 06b6 f5bd
00000150: d5e1 213c 290f cabd 033c d53a 3bb7 f4bd
00000160: a47d 30bd fe83 0abd 866b 4abd 0151 c0bd
00000170: 78b6 c0b9 5a22 303d aea8 26be e05a 06be
00000180: 859c 833d 0ea8 3bbd f4dd d6bd 9c00 d3bd
00000190: f315 ffbd 20a9 9b3d bd3f 29bd 67c1 23be
000001a0: cad1 84bd 7c07 1fbe 508c f2bc 658c 00be
000001b0: 623b 41be b8d3 16be 253a 653d f93f 60bd
000001c0: 7002 17bd d88c 43be f3ac c2bd 48bb e5bd
000001d0: 9b4d d7bc f3d9 36be 4592 e7bd 8dd3 363d
000001e0: 175d 86bd 4442 ecbd 8194 aebd 0bd2 babd
000001f0: b459 26be 873f 1abe 1cec 323e d5fd 16be
00000200: da7a 3f3e 0e7f c2bd e8ae 923d 7a03 e53d
00000210: 74cd 15be 592c 173e 559f c03b ecdd edbd
00000220: 5d75 34be 0b0c 27be 8760 d53d 4876 cfbd
00000230: f970 6d3d 1f73 04bd 1650 103d c819 29be
00000240: c2f9 9abd ebdd b23d 1abd 383d b428 2d3d
00000250: 4d8d 3b3e f0d2 34be 389c c83d 70e7 c2bd
00000260: c32b 913b 77a2 30be 9eeb 3e3d 0525 21be
00000270: 40d1 4c3b f933 ef3d 8176 f03d 674a 0fbe
00000280: 257f 223e c4da 293d e7a7 b33d f4e4 ffbd
00000290: 6c8f fcbb de85 aebd ec97 b8bd ad9f 3f3e
000002a0: 8e96 c13d ad5e 79bb 2fe3 d7bd dceb 6dbd
000002b0: 0fd4 39ba 3867 c7bd 568d 13be 2b9e 103d
000002c0: 89dd 2ebe 417d ed3d 2a75 fd3d b701 44be
000002d0: bfda ca3d 6325 0b3e da28 4bbd bfb5 ddbd
000002e0: 5f6b 303b 4bda 0c3e 7394 c2bc d747 17bd
000002f0: bf66 e5bd f891 7bbd de01 d6bd 1734 e9bd
00000300: 0765 2e3b 1790 fa3c 04fa 83bd 43c1 d7bd
00000310: 8f50 b1bc ffd2 14bd 2943 29bc 6017 31bd
00000320: 66b9 3dbe 7c46 8d3c 047c 1d3d 56c2 f6bc
00000330: 83e9 74bc a603 23be 1793 0ebe f196 3ebe
00000340: e6d1 d0bd da9e a2bc a874 6d3d d8d1 7ebc
00000350: 4665 3fbe ce8d 1bbe 80fb c4bd d182 ca3d
00000360: e0d7 e63c c16f eabd 7a36 f7bc 7b06 ecbd
00000370: ab08 26be 2f72 0e3d a15a 09be 7159 c1bd
00000380: c401 2bbe c15e 943d ed84 023d cbf6 813d
00000390: 7fdb 0ebe e83d dabd 5372 06be f069 5a3c
000003a0: 8d66 8cbc 4433 da3c bfd7 0a3e f7d9 f5bc
000003b0: 7d28 afbd 4ff4 2bbe 9950 38be f5bc 4bbe
000003c0: 65f0 ebbc a845 11be a14b 37bd fb1b 1cbe
000003d0: 6033 9bbd 64c9 24be 1f9b 22be 02d0 ef3d
000003e0: 9340 d7bd 454c e93a 4476 f6bd 9a2b d9bd
000003f0: 1a22 d4bd e06e 12be 7b5a 1a3e 4022 30be

lstm.weight_hh_l0 f4 [256, 64]
0.022285627 -0.04423784 0.06772057 0.007239749 0.13773827 -0.15852687 0.061948597 -0.014565854
0.09663932 0.20497197 -0.058508433 0.047399275 -0.0598826 -0.14141735 0.08800078 -0.069283254
0.11884441 0.05387873 0.11039975 0.0007838126 -0.15285121 0.085069485 0.028271709 -0.09529846
-0.01069934 -0.025940198 0.024871258 -0.012592699 -0.012908469 -0.06731083 -0.16836283 0.15354776
0.049637735 -0.043521978 -0.053344768 0.016685536 -0.08989084 -0.07043832 0.08950662 -0.12282244
-0.12596634 -0.04661545 0.01910743 -0.0043276376 0.042194232 0.018875781 6.6677836e-05 -0.09917007
-0.05548494 0.05946827 -0.09491858 0.07914231 -0.08689192 -0.04035597 0.15412544 0.09711922
-0.077464126 0.0025243931 0.15629789 0.06418406 0.13236639 0.16705483 0.005586927 0.0480346
-0.13586062 0.018712103 0.10053267 0.013060998 -0.032176793 -0.15854621 -0.1182527 -0.07721233
-0.04555907 0.055013128 0.042472467 0.07049249 -0.12463602 -0.14107834 0.09669819 -0.037438486
0.026767595 0.019070605 -0.05242146 0.015798308 -0.06195383 0.027921394 -0.106508166 -0.09843196
-0.08521353 -0.016909495 0.16055253 -0.01078481 -0.04200902 0.0026181706 -0.016475378 0.119917825
0.041078683 0.04606729 -0.16319712 0.0773656 0.09631892 0.036443006 -0.033059265 0.06429101
-0.09450716 -0.11081905 -0.05816683 0.043713987 0.09731262 0.07443725 0.069040045 -0.13638094
-0.06916433 -0.044458862 0.070914574 0.11955005 -0.11098041 -0.06703876 -0.059998147 -0.025825078
0.053928375 0.019047827 0.14462353 -0.087235644 0.13415353 -0.04243565 0.07433834 0.13331752
-0.0270611 0.14013751 -0.06887578 -0.07917191 0.09545134 -0.0545863 -0.044789772 -0.023967424
0.115159385 0.07159859 0.016933478 -0.040707465 -0.09923873 -0.014062234 0.05969792 -0.024223572
-0.01192907 0.061397903 0.040729225 0.03922961 -0.06030559 -0.07845771 -0.14351115 -0.08383214
-0.12996665 0.068182506 -0.007902709 -0.020922957 0.1466318 -8.089541e-05 0.058155276 -0.03146427
-0.078955136 0.042814553 -0.12961552 -0.053524505 0.03279932 -0.014346458 -0.07704076 0.041825015
0.071225576 -0.004797419 -0.018913604 -0.09532547 -0.018655416 0.05954789 0.08440216 -0.04111287
-0.021917822 0.041748054 -0.118798494 0.10714217 -0.09660565 -0.026911538 0.021518415 0.050414816
-0.023179773 0.061052028 0.02256272 0.068434946 0.15112914 -0.033262767 -0.05385742 0.14496565
0.04421076 -0.044659328 0.008981871 -0.17786916 -0.052339584 -0.033603083 -0.0057852366 0.078951426
0.02063437 0.1894436 -0.029870365 -0.01902831 -0.043481097 -0.017608194 0.08681044 -0.030009774
0.094917424 -0.11089588 -0.09727149 -0.02692298 0.065424375 0.16721591 0.06260198 0.08679899
0.107195504 0.038171 -0.022163438 0.11626034 -0.016013773 -0.11639094 -0.0949359 0.082082815
0.007857238 -0.08291516 -0.11720973 0.087588586 -0.04438802 -0.040344276 0.11180557 -0.07907344
0.06158207 0.074690305 0.07351213 0.088103466 0.07759245 0.05432975 0.04110388 -0.04654424
0.09838592 0.06344972 -0.07961739 -0.000116411786 -0.07176518 -0.11531626 0.061097328 0.107928
0.13799998 0.00420644 -0.04468893 -0.026463864 0.02745174 0.0287059 0.004559135 -0.08528575
00000000: 5990 b63c bd32 35bd 15b1 8a3d 6b3b ed3b
00000010: 430b 0d3e de54 22be d0bd 7d3d 9fa5 6ebc
00000020: d6ea c53d 2ce4 513e 8aa6 6fbd be25 423d
00000030: 7547 75bd b6cf 10be c139 b43d 61e4 8dbd
00000040: b364 f33d f1af 5c3d 4419 e23d c678 4d3a
00000050: 0785 1cbe e938 ae3d 129a e73c d72b c3bd
00000060: 494c 2fbc 8a80 d4bc cfbe cb3c 9c51 4ebc
00000070: 0b7e 53bc 43da 89bd 4e67 2cbe a03b 1d3e
00000080: f050 4b3d 1a44 32bd 0b80 5abd 1bb0 883c
00000090: b018 b8bd f741 90bd 3f4f b73d 558a fbbd
000000a0: 52fd 00be d8ef 3ebd 2f87 9c3c dbce 8dbb
000000b0: dcd3 2c3d 62a1 9a3c 64d5 8b38 ad19 cbbd
000000c0: 2d44 63bd 0095 733d ac64 c2bd 5d15 a23d
000000d0: 64f4 b1bd 4d4c 25bd 0fd3 1d3e 71e6 c63d
000000e0: 83a5 9ebd 4a70 253b 8e0c 203e ef72 833d
000000f0: 0e8b 073e 6c10 2b3e 8a12 b73b eebf 443d
00000100: 0c1f 0bbe 204a 993c 13e4 cd3d ccfd 553c
00000110: d0cb 03bd f059 22be 792e f2bd 8021 9ebd
00000120: 269c 3abd 7255 613d 9cf7 2d3d 5e5e 903d
00000130: 2b41 ffbd d776 10be b309 c63d 1959 19bd
00000140: b747 db3c f539 9c3c e3b7 56bd 746b 813c
00000150: 4dc3 7dbd 68bb e43c f420 dabd b296 c9bd
00000160: 6e84 aebd c885 8abc e267 243e c6b2 30bc
00000170: a611 2cbd 9d95 2b3b 5ff7 86bc 7a97 f53d
00000180: 1f42 283d 0eb1 3c3d 251d 27be db71 9e3d
00000190: db42 c53d 4345 153d 2769 07bd 01ab 833d
000001a0: f88c c1bd 19f5 e2bd 5840 6ebd 700d 333d
000001b0: d74b c73d 8f72 983d de64 8d3d 72a7 0bbe
000001c0: 07a6 8dbd 7f1a 36bd a93b 913d a8d6 f43d
000001d0: b249 e3bd 9e4b 89bd 9ec0 75bd 1d8f d3bc
000001e0: 00e4 5c3d 300a 9c3c 3118 143e 9aa8 b2bd
000001f0: 8b5f 093e 01d1 2dbd b33e 983d 6384 083e
00000200: 3daf ddbc 3580 0f3e bf0e 8dbd e224 a2bd
00000210: fe7b c33d e295 5fbd 7b75 37bd 5557 c4bc
00000220: afd8 eb3d 48a2 923d 14b8 8a3c dfbc 26bd
00000230: ad3d cbbd 4965 66bc ce85 743d 8370 c6bc
00000240: 2572 43bc 5e7c 7b3d b0d3 263d 3aaf 203d
00000250: ff02 77bd 70ae a0bd 96f4 12be 2fb0 abbd
00000260: fa15 05be 45a3 8b3d 5d7a 01bc 9f66 abbc
00000270: a626 163e 64a6 a9b8 3a34 6e3d aee0 00bd
00000280: 3bb3 a1bd 505e 2f3d eeb9 04be 833c 5bbd
00000290: 9458 063d 680d 6bbc 8cc7 9dbd b550 2b3d
000002a0: b7de 913d ab33 9dbb b4f0 9abc 003a c3bd
000002b0: 3ed3 98bc 7de8 733d 0adb ac3d f865 28bd
000002c0: 018d b3bc 0200 2b3d a04c f3bd 5b6d db3d
000002d0: 2fd9 c5bd 9675 dcbc 6347 b03c c47f 4e3d
000002e0: 82e3 bdbc b111 7a3d 74d5 b83c 9f27 8c3d
000002f0: 99c1 1a3e 8a3e 08bd 9999 5cbd e071 143e
00000300: 5816 353d b3ec 36bd b328 133c 5523 36be
00000310: 0862 56bd 63a3 09bd 1592 bdbb 49b1 a13d
00000320: 6909 a93c 81fd 413e b2b2 f4bc 42e1 9bbc
00000330: 3c19 32bd 0f3f 90bc acc9 b13d 0fd7 f5bc
00000340: 1164 c23d 611d e3bd 4636 c7bd 958d dcbc
00000350: 37fd 853d a63a 2b3e 7835 803d abc3 b13d
00000360: 5189 db3d 3259 1c3d 1990 b5bc e719 ee3d
00000370: 512f 83bc 605e eebd c16d c2bd 091b a83d
00000380: a5bb 003c 6ccf a9bd a80b f0bd a561 b33d
00000390: 36d0 35bd 0a40 25bd 52fa e43d 41f1 a1bd
000003a0: 7b3d 7c3d 3bf7 983d 878d 963d 976f b43d
000003b0: cae8 9e3d df88 5e3d 8b5c 283d 2ca5 3ebd
000003c0: 8f7e c93d edf1 813d 710e a3bd 1a22 f4b8
000003d0: 9ff9 92bd ee2a ecbd 3141 7a3d 5b09 dd3d
000003e0: de4f 0d3e 2dd6 893b bd0b 37bd bfca d8bc
000003f0: 79e2 e03c a328 eb3c cc64 953b 4caa aebd

lstm.bias_ih_l0 f4 [256]
0.036475178 -0.025586829 -0.045418974 -0.0017536986 0.062025715 -0.059317783 0.1137894 -0.04329681
0.0700882 0.17804222 -0.031829964 -0.04730021 -0.0791993 -0.023351721 -0.06556316 -0.085049026
-0.04840927 -0.035548557 0.102398135 0.0028030833 0.049784135 0.0108709065 0.043133892 0.07338431
0.005897428 0.014025745 0.033775117 0.14300506 -0.055064913 0.14357352 0.008528279 0.11378766
0.11243415 -0.026063975 0.024172332 0.08127804 -0.013220718 0.07241596 0.11162756 0.017297443
-0.009065991 0.12314194 0.14744665 0.12972751 -0.09375481 0.10770291 0.083420254 -0.05473587
0.114533044 -0.033895105 0.055999205 0.040757887 0.06859447 -0.040573303 0.0074208765 -0.02461108
0.07736588 -0.06333966 0.03146174 0.025997821 0.02691453 -0.011786051 0.0732842 0.035632245
-0.03571214 0.00075397507 -0.010921581 -0.023246909 0.0007069046 -0.003916246 -0.07127343 -0.06421135
-0.042854384 0.01099433 0.118883446 0.024067199 -0.08289061 -0.06266904 0.035839695 0.15104118
-0.0968982 0.107816644 0.103239834 0.05289496 0.10287343 0.09118863 -0.07976537 -0.042472385
-0.04806687 -0.04098842 0.025000775 0.05882085 0.036242627 0.099087186 -0.035412367 0.13383879
-0.022836413 0.07309334 0.14268975 -0.1158608 -0.11530007 0.13910758 0.08881647 0.03192268
0.06313505 0.048628915 0.0010554234 0.076544665 0.067520514 -0.09125105 -0.01112869 -0.043487873
0.0883771 -0.08556112 -0.1174379 -0.076329164 -0.012763077 -0.05788497 0.004127647 -0.0071946923
0.0950897 0.15084974 0.07086885 -0.06444305 0.08346257 -0.07659245 0.014416515 0.0009375431
-0.112489976 0.13412598 0.12227552 0.051877227 0.020611139 0.1342876 -0.055527627 0.046377216
-0.044705663 -0.084905066 -0.10786585 0.08805523 -0.06345038 -0.083983526 0.1314415 -0.07297423
0.014723511 -0.1013749 -0.05507475 0.14079818 0.06211853 0.012117796 -0.076380454 0.036975488
0.08207486 0.02942172 -0.059103902 0.0021788622 0.08532932 0.035193756 0.10535688 0.10837408
0.097482994 -0.055943705 -0.015074744 -0.040299296 -0.032515556 0.013978148 0.06131187 -0.07264342
-0.051799677 -0.118367456 -0.041643962 0.07931099 0.13771625 0.014894339 0.08085179 -0.13684915
-0.010484309 -0.045939244 -0.029869068 0.12321823 0.07431934 -0.11112078 -0.090065144 -0.10108703
0.062867366 0.05503805 0.08012754 0.077253565 -0.07348172 0.02867005 -0.12154764 -0.04402636
0.041093405 0.02323444 -0.079333335 0.042552747 0.059747856 0.14361437 -0.030855661 0.12243914
0.010877956 -0.03867901 0.13389573 0.012138794 -0.043950908 0.014941833 0.12770326 -0.0102072125
-0.011312659 0.023947123 -0.0861239 0.07752327 0.14931658 0.100004405 0.0011697469 -0.013098996
-0.13521323 -0.057354793 -0.0011771532 0.102460325 0.14720723 0.020870078 0.028470162 0.11786058
-0.012776119 -0.115005665 0.099461764 -0.06040565 -0.08170429 0.04059465 -0.09228501 -0.04540999
-0.026214799 0.026222335 0.08019833 -0.036474157 -0.09380748 -0.011039581 0.1391739 0.0028533705
-0.048955314 -0.0051222127 0.10303074 0.06010962 0.014332285 0.15850891 0.054394387 0.062411178
0.13034832 0.03248146 0.0038185758 0.07791372 0.076718375 -0.054077454 0.13035606 -0.026691737
00000000: ff66 153d 789b d1bc 3f09 3abd 5cdc e5ba
00000010: ad0e 7e3d 34f7 72bd 6b0a e93d ff57 31bd
00000020: 678a 8f3d b350 363e 2360 02bd ddbd 41bd
00000030: 3e33 a2bd 1c4c bfbc fa45 86bd 2f2e aebd
00000040: cc48 46bd 5d9b 11bd 1db6 d13d efb3 373b
00000050: 73ea 4b3d e31b 323c 2aad 303d 834a 963d
00000060: 363f c13b 3dcc 653c c757 0a3d eb6f 123e
00000070: bf8b 61bd f004 133e 32ba 0b3c 8109 e93d
00000080: e043 e63d 1e84 d5bc 0e05 c63c 1a75 a63d
00000090: b69b 58bc d24e 943d fd9c e43d 5eb3 8d3c
000000a0: 8689 14bc d731 fc3d 41fc 163e 4ad7 043e
000000b0: 8602 c0bd 5893 dc3d 3dd8 aa3d b832 60bd
000000c0: 4d90 ea3d 98d5 0abd 6c5f 653d bef1 263d
000000d0: 427b 8c3d 3130 26bd d32a f33b 2d9d c9bc
000000e0: 0172 9e3d 39b8 81bd 07de 003d 62f9 d43c
000000f0: dc7b dc3c 481a 41bc 0716 963d 1ef3 113d
00000100: e546 12bd 69a6 453a 6ef0 32bc 4d70 bebc
00000110: 914f 393a da53 80bb cef7 91bd 3e81 83bd
00000120: 1488 2fbd 9021 343c 2a79 f33d 9328 c53c
00000130: 8dc2 a9bd a058 80bd a5cc 123d 8aaa 1a3e
00000140: 9072 c6bd f9ce dc3d 686f d33d 63a8 583d
00000150: 4eaf d23d 1bc1 ba3d 075c a3bd 86f7 2dbd
00000160: c4e1 44bd 79e3 27bd 6dce cc3c 22ee 703d
00000170: 2673 143d 39ee ca3d 8f0c 11bd 090d 093e
00000180: 6e13 bbbc f6b1 953d 431d 123e 6d48 edbd
00000190: 7122 ecbd 3872 0e3e 69e5 b53d 5bc1 023d
000001a0: f34c 813d 1d2f 473d 2256 8a3a 73c3 9c3d
000001b0: 3248 8a3d d5e1 babd 1c55 36bc 5720 32bd
000001c0: 0eff b43d ab3a afbd 4883 f0bd 7752 9cbd
000001d0: 3a1c 51bc ca18 6dbd 3641 873b 74c1 ebbb
000001e0: 63be c23d 5b78 1a3e b023 913d b8fa 83bd
000001f0: 6dee aa3d 81dc 9cbd 3f33 6c3c 74c5 753a
00000200: 2561 e6bd 5258 093e 966b fa3d 377d 543d
00000210: b1d8 a83c b082 093e f070 63bd 09f6 3d3d
00000220: 491d 37bd b5e2 adbd c5e8 dcbd 4d56 b43d
00000230: 46f2 81bd 8eff abbd 9a98 063e 8373 95bd
00000240: e23a 713c a59d cfbd 1096 61bd 662d 103e
00000250: 0070 7e3d b889 463c 5b6d 9cbd 9c73 173d
00000260: dd16 a83d d205 f13c ef16 72bd 3ecb 0e3b
00000270: 23c1 ae3d 5427 103d 59c5 d73d 3bf3 dd3d
00000280: 2aa5 c73d 3a25 65bd 0ffc 76bc e010 25bd
00000290: 082f 05bd 9a04 653c 2822 7b3d 13c6 94bd
000002a0: e62b 54bd a36a f2bd dc92 2abd cd6d a23d
000002b0: 7d05 0d3e 6307 743c a095 a53d 2f22 0cbe
000002c0: 61c6 2bbc ca2a 3cbd faaf f4bc d759 fc3d
000002d0: bd34 983d 4b93 e3bd 1374 b8bd b706 cfbd
000002e0: 9bc0 803d 946f 613d e819 a43d 1e37 9e3d
000002f0: 967d 96bd 74dd ea3c f8ed f8bd fc54 34bd
00000300: 8f51 283d 2756 be3c 8479 a2bd ca4b 2e3d
00000310: 2bba 743d a50f 133e 03c5 fcbc 5fc1 fa3d
00000320: 7439 323c e26d 1ebd f61b 093e cbe1 463c
00000330: de05 34bd 97ce 743c a5c4 023e 273c 27bc
00000340: bb58 39bc c22c c43c ba61 b0bd 85c4 9e3d
00000350: 72e6 183e 1ccf cc3d 3152 993a 2c9d 56bc
00000360: 5675 0abe dcec 6abd b54a 9aba b8d6 d13d
00000370: 7ebd 163e baf7 aa3c 423a e93c e360 f13d
00000380: ed52 51bc 1788 ebbd 9cb2 cb3d ea6b 77bd
00000390: 9454 a7bd 9346 263d ecff bcbd d3ff 39bd
000003a0: 6bc0 d6bc 39d0 d63c 063f a43d ed65 15bd
000003b0: 231e c0bd 5cdf 34bc 9a83 0e3e 9dff 3a3b
000003c0: 5e85 48bd 3cd8 a7bb c801 d33d 8135 763d
000003d0: f6d1 6a3c 2950 223e a6cc 5e3d dda2 7f3d
000003e0: 087a 053e 480b 053d 1241 7a3b 3a91 9f3d
000003f0: 861e 9d3d 5280 5dbd 0f7c 053e a1a8 dabc

lstm.bias_hh_l0 f4 [256]
-0.07466726 0.14221364 -0.07092852 -0.01001164 -0.021622049 0.02840793 -0.014209278 0.12705624
0.1285641 -0.057524815 -0.092541374 -0.08606205 0.089625746 0.013906885 -0.05067702 -0.044344366
0.03216984 0.043671533 0.06582368 0.1250276 0.14635772 -0.03323624 0.017042292 -0.065640025
-0.06104564 0.033006623 0.093343146 -0.031061603 -0.042280924 -0.012173003 0.08796544 0.028132644
0.10929255 -0.14292689 0.06679038 0.089300886 0.08288467 -0.070756644 -0.09140443 0.043892857
0.03555408 0.100670606 0.13709296 0.001624342 -0.012543612 0.09354032 -0.059146035 -0.03199946
0.048274126 0.0122014815 0.06544084 0.005286169 0.042466484 0.071781754 0.020901814 0.0031507208
0.08719092 0.10561883 0.003625704 -0.1023257 -0.011162267 0.112294026 0.1179258 -0.015005354
0.101535164 0.01996817 0.009095287 -0.011590461 0.0012676216 0.008792773 0.030963529 -0.08182358
0.031185584 -0.05953484 -0.09724216 -0.08515982 -0.03586496 0.056015875 0.02757912 0.07417851
-0.037941888 -0.071362086 -0.035460975 -0.06920938 0.024922863 0.080308825 0.046956573 -0.10615425
0.099900655 0.14122997 -0.027062282 -0.07402163 0.05021951 0.05909896 0.0048311385 -0.02873096
0.03743087 -0.10321027 -0.036195602 0.026247848 0.01862352 0.09678303 0.09937062 0.044088293
0.07975492 0.1194392 -0.03902753 0.09404096 0.111020744 -0.01840239 0.12105506 -0.026556054
-0.024932059 0.1288704 0.04797355 0.024849657 -0.068569206 0.10981451 0.059735198 -0.010684052
0.010081109 0.13148363 0.07529509 -0.07341721 0.03112446 -0.01344072 0.15944418 0.08580637
-0.014128672 0.002258144 -0.050681792 -0.03369381 0.02314256 -0.108607404 0.00795442 0.13532513
0.051131453 -0.0015934024 -0.039221756 0.0027717173 -0.08014709 -0.088612154 0.051415898 0.043056358
0.07235839 -0.05707497 0.05341277 -0.04163973 -0.097279415 -0.041113574 -0.09907204 -0.03465257
-0.015899166 0.08459468 0.08675472 0.022241011 0.072665274 0.03698922 -0.12532812 -0.061956696
-0.06788444 -0.041482706 0.01672931 0.053369164 0.09572583 -0.074305214 0.008772483 0.08091941
0.012351292 -0.12551032 -0.045734435 0.05539511 0.04512302 0.12251477 0.10376848 -0.0859752
0.08726887 -0.13422787 -0.043269653 0.05818315 5.794948e-05 0.10099687 0.09782147 -0.069157206
0.13997166 -0.09397387 0.03871484 0.020517725 0.104236975 0.14043283 -0.0048876186 -0.0390943
0.1403938 0.12029218 0.019479346 0.13410687 0.019553935 0.020639587 0.041544143 0.03825902
0.0036101087 0.0714171 0.024944631 -0.04419687 -0.10650359 0.0771643 -0.033637784 0.046233725
0.13226883 0.10888307 0.065163925 0.095339455 0.12871668 -0.029017497 0.14754704 -0.08135335
-0.09370372 -0.010021644 0.15526077 0.10313921 0.0659736 0.102100775 -0.07892 -0.0868868
0.052383333 -0.06390925 0.08849677 -0.09507488 0.12566592 -0.06952758 0.054587215 0.117932536
-0.024345946 0.14752707 0.10372749 -0.041751944 -0.030812208 0.12716766 -0.007883344 0.039938807
0.099598676 0.09998757 -0.07213652 0.13427 0.069763236 0.07646527 -0.016578568 0.09974546
-0.00836628 0.13395554 0.08993184 0.06831995 0.02012007 0.11485414 0.14650771 0.053440057
00000000: 26eb 98bd 74a0 113e f942 91bd dd07 24bc
00000010: b920 b1bc bfb7 e83c 08ce 68bc 081b 023e
00000020: 4fa6 033e 249f 6bbd 5586 bdbd 4d41 b0bd
00000030: b48d b73d b4d9 633c b592 4fbd 70a2 35bd
00000040: 86c4 033d ece0 323d 91ce 863d 3c07 003e
00000050: ccde 153e b922 08bd 479c 8b3c 476e 86bd
00000060: fe0a 7abd f431 073d b12a bf3d e774 febc
00000070: c32e 2dbd 4671 47bc 3927 b43d 6e76 e63c
00000080: c6d4 df3d 6d5b 12be 65c9 883d 62e3 b63d
00000090: 70bf a93d dce8 90bd 3f32 bbbd ffc8 333d
000000a0: 28a1 113d 642c ce3d 1962 0c3e e0e7 d43a
000000b0: b983 4dbc 1192 bf3d 1d43 72bd de11 03bd
000000c0: 17bb 453d b9e8 473c d905 863d 9937 ad3b
000000d0: 56f1 2d3d 5002 933d 483a ab3c 537c 4e3b
000000e0: 2791 b23d af4e d83d 389d 6d3b 2390 d1bd
000000f0: f1e1 36bc 69fa e53d 1583 f13d 04d9 75bc
00000100: abf1 cf3d 4a94 a33c 6604 153c ebe5 3dbc
00000110: 5326 a63a 900f 103c 3aa7 fd3c 1f93 a7bd
00000120: e978 ff3c ceda 73bd e626 c7bd 4668 aebd
00000130: 23e7 12bd e770 653d 9bed e13c e7ea 973d
00000140: f468 1bbd 4926 92bd 873f 11bd a6bd 8dbd
00000150: 082b cc3c f478 a43d 8955 403d 6667 d9bd
00000160: b798 cc3d 979e 103e b8b1 ddbc a798 97bd
00000170: f9b2 4d3d c011 723d 874e 9e3b 315d ebbc
00000180: 1d51 193d e85f d3bd d741 14bd ba05 d73c
00000190: 5a90 983c 2e36 c63d d382 cb3d ed95 343d
000001a0: 8c56 a33d 8a9c f43d 55db 1fbd 8c98 c03d
000001b0: d85e e33d 9cc0 96bc b7eb f73d 158c d9bc
000001c0: 513e ccbc 9af6 033e ea7f 443d 8291 cb3c
000001d0: 036e 8cbd 6ee6 e03d e5ac 743d 290c 2fbc
000001e0: 3c2b 253c a5a3 063e 5034 9a3d c35b 96bd
000001f0: b9f8 fe3c 7736 5cbc 5645 233e 40bb af3d
00000200: f27b 67bc 5ffd 133b b697 4fbd 8502 0abd
00000210: 7795 bd3c 8f6d debd 4153 023c ac92 0a3e
00000220: 376f 513d b6d9 d0ba fea6 20bd b3a5 353b
00000230: 2824 a4bd 4a7a b5bd 7a99 523d dd5b 303d
00000240: a330 943d 72c7 69bd 59c7 5a3d 6c8e 2abd
00000250: 6e3a c7bd b566 28bd 48e6 cabd daef 0dbd
00000260: f83e 82bc fa3f ad3d 75ac b13d c832 b63c
00000270: 88d1 943d 0282 173d 0456 00be 4ec6 7dbd
00000280: ff06 8bbd c5e9 29bd e80b 893c a099 5a3d
00000290: e70b c43d 552d 98bd 76ba 0f3c 13b9 a53d
000002a0: 135d 4a3c c785 00be 0854 3bbd fce5 623d
000002b0: ead2 383d 06e9 fa3d 9284 d43d c413 b0bd
000002c0: 05ba b23d 0873 09be 853b 31bd 7451 6e3d
000002d0: c80e 7338 72d7 ce3d 9f56 c83d 4ba2 8dbd
000002e0: bb54 0f3e 5f75 c0bd 7493 1e3d ca14 a83c
000002f0: 327a d53d a0cd 0f3e 5128 a0bb 5821 20bd
00000300: 64c3 0f3e bf5b f63d 2693 9f3c 5053 093e
00000310: 932f a03c 5a14 a93c 312a 2a3d 7db5 1c3d
00000320: 9397 6c3b 2143 923d af58 cc3c c707 35bd
00000330: 8e1e dabd 5108 9e3d c6c7 09bd 935f 3d3d
00000340: 7b71 073e 16fe de3d aa74 853d 5541 c33d
00000350: 4ece 033e 1ab6 edbc 9216 173e 969c a6bd
00000360: bce7 bfbd d231 24bc aefc 1e3e a63a d33d
00000370: 2b1d 873d 361a d13d cfa0 a1bd b5f1 b1bd
00000380: e88f 563d dae2 82bd cb3d b53d 9eb6 c2bd
00000390: 91ae 003e 7a64 8ebd d896 5f3d 9d86 f13d
000003a0: 2671 c7bc 5611 173e 146f d43d 1604 2bbd
000003b0: e269 fcbc 3d38 023e 2429 01bc e096 233d
000003c0: 64fa cb3d 48c6 cc3d 50bc 93bd 137e 093e
000003d0: 07e0 8e3d d399 9c3d c7cf 87bc 5947 cc3d
000003e0: b912 09bc a42b 093e 2f2e b83d 54eb 8b3d
000003f0: d8d2 a43c a638 eb3d 1e06 163e f6e3 5a3d

fc1.weight f4 [32, 64]
-0.034432203 -0.055910937 -0.023013225 0.041236266 -0.06443135 -0.082966425 0.05045758 -0.037508294
-0.068966225 0.028550882 0.03400959 -0.08505472 0.035530422 -0.123241976 0.081552066 0.100002855
0.06303558 0.10320041 0.007801507 -0.0166969 0.007872132 0.07119452 -0.07928913 -0.101856805
-0.0535954 0.07866158 0.08129927 -0.031905644 0.13317156 -0.14103417 -0.0447594 0.056671117
-0.11187507 0.11995132 -0.10518407 0.08694289 0.047842074 -0.04276502 0.11677234 -0.04478025
-0.0059178397 0.09490044 -0.11056253 0.121875376 -0.033414837 -0.07709573 0.09026026 -0.060879383
-0.07459872 -0.085566305 0.07654931 0.07941326 -0.049855806 0.038368065 0.06277327 -0.04215195
0.035866976 0.061095368 0.014037376 -0.033171494 0.15436958 -0.010559476 0.20339079 0.158356
0.114643574 0.019479718 0.020334762 0.04582278 -0.12855366 -0.035470054 -0.055715073 -0.032020424
-0.0761181 -0.027798478 -0.071276 -0.1044789 0.062375907 0.13562553 -0.06462991 -0.096148446
-0.05578324 -0.033453904 -0.13570966 0.09606993 0.09842623 0.07928049 -0.05097537 -0.068483606
0.13268144 -0.08916054 -0.11865254 -0.117801934 0.024464425 -0.0028662838 -0.062670134 0.09294171
-0.055606943 -0.0052999384 0.07588391 0.074705504 0.09082611 -0.029567119 0.05019038 0.003681868
0.03015039 -0.059749402 0.06197357 0.0146375215 0.011419646 -0.02316707 0.036939286 -0.10711845
0.088409156 0.11159801 0.08111914 -0.018082049 -0.10292712 -0.020147089 -0.113976575 -0.0741458
0.083973594 -0.0008241757 0.11086384 -0.052603334 -0.071698666 -0.11368134 0.034431554 0.032633346
0.008908142 0.16003366 0.10685941 -0.16894773 0.04958404 0.06095858 0.047956835 0.1009391
-0.004723561 -0.084155366 0.070958085 0.014020383 0.04592861 -0.083654165 -0.0011543162 0.10027611
0.1656197 -0.07848342 0.072179876 0.09563991 -0.073315546 0.08232493 -0.008110095 0.11330794
-0.042309046 0.14991345 0.041769397 0.100910634 -0.05087733 0.04909192 0.050667785 0.084190056
-0.050146796 0.004705023 -0.14405368 -0.058432635 0.12986498 -0.07618677 0.009465022 -0.13241248
-0.16909343 -0.10190521 0.026310567 -0.05292761 -0.044915013 -0.048920143 0.045795485 -0.083013065
0.14398195 -0.17189462 -0.14897075 0.01360209 0.078638665 0.06110182 0.031064441 -0.004251093
0.058859706 -0.047544047 0.061541945 -0.050250947 0.048752237 0.076179 0.105934866 -0.044846013
-0.07864994 0.11668162 0.11220122 0.010582666 0.0072269 -0.017148301 -0.08476584 0.16016
0.12522994 -0.09638455 0.012835631 0.1783459 0.014911434 -0.15320687 0.12791975 0.064703315
0.015844012 0.007533477 0.10759046 0.10797474 -0.15109633 0.11191321 -0.1291542 -0.11355605
-0.041488614 0.1196653 0.15083845 0.08733398 0.13180484 -0.150124 -0.11768298 -0.0181817
-0.15471767 -0.10243428 -0.13823448 -0.072343215 0.05266949 -0.024524245 0.034459945 -0.07731913
-0.04696522 -0.16453937 -0.08007415 -0.06318672 0.1428883 0.056045406 -0.05817055 -0.0991446
0.05021756 -0.13484232 0.06939074 0.14159624 -0.019483628 -0.07480142 0.12505616 0.042889286
0.05175943 -0.038791653 -0.055222675 0.04832215 0.10363035 0.13007253 0.04570226 0.13309096
00000000: c808 0dbd de02 65bd 3b86 bcbc 5ce7 283d
00000010: 95f4 83bd 4dea a9bd 9bac 4e3d 4ca2 19bd
00000020: 2a3e 8dbd 8ae3 e93c a44d 0b3d 2b31 aebd
00000030: 5988 113d 4a66 fcbd c504 a73d 4cce cc3d
00000040: cc18 813d bd5a d33d c9a3 ff3b f0c7 88bc
00000050: 1dfa 003c 6fce 913d 5762 a2bd 4d9a d0bd
00000060: da86 5bbd 5319 a13d 3b80 a63d 7eaf 02bd
00000070: 205e 083e 436b 10be a255 37bd f91f 683d
00000080: c21e e5bd 0aa9 f53d bf6a d7bd 1d0f b23d
00000090: 0df6 433d 602a 2fbd 5626 ef3d 7f6b 37bd
000000a0: 70ea c1bb 295b c23d 9c6e e2bd cc99 f93d
000000b0: ffdd 08bd 5ee4 9dbd 5fda b83d a95c 79bd
000000c0: 37c7 98bd 633d afbd e2c5 9c3d 6ba3 a23d
000000d0: 9a35 4cbd d527 1d3d 468f 803d 86a7 2cbd
000000e0: 40e9 123d 233f 7a3d 06fd 653c d5de 07bd
000000f0: 0f13 1e3e a701 2dbc ad45 503e 1328 223e
00000100: 40ca ea3d ee93 9f3c 1695 a63c abb0 3b3d
00000110: 92a3 03be 0c49 11bd 7d35 64bd d927 03bd
00000120: cee3 9bbd a2b9 e3bc 27f9 91bd 09f9 d5bd
00000130: e17d 7f3d 6be1 0a3e b05c 84bd 7ae9 c4bd
00000140: f77c 64bd f606 09bd 79f7 0abe 50c0 c43d
00000150: b193 c93d cf5d a23d 8dcb 50bd 2241 8cbd
00000160: a5dd 073e cd99 b6bd 1a00 f3bd 2442 f1bd
00000170: 9e69 c83c 43d8 3bbb 3359 80bd 3958 be3d
00000180: 1bc4 63bd 1bab adbb 0669 9b3d 33ff 983d
00000190: 0a03 ba3d be36 f2bc 6e94 4d3d 7f4b 713b
000001a0: f3fd f63c cabb 74bd 00d8 7d3d 37d2 6f3c
000001b0: 7819 3b3c dec8 bdbc a64d 173d eb60 dbbd
000001c0: dc0f b53d 7f8d e43d cb21 a63d ce20 94bc
000001d0: 74cb d2bd 820b a5bc 8d6c e9bd c1d9 97bd
000001e0: 59fa ab3d 7f0d 58ba 950c e33d 9876 57bd
000001f0: c0d6 92bd c3d1 e8bd 1a08 0d3d 8baa 053d
00000200: 75f3 113c dddf 233e 1bd9 da3d a200 2dbe
00000210: a218 4b3d b4af 793d 636e 443d 29b9 ce3d
00000220: 1ac8 9abb a659 acbd 7952 913d c0b5 653c
00000230: a31f 3c3d e052 abbd 6d4c 97ba 905d cd3d
00000240: 3698 293e eabb a0bd 0bd3 933d dbde c33d
00000250: 7626 96bd f999 a83d 34e0 04bc fe0d e83d
00000260: 404c 2dbd e982 193e 6316 2b3d 3caa ce3d
00000270: bf64 50bd 9c14 493d 0689 4f3d d66b ac3d
00000280: ba66 4dbd 982c 9a3b cf82 13be 0f57 6fbd
00000290: 53fb 043e cf07 9cbd 2e13 1b3c 2397 07be
000002a0: d426 2dbe aeb3 d0bd 4289 d73c 9fca 58bd
000002b0: cef8 37bd 7d60 48bd 0c94 3b3d c102 aabd
000002c0: 0170 133e 2505 30be ca8b 18be 4ddb 5e3c
000002d0: 4f0d a13d e745 7a3d db7a fe3c c14c 8bbb
000002e0: e016 713d 8cbd 42bd 6813 7c3d f0d3 4dbd
000002f0: 6db0 473d bc03 9c3d 61f4 d83d 74b0 37bd
00000300: 3813 a1bd c6f6 ee3d c1c9 e53d eb62 2d3c
00000310: a2cf ec3b 987a 8cbc b699 adbd fc00 243e
00000320: 473c 003e 4365 c5bd 8a4c 523c 4fa0 363e
00000330: 164f 743c 43e2 1cbe 65fd 023e 2c83 843d
00000340: 4dcb 813c 63db f63b 6358 dc3d dc21 dd3d
00000350: ffb8 1abe c132 e53d 0041 04be 1390 e8bd
00000360: f7ef 29bd 1513 f53d 6575 1a3e 28dc b23d
00000370: d9f7 063e 1bba 19be c603 f1bd caf1 94bc
00000380: 4f6e 1ebe 10c9 d1bd 578d 0dbe ae28 94bd
00000390: f7bb 573d 12e7 c8bc df25 0d3d 7e59 9ebd
000003a0: 9a5e 40bd 027d 28be eafd a3bd 0a68 81bd
000003b0: 4f51 123e de8f 653d 3e44 6ebd 530c cbbd
000003c0: eeb0 4d3d 1b14 0abe bb1c 8e3d 9bfe 103e
000003d0: 219c 9fbc 7d31 99bd b90e 003e adac 2f3d
000003e0: b201 543d ffe3 1ebd 2c31 62bd 72ed 453d
000003f0: 263c d43d bc31 053e 4b32 3b3d ff48 083e

fc1.bias f4 [32]
0.107376605 -0.10867424 0.10281197 0.090946585 0.038996592 -0.04940095 -0.06510495 -0.014367481
-0.04245869 0.094310485 -0.110342056 0.095663585 -0.050709378 0.05887487 0.053085566 -0.019065097
0.007554785 -0.093592994 0.06315906 0.08477531 -0.09336305 0.076527104 -0.12499935 0.107760936
-0.056903437 -0.1187429 0.098621055 0.0898571 0.04080844 0.07098454 -0.069140196 0.11560793
00000000: 44e8 db3d 9a90 debd 158f d23d 3442 ba3d
00000010: e4ba 1f3d a758 4abd be55 85bd 9565 6bbc
00000020: 2ae9 2dbd db25 c13d 04fb e1bd 45eb c33d
00000030: a3b4 4fbd c726 713d 4070 593d 682e 9cbc
00000040: 218e f73b afad bfbd 8a59 813d ad9e ad3d
00000050: 2035 bfbd 3eba 9c3d a9ff ffbd c4b1 dc3d
00000060: 9413 69bd 7a2f f3bd d6f9 c93d 0007 b83d
00000070: c026 273d 5860 913d 6099 8dbd dac3 ec3d

fc2.weight f4 [32, 32]
-0.15850134 -0.048573464 -0.092250876 -0.105675675 0.1301185 0.13160858 0.090859964 0.09583954
-0.10890434 -0.06437831 -0.08803762 0.0020519544 0.11275165 0.17291372 0.26764444 -0.1452285
0.15640123 -0.08387916 -0.007100877 -0.0020119338 -0.031443298 -0.08372468 -0.07624017 0.24635416
-0.11267854 0.0348572 0.033990454 0.10836026 -0.026076442 0.12621772 -0.17299823 -0.12642989
-0.15362328 -0.0050913244 -0.10932399 0.117985114 -0.084038325 0.015028745 0.14944805 -0.17422083
0.0729215 -0.15058148 0.08566289 -0.046321556 -0.15168107 0.029130027 0.012908086 0.0614987
0.10600285 -0.018248767 -0.08197899 0.17276917 -0.054591104 0.15124719 0.11787991 -0.17336941
-0.05119112 0.01141946 -0.14166424 0.030218735 -0.07307001 -0.09071818 0.13157605 0.07600249
0.15973805 -0.03616208 -0.06826028 -0.13191943 0.006521047 0.13869683 -0.019348294 0.10409086
0.11299901 -0.012520595 0.025107577 0.15660863 0.19784863 0.17231843 -0.02250371 0.030020311
0.1452639 0.15672801 -0.17117836 0.11607978 -0.08167737 -0.10672162 -0.099570386 0.03034888
-0.027642518 -0.0031706244 -0.09872404 0.09461977 -0.11856428 0.14237474 -0.15953003 0.04030095
-0.13723095 -0.09830432 0.013788451 -0.061204914 -0.11860098 -0.016510382 -0.1274232 -0.10513582
0.10448228 -0.017452212 -0.049921513 0.13206461 0.015384104 0.12784465 0.07319617 0.014513731
-0.06514057 -0.10015245 0.13352992 0.025152674 0.15070947 0.07782124 -0.020651486 -0.16289856
0.07129051 -0.048777774 0.007340088 -0.09360362 0.111006364 0.1415715 -0.10484144 -0.0695321
-0.1315948 0.085569814 -0.12808697 -0.13669059 -0.12922713 -0.1425761 0.13655888 -0.07611259
0.10927726 -0.048919976 -0.05334457 -0.048424512 -0.14339468 0.050737366 -0.07110449 0.052915826
-0.15062538 0.027651027 0.14357899 -0.054338604 0.03768231 -0.17452095 -0.07220368 0.14641885
0.07011913 0.064768195 0.07672043 -0.036094964 -0.07503715 0.16636257 -0.064823836 -0.014098242
-0.13397355 0.13550521 -0.057753257 -0.06590717 -0.10995181 0.041146114 -0.13688001 0.13847288
0.12995861 -0.13453801 -0.1622029 0.032376215 -0.10511114 -0.18905167 0.09716845 -0.044455275
0.022772854 0.01890634 -0.124003395 -0.10052709 0.06145847 -0.15608607 -0.024276927 -0.029375967
-0.09801248 0.17471905 -0.15665284 -0.15152945 -0.12780237 0.100247905 -0.15047958 0.107310936
0.16262476 0.16591425 0.1558591 0.019623319 -0.092006266 0.043291584 0.072783306 0.1700313
-0.15492061 0.12469174 -0.002762519 0.23885436 0.010764471 -0.038752176 0.2838465 -0.17301561
-0.0046724253 0.1521121 -0.058698494 0.21336678 0.10828538 -0.029638946 -0.03554623 0.20740473
-0.0358731 0.07306047 -0.06556598 -0.1066085 -0.120974764 -0.18427078 -0.053822704 -0.090115845
0.044221137 0.0015351325 -0.12821358 -0.14518203 -0.03144095 0.06372489 0.010401204 0.20431015
-0.094932675 -0.11401603 -0.03728345 0.080485776 -0.13200949 0.094370164 0.2392953 -0.17467105
0.086099945 -0.0023517956 0.05834645 -0.10064544 0.1113971 -0.11360028 -0.076905586 0.18503055
-0.03807497 0.12320714 -0.049177695 -0.15404925 -0.15540653 0.0013160083 -0.13775697 0.1463834
00000000: 2d4e 22be f8f4 46bd 07ee bcbd 7d6c d8bd
00000010: c93d 053e 66c4 063e ca14 ba3d 8547 c43d
00000020: 3d09 dfbd c7d8 83bd 114d b4bd 157a 063b
00000030: 56ea e63d 4b10 313e b108 893e c8b6 14be
00000040: a527 203e d6c8 abbd 79ae e8bb a6da 03bb
00000050: b0ca 00bd d877 abbd ce23 9cbd 4444 7c3e
00000060: 02c4 e6bd 6cc6 0e3d 9339 0b3d fceb dd3d
00000070: 439e d5bc 383f 013e 7326 31be d676 01be
00000080: 6c4f 1dbe 20d5 a6bb 42e5 dfbd 2ea2 f13d
00000090: 491c acbd 203b 763c e908 193e f266 32be
000000a0: de57 953d 0832 1abe 0670 af3d acbb 3dbd
000000b0: 4852 1bbe 18a2 ee3c 707c 533c 10e6 7b3d
000000c0: 0618 d93d 707e 95bc 9ae4 a7bd 67ea 303e
000000d0: ec9a 5fbd 8be0 1a3e 066b f13d c087 31be
000000e0: c8ad 51bd b018 3b3c 6e10 11be 488d f73c
000000f0: bba5 95bd 74ca b9bd dfbb 063e 32a7 9b3d
00000100: 5f92 233e b01e 14bd 0ccc 8bbd e315 07be
00000110: 82ae d53b 8b06 0e3e 5080 9ebc 972d d53d
00000120: 066c e73d 2f23 4dbc 68ae cd3c 035e 203e
00000130: d598 4a3e 3e74 303e b359 b8bc 28ed f53c
00000140: 0fc0 143e 4f7d 203e 6149 2fbe 3cbb ed3d
00000150: 7746 a7bd dd90 dabd 8feb cbbd 379e f83c
00000160: 9072 e2bc 40ca 4fbb d42f cabd 03c8 c13d
00000170: d4d1 f2bd afca 113e d75b 23be 9c12 253d
00000180: 4586 0cbe c653 c9bd f5e8 613c 01b2 7abd
00000190: 12e5 f2bd c840 87bc 3a7b 02be 7351 d7bd
000001a0: cefa d53d f1f7 8ebc 807a 4cbd f23b 073e
000001b0: 9c0d 7c3c b5e9 023e e0e7 953d 00cb 6d3c
000001c0: 6b68 85bd ba1c cdbd 11bc 083e fb0c ce3c
000001d0: 9553 1a3e be60 9f3d 4e2d a9bc e1ce 26be
000001e0: c200 923d 34cb 47bd 1f85 f03b 41b3 bfbd
000001f0: 4e57 e33d 1ff8 103e 1cb7 d6bd d866 8ebd
00000200: cac0 06be 3a3f af3d 3b29 03be 9ef8 0bbe
00000210: 1e54 04be 78ff 11be 17d6 0b3e ebe0 9bbd
00000220: c2cc df3d 5060 48bd d67f 5abd c858 46bd
00000230: 0ed6 12be fcd1 4f3d 3b9f 91bd 44be 583d
00000240: 8a3d 1abe 6884 e23c 5f06 133e 2892 5ebd
00000250: c458 1a3d 9fb5 32be 86df 93bd d3ee 153e
00000260: 9e9a 8f3d 30a5 843d 9a1f 9d3d 50d8 13bd
00000270: 14ad 99bd f35a 2a3e 5cc2 84bd 50fc 66bc
00000280: 5d30 09be e1c1 0a3e ae8e 6cbd 57fa 86bd
00000290: 6a2e e1bd d488 283d 462a 0cbe d6cb 0d3e
000002a0: df13 053e 55c4 09be 8418 26be ec9c 043d
000002b0: 8244 d7bd c396 41be 4100 c73d bc16 36bd
000002c0: 238e ba3c 78e1 9a3c 7ef5 fdbd 26e1 cdbd
000002d0: e0bb 7b3d 07d5 1fbe 68e0 c6bc dea5 f0bc
000002e0: c4ba c8bd 8de9 323e 9a69 20be 892a 1bbe
000002f0: a0de 02be c64e cd3d 5217 1abe d6c5 db3d
00000300: 1b87 263e 6de5 293e 8799 1f3e 15c1 a03c
00000310: c86d bcbd 8452 313d 6a0f 953d af1c 2e3e
00000320: 82a3 1ebe 625e ff3d 610b 35bb 3d96 743e
00000330: 775d 303c 9aba 1ebd 5454 913e 012b 31be
00000340: 251b 99bb 46c3 1b3e d56d 70bd d27c 5a3e
00000350: bac4 dd3d 60cd f2bc ec98 11bd e861 543e
00000360: acef 12bd baa0 953d 7547 86bd 8f55 dabd
00000370: 9ec1 f7bd 7bb1 3cbe 3275 5cbd a88e b8bd
00000380: 3921 353d 8036 c93a 6c4a 03be 99aa 14be
00000390: 3ac8 00bd 3282 823d d069 2a3c ae36 513e
000003a0: 106c c2bd 3d81 e9bd 88b6 18bd bad5 a43d
000003b0: 7f2d 07be 2545 c13d d409 753e f8dc 32be
000003c0: 2b55 b03d 9520 1abb b0fc 6e3d 321f cebd
000003d0: 2a24 e43d 43a7 e8bd ad80 9dbd a678 3d3e
000003e0: 80f4 1bbd 0654 fc3d 8d6e 49bd 16bf 1dbe
000003f0: e422 1fbe e97d ac3a 2a10 0dbe 88e5 153e

fc2.bias f4 [32]
0.07718585 -0.047075495 0.002427106 -0.092853956 -0.057841532 -0.050492134 -0.0071279444 0.008593184
0.056078732 0.10326104 0.16249397 0.013812402 -0.117937244 0.05371516 0.11718528 -0.15713036
-0.012287486 0.09066482 -0.1265182 0.12551688 -0.1193197 0.052784286 0.048811182 0.034062333
-0.121858485 0.044635482 -0.12672535 -0.08898972 0.057251666 -0.14235365 0.14420144 0.064271025
00000000: 9d13 9e3d 3cd2 40bd 1510 1f3b 372a bebd
00000010: 3eeb 6cbd d7d0 4ebd 8891 e9bb 6dca 0c3c
00000020: d0b2 653d 867a d33d d264 263e 6a4d 623c
00000030: 1589 f1bd 6d04 5c3d d6fe ef3d c8e6 20be
00000040: 7451 49bc 7aae b93d fd8d 01be 7f87 003e
00000050: e35d f4bd 5634 583d 3cee 473d f284 0b3d
00000060: f190 f9bd b2d3 363d 4ac4 01be 3e40 b6bd
00000070: b980 6a3d 28c5 11be 8ba9 133e 87a0 833d

fc3.weight f4 [1, 32]
0.15739638 -0.100499265 0.038426217 0.114959836 0.0653619 -0.029926615 0.26354837 0.18506955
0.029529115 -0.111598596 -0.16053244 0.16142073 -0.0127525665 -0.08093755 -0.052622035 -0.093005195
0.06448192 0.032080065 0.026004668 -0.07830489 0.04944908 0.13839439 0.12841408 0.12821592
0.05439563 0.06135155 -0.057165645 -0.123119324 0.10050818 0.0056830654 -0.055915296 -0.00086582685
00000000: 842c 213e 8fd2 cdbd cf64 1d3d 1070 eb3d
00000010: 76dc 853d a928 f5bc d0ef 863e df82 3d3e
00000020: 0be7 f13c ce8d e4bd 9e62 24be 7a4b 253e
00000030: 24f0 50bc 96c2 a5bd 348a 57bd 8279 bebd
00000040: 190f 843d 6366 033d be07 d53c 505e a0bd
00000050: 1e8b 4a3d 42b7 0d3e fb7e 033e 094b 033e
00000060: f4cd 5e3d c34b 7b3d 8626 6abd fc25 fcbd
00000070: 3cd7 cd3d 0239 ba3b 7007 65bd a8f8 62ba

exp_avg f4 [256, 1]
-2.432375e-06 -2.3863875e-06 6.84553e-06 -4.6098876e-09 2.1753883e-06 3.2605183e-06 8.0764136e-07 -3.6208692e-06
4.4563592e-07 1.9858462e-05 -3.3042993e-06 -2.0924026e-06 1.2157799e-06 -2.5140384e-06 3.4342054e-06 2.0559105e-07
-1.2247391e-06 -4.9886257e-06 6.660757e-07 2.690548e-06 -2.2738504e-06 3.3444937e-06 -5.4386396e-06 5.8247597e-06
7.514978e-07 -5.63459e-06 -9.821795e-07 -1.944185e-06 -5.9659067e-07 3.4709435e-06 -3.835437e-07 -1.2525495e-06
1.6353601e-07 5.847044e-07 -3.2061496e-07 3.4167106e-06 -4.2408388e-07 1.0864123e-05 -2.2229322e-06 4.1417115e-07
-1.2971155e-06 -3.6299018e-06 1.2403194e-05 -1.5713606e-06 -1.7134716e-06 -2.3769537e-06 -7.012392e-06 -3.1125949e-06
-1.4937993e-06 -4.9111914e-06 1.9997509e-07 -5.54086e-06 3.7292903e-06 -3.2611088e-06 -1.2367358e-06 2.1122072e-05
-1.9991285e-06 -8.425426e-07 -2.031335e-06 2.1843942e-07 -1.6662336e-06 -3.139367e-06 2.8886763e-05 2.4700662e-06
-2.3207585e-06 -2.7372025e-06 2.7421127e-06 1.4195643e-07 1.0620402e-06 2.1610424e-06 5.313749e-08 -3.4863897e-06
1.811012e-07 1.3550175e-05 -2.9799648e-06 -1.8714741e-06 7.846371e-07 -2.3274083e-06 2.0622306e-06 4.994348e-07
-1.3150209e-06 -3.6317647e-06 2.9312045e-07 7.3154104e-07 -1.957656e-06 1.6924479e-06 -4.2989486e-06 2.8953623e-06
4.6970152e-07 -4.1466606e-06 -1.0863959e-06 -1.3600791e-06 -1.4861718e-06 2.8997324e-06 -4.3713038e-07 -1.2993944e-06
2.8445044e-07 3.311852e-07 -3.5209246e-07 1.9887086e-06 -5.873946e-07 6.9785583e-06 -1.4539005e-06 9.186033e-08
-1.2786281e-06 -5.166732e-06 8.581383e-06 -2.0926188e-06 -1.5394164e-06 -2.4958647e-06 -5.4965994e-06 -3.1308768e-06
-1.3651967e-06 -4.1598596e-06 -1.3042614e-07 -4.2041124e-06 3.145548e-06 -1.971292e-06 -1.1242512e-06 1.3536259e-05
-1.8580164e-06 -9.0191156e-07 -1.98398e-06 1.2834063e-07 -1.4264244e-06 -2.6152968e-06 1.9977053e-05 2.040761e-06
7.3665564e-05 -6.0259856e-05 8.483585e-05 9.123795e-05 -0.00010820033 0.00012142861 -2.2363864e-05 -4.5367575e-05
-0.00013780057 -0.00025261805 6.7893496e-05 -4.7561884e-05 -2.0217987e-05 2.3405904e-05 3.074742e-05 -0.000119141434
-2.69575e-05 7.1425806e-05 3.083078e-05 3.8140828e-05 0.00012327133 -0.00018553426 3.800448e-05 -7.2584335e-05
4.121144e-05 -0.0001096442 -1.25894285e-05 -8.6831125e-05 -5.0361737e-06 0.00013299039 9.248058e-05 -8.759515e-05
6.106957e-05 -1.2818478e-05 0.00012371999 -5.7552905e-05 -1.1201439e-05 -0.00018843249 -6.590954e-05 0.00015630192
4.481291e-05 3.9030103e-05 -0.00018195652 -2.0563237e-05 -1.0726628e-05 -3.877671e-05 -8.561267e-05 2.2971091e-05
-6.667375e-05 5.5818316e-05 1.8158822e-05 -5.587522e-05 0.00012258293 0.00011675196 -6.163906e-05 -0.00019078622
-2.1901715e-05 0.000111517744 -2.2077887e-05 9.203798e-06 -9.572675e-05 -2.2824122e-05 -0.00023651909 -9.088406e-05
-1.489565e-06 -2.128273e-06 6.7122082e-06 5.4724853e-07 1.7720462e-06 2.9368953e-06 9.546125e-07 -2.858546e-06
7.139554e-07 2.0395633e-05 -2.6425364e-06 -1.2480144e-06 1.2896418e-06 -2.6686432e-06 3.2836108e-06 8.669597e-07
-7.0719835e-07 -4.483853e-06 8.5822154e-07 2.6267603e-06 -2.1242445e-06 4.29129e-06 -5.196315e-06 6.1892674e-06
9.345551e-07 -5.4747206e-06 -1.096812e-06 -1.7500636e-06 -4.172299e-07 3.5980972e-06 8.5102556e-08 -8.938884e-07
9.258066e-07 5.697397e-07 3.680235e-07 3.918124e-06 -1.8893982e-07 1.1286109e-05 -2.1709138e-06 8.321781e-07
-9.823531e-07 -3.7915183e-06 1.3067742e-05 -1.5231635e-06 -1.5014607e-06 -2.2543554e-06 -6.387228e-06 -2.970492e-06
-8.959234e-07 -4.275495e-06 2.2921236e-07 -4.7681156e-06 3.7750938e-06 -2.3868836e-06 -1.6183885e-06 1.9174295e-05
-1.832088e-06 -7.5243383e-07 -1.9051209e-06 1.6959402e-07 -1.0054833e-06 -2.7875697e-06 2.8307857e-05 3.0280771e-06
00000000: e23b 23b6 d325 20b6 a8b2 e536 0065 9eb1
00000010: e3fc 1136 47cf 5a36 b1cc 5835 0ffe 72b6
00000020: bc3f ef34 b995 a637 6ebf 5db6 346b 0cb6
00000030: e12d a335 dab6 28b6 3377 6636 70c0 5c34
00000040: b761 a4b5 f863 a7b6 60cc 3235 438f 3436
00000050: 7498 18b6 f771 6036 8f7d b6b6 4e72 c336
00000060: 89ba 4935 c210 bdb6 6ed3 83b5 d878 02b6
00000070: 6625 20b5 5bee 6836 d8e9 cdb4 461d a8b5
00000080: 7098 2f34 95f4 1c35 fc20 acb4 a44a 6536
00000090: a5ad e3b4 0e45 3637 af2d 15b6 405b de34
000000a0: 8d18 aeb5 3d99 73b6 5017 5037 8ae7 d2b5
000000b0: 70fa e5b5 c183 1fb6 fd4b ebb6 f9e1 50b6
000000c0: 8e7e c8b5 d0ca a4b6 bcb8 5634 a0eb b9b6
000000d0: b844 7a36 6cd9 5ab6 ebfd a5b5 4e2f b137
000000e0: c428 06b6 162b 62b5 1252 08b6 2c8c 6a34
000000f0: 5aa3 dfb5 eaad 52b6 da51 f237 6ac3 2536
00000100: 54be 1bb6 c8b0 37b6 2305 3836 b06c 1834
00000110: 6c8b 8e35 6d06 1136 4a39 6433 b8f7 69b6
00000120: b874 4234 8f55 6337 68fb 47b6 5c2f fbb5
00000130: da9f 5235 9230 1cb6 da64 0a36 e610 0635
00000140: c67f b0b5 3eb9 73b6 2b5e 9d34 1e5f 4435
00000150: 4660 03b6 1128 e335 b03f 90b6 f24d 4236
00000160: 492b fc34 8b23 8bb6 47d0 91b5 f68b b6b5
00000170: 7978 c7b5 0699 4236 beae eab4 da66 aeb5
00000180: 92b6 9834 bfcd b134 3807 bdb4 c175 0536
00000190: 73ad 1db5 5c29 ea36 a423 c3b5 c044 c533
000001a0: 549d abb5 e45d adb6 c2f8 0f37 eb6e 0cb6
000001b0: f29d ceb5 a17e 27b6 6e6f b8b6 0e1c 52b6
000001c0: cd3b b7b5 ec94 8bb6 440b 0cb4 0d11 8db6
000001d0: 1a18 5336 8a4a 04b6 fae4 96b5 ca19 6337
000001e0: f560 f9b5 e41a 72b5 8424 05b6 01ce 0934
000001f0: 9273 bfb5 7582 2fb6 6594 a737 02f4 0836
00000200: e67c 9a38 87bf 7cb8 e6e9 b138 0057 bf38
00000210: 9ce9 e2b8 7da7 fe38 089a bbb7 1049 3eb8
00000220: 8f7e 10b9 d271 84b9 0b62 8e38 2f7d 47b8
00000230: cc99 a9b7 cc57 c437 caf6 0038 92db f9b8
00000240: ca22 e2b7 70ca 9538 4c50 0138 67f9 1f38
00000250: 6542 0139 f98b 42b9 0067 1f38 6b38 98b8
00000260: 72da 2c38 c8f0 e5b8 2f37 53b7 1b19 b6b8
00000270: 67fc a8b6 5673 0b39 22f2 c138 4ab3 b7b8
00000280: 7a12 8038 f20e 57b7 d5ba 0139 f664 71b8
00000290: d0ed 3bb7 f695 45b9 ea38 8ab8 fae4 2339
000002a0: 7ff5 3b38 41b4 2338 95cb 3eb9 377f acb7
000002b0: 84f6 33b7 2da4 22b8 f48a b3b8 0bb2 c037
000002c0: 32d3 8bb8 761e 6a38 c653 9837 905b 6ab8
000002d0: 9b89 0039 bbd8 f438 3844 81b8 c90d 48b9
000002e0: 93b9 b7b7 a2de e938 e733 b9b7 036a 1a37
000002f0: e8c0 c8b8 6e76 bfb7 1c02 78b9 0299 beb8
00000300: 10ed c7b5 74d3 0eb6 6e39 e136 a2e6 1235
00000310: 0bd7 ed35 7a17 4536 3c20 8035 72d5 3fb6
00000320: a4a6 3f35 4a17 ab37 6e56 31b6 7381 a7b5
00000330: c117 ad35 f116 33b6 015c 5c36 04b9 6835
00000340: 4dd6 3db5 0174 96b6 8960 6635 6647 3036
00000350: 3e8e 0eb6 e7fd 8f36 025c aeb6 67ad cf36
00000360: 23de 7a35 7eb3 b7b6 2c36 93b5 bae3 eab5
00000370: a4ff dfb4 d776 7136 a0c1 b633 8bf3 6fb5
00000380: f284 7835 37f0 1835 c494 c534 6e78 8336
00000390: 62df 4ab4 7859 3d37 04b0 11b6 d862 5f35
000003a0: 65d9 83b5 ca71 7eb6 863d 5b37 806f ccb5
000003b0: cc85 c9b5 8849 17b6 df51 d6b6 aa58 47b6
000003c0: 637f 70b5 3976 8fb6 6a1d 7634 cdfd 9fb6
000003d0: 9e57 7d36 592e 20b6 6837 d9b5 7cd8 a037
000003e0: 10e6 f5b5 dcfa 49b5 75b3 ffb5 a619 3634
000003f0: 25f4 86b5 1512 3bb6 a976 ed37 f835 4b36
