checkpoints/StockPrediction_epoch_10.pt (torch, 256005 bytes, 27 tensors)

lstm.weight_ih_l0 f4 [256, 1]
000000 ef 0c a8 3c 93 be eb 3c c2 fa a5 bd b7 1e 20 3d
       0.02051398 0.028777396 -0.08104469 0.039091792
000010 04 bf 30 bd 6c f1 f3 b9 c5 4e dc bd 51 dd 89 bb
       -0.043150917 -0.00046528445 -0.107572116 -0.004207291
000020 8d a0 3d 3d 15 64 9b b9 7f 30 34 3d 58 aa 5b bd
       0.04629569 -0.0002963847 0.043991562 -0.05362925
000030 36 ea bf 3d b3 10 83 bd d8 8a 10 ba aa cb b4 bd
       0.09370844 -0.063996695 -0.00055138534 -0.08827908
000040 fc b6 17 3d bd 6d 31 bd 40 e9 9f bd 08 6d 23 bd
       0.037039742 -0.043317545 -0.07808161 -0.039898902
000050 46 53 01 be 90 79 ac bd e6 4e 01 be 33 79 96 3d
       -0.12629423 -0.08421624 -0.12627754 0.07347336
000060 50 2c 99 bd 38 5c 09 be c7 21 eb bd 6c fa 0c be
       -0.07479155 -0.13414085 -0.11481052 -0.13767403
000070 37 e1 8b bd 14 ba 26 be 41 85 1d 3d 58 5c 2e be
       -0.06830066 -0.1628192 0.03845716 -0.17027414
000080 2b fe 4f 3d 35 76 69 3c 53 7f cb bd 3e 36 e2 3d
       0.050779503 0.014249374 -0.099363945 0.11045502
000090 81 0f 0d bd 84 d2 0c 3e 02 52 9f bc dc d3 e1 bd
       -0.034438614 0.1375218 -0.019448284 -0.11026737
0000a0 72 eb 1c bd 75 71 e4 bd c7 07 11 3e da cd 4b 3d
       -0.038310476 -0.11154453 0.14163123 0.049756862
0000b0 eb 02 30 bc e0 be 01 be bc 1c 9e 3a 99 2e 76 bd
       -0.010742883 -0.1267047 0.0012063007 -0.060103033
0000c0 0f c0 73 bc 2e 03 1e be 3c 02 12 be b6 6c 01 be
       -0.014877333 -0.154309 -0.14258665 -0.12639126
0000d0 81 44 17 be da 82 f3 3c 1e bb 08 bd 6d 1e 19 3e
       -0.14772226 0.02972548 -0.033381574 0.14953013
0000e0 1d 8c f5 bc 7c 3c 93 bd cc e3 92 3c 81 a3 d0 bd
       -0.029974038 -0.07189271 0.017930888 -0.10187436
0000f0 a5 a1 8f bd e9 52 2b be 57 40 77 3e f7 9b cb bd
       -0.07013253 -0.16730846 0.24145637 -0.09941857
000100 c2 56 1d bd be fb d5 bd 41 a9 51 3d cf 27 1a be
       -0.038412817 -0.10448407 0.051186804 -0.15054248
000110 39 6d a6 bd d3 fc cf bd 33 89 89 3d 37 b4 18 bd
       -0.08126301 -0.10155644 0.06715622 -0.03728124
000120 70 16 65 3d 42 e6 01 bc 78 f6 3e be ed d2 33 be
       0.0559296 -0.007928433 -0.18648708 -0.1756093
000130 1e a1 9b bd 99 eb fc bc 82 bc 99 bc 08 e4 08 3d
       -0.0759909 -0.03087406 -0.018766645 0.033420593
000140 80 d6 fe bd f6 12 18 be cc b3 5d 3d 0c 90 fd bd
       -0.124432564 -0.14850983 0.054126546 -0.123809904
000150 97 56 e3 3b 17 0b c9 bd 81 fc 77 bb 3f a1 c8 bd
       0.0069378125 -0.09816568 -0.0037839713 -0.0979638
000160 d8 4a 30 bd 18 9b 17 bd ae 77 61 bd 19 ab c7 bd
       -0.043040127 -0.037013143 -0.055045776 -0.09749431
000170 ae af e0 bb 16 2f 49 3d 3a 45 29 be 9c ce 06 be
       -0.00685688 0.04911717 -0.16530314 -0.13164753
000180 39 0e 80 3d 8c c1 1d bd 88 b0 da bd 35 df b5 bd
       0.06252713 -0.03851466 -0.10678202 -0.08880464
000190 c2 8c 03 be cd 25 03 3e ac 53 3c bd 39 80 23 be
       -0.12846664 0.12807389 -0.045978233 -0.15966882
0001a0 f7 dc 8c bd 1a 28 26 be 1f e7 7a 3c 29 40 08 be
       -0.06878083 -0.16226235 0.015313893 -0.13305725
0001b0 a6 11 45 be d1 15 1c be 11 b6 54 3d f5 21 81 bd
       -0.19245014 -0.15242697 0.051931445 -0.06305305
0001c0 34 08 25 bd 98 e2 48 be b9 4e c4 bd 8e 1f f0 bd
       -0.040291026 -0.19617689 -0.09585328 -0.117247686
0001d0 f8 de d7 bc 51 8c 3a be c4 2c f2 bd a0 8d b4 3d
       -0.026351437 -0.18217589 -0.118249446 0.08816075
0001e0 30 a2 8e bd 91 b6 ef bd e5 1a b9 bd f4 90 b9 bd
       -0.069645286 -0.11704744 -0.09038333 -0.09060851
0001f0 4e e1 28 be ab 32 1f be 9a 87 63 3e af 5e 19 be
       -0.16492197 -0.15546672 0.22219697 -0.14977525
000200 b1 ab 46 3e 55 5a d2 bd ad e4 87 3d 20 18 f4 3d
       0.19401433 -0.10271136 0.06635413 0.11918664
000210 db bf 1c be 38 2b 1d 3e 94 56 2b 3c 09 8e fb bd
       -0.15307562 0.15348518 0.010457654 -0.122829504
000220 f1 37 3a be f1 d6 2c be ab 70 e4 3d 97 1e de bd
       -0.18185402 -0.16878869 0.11154302 -0.10845678
000230 ed 8a 37 3d 34 6f f2 bc d0 28 19 3d 41 83 2b be
       0.044810224 -0.029594041 0.037392437 -0.16749288
000240 44 00 a9 bd c3 ce c4 3d 11 0f 3d 3d e2 e1 1a 3d
       -0.08252004 0.09609749 0.046156947 0.037813075
000250 65 3d 42 3e 7c ce 38 be 42 54 d0 3d cc 0b d2 bd
       0.18968733 -0.18047518 0.10172321 -0.10256156
000260 ff 72 25 3c 36 54 34 be a3 b5 31 3d 98 fe 28 be
       0.010098218 -0.17610249 0.043386113 -0.1650337
000270 9d 4b ac ba b9 4a f9 3d 3e cd f9 3d 51 e5 15 be
       -0.0013145093 0.12172455 0.1219735 -0.14638259
000280 dc 55 28 3e c8 c1 04 3d f1 07 bf 3d fb 9b 09 be
       0.16439003 0.032411367 0.093276866 -0.13438408
000290 67 82 52 bc 1d 8e bd bd 14 21 c1 bd 4b 01 43 3e
       -0.012848473 -0.092556216 -0.09430137 0.19043462
0002a0 3e 69 d6 3d 0f d7 15 3b b4 fa e8 bd d8 70 88 bd
       0.10469292 0.002286378 -0.11375943 -0.06662148
0002b0 22 7f e8 ba 7e c7 d3 bd fa 9e 18 be db 2d 35 3d
       -0.0017738084 -0.103407845 -0.14904395 0.044233184
0002c0 89 91 32 be ce 9b f7 3d c7 dd 08 3e 82 d2 49 be
       -0.1743833 0.12090264 0.13365851 -0.19709209
0002d0 70 ec d9 3d 7a 83 11 3e b6 6c 6e bd 07 19 f1 bd
       0.106408 0.1421031 -0.058209144 -0.11772352
0002e0 72 2c 13 3a b2 4b 14 3e 49 db e7 bc ae 7d 00 bd
       0.0005614228 0.14482 -0.028302805 -0.031369857
0002f0 1d e6 ec bd a2 0b 83 bd cf 96 f1 bd 65 e3 f7 bd
       -0.11567328 -0.06398703 -0.117963426 -0.12103919
000300 08 3d 19 3b 43 c2 e3 3c 55 b4 88 bd 42 74 d5 bd
       0.0023382325 0.027802592 -0.066750206 -0.10422565
000310 15 fb 39 bc f7 0b cb bc e6 b2 67 bc f4 85 42 bd
       -0.0113513665 -0.024785979 -0.014141774 -0.04749103
000320 b4 17 3c be c7 63 81 3d 93 2b 1a 3d bb 8b 03 bd
       -0.18368417 0.06317859 0.037639212 -0.03211568
000330 45 6c 04 bb b6 97 27 be c9 e1 0d be 52 4e 3f be
       -0.0020206135 -0.16366467 -0.13855661 -0.1868222
000340 17 84 d6 bd 6f b3 c1 bc 76 10 78 3d 91 88 90 bc
       -0.10474413 -0.02364513 0.060562573 -0.017643245
000350 52 a5 40 be f5 05 18 be a5 c3 cd bd b7 33 ec 3d
       -0.18813065 -0.14846022 -0.10047082 0.11533301
000360 2b cc f4 3c e0 73 ee bd 94 3f 0b bd 71 db f0 bd
       0.029882511 -0.11643195 -0.03399618 -0.11760605
000370 bf 46 2b be ec 25 17 3d 8d 06 0a be 43 0d bf bd
       -0.16726206 0.0369014 -0.13479061 -0.09328701
000380 e1 9b 2a be ac 89 9f 3d 62 af fd 3c a7 5b aa 3d
       -0.16661026 0.07789931 0.030967418 0.083182625
000390 08 d4 11 be 43 81 72 bd 82 f4 0a be 7d 7d 5a 3c
       -0.1424104 -0.059205305 -0.13569835 0.013335583
0003a0 e5 1a a5 bc 08 5b ac 3c 4b c7 34 3e 27 ab 11 bd
       -0.020154426 0.0210395 0.17654149 -0.035563614
0003b0 74 05 b5 bd 46 6c 2f be 84 21 3a be da 77 51 be
       -0.08838931 -0.17131147 -0.18176848 -0.20455876
0003c0 2a ce fc bc ed a8 15 be dc dd 31 bd 4f ff 1f be
       -0.030860025 -0.14615221 -0.043424472 -0.15624736
0003d0 67 6a 96 bd 84 c0 26 be 86 d9 25 be 74 ac 21 3e
       -0.073445134 -0.16284376 -0.1619626 0.15788442
0003e0 fe c2 dd bd 6e 4b bc 3a 24 d8 fc bd 4b 49 d5 bd
       -0.108282074 0.0014365742 -0.12345913 -0.1041437
0003f0 2e 46 d5 bd 58 eb 15 be cc 78 4f 3e a1 73 30 be
       -0.10413776 -0.14640558 0.20260924 -0.17231609

lstm.weight_hh_l0 f4 [256, 64]
000000 4f 08 c4 3c 5f 67 38 bd 60 be 8d 3d e0 ed 0c 3c
       0.023929743 -0.045020457 0.06921077 0.008601636
000010 fe c5 09 3e 27 81 1e be 19 5f 7a 3d 5d f1 78 bc
       0.13454434 -0.15478955 0.06112585 -0.015194264
000020 c7 58 c2 3d f9 89 40 3e b6 a1 69 bd 5c b4 3b 3d
       0.09489589 0.18802632 -0.057038985 0.0458263
000030 4e ac 6d bd df c4 10 be e0 de b4 3d d7 9a 90 bd
       -0.05802565 -0.141376 0.088315725 -0.07060783
000040 60 a4 f1 3d 5b 12 60 3d c5 a8 e4 3d 49 2f d7 3a
       0.1179893 0.054705005 0.11165003 0.001641729
000050 0e 88 1b be ee 63 aa 3d 7f 24 e7 3c 8b 83 cf bd
       -0.1518862 0.08319841 0.028215645 -0.10132512
000060 d8 ba 48 bc 4b fc dc bc 63 34 cb 3c e6 fb 5f bc
       -0.012251578 -0.026975771 0.024805253 -0.013670897
000070 06 bf 51 bc c1 15 85 bd 45 d8 2a be 43 d5 1b 3e
       -0.012801891 -0.0649829 -0.16684063 0.15218072
000080 36 95 55 3d 43 65 30 bd 42 2c 54 bd 82 e8 e5 3b
       0.05214425 -0.04306532 -0.05180002 0.0070162425
000090 02 83 b9 bd aa 6d a7 bd ea c6 b4 3d cf a4 f8 bd
       -0.09058191 -0.08175214 0.08827002 -0.1214081
0000a0 5f 23 00 be 1f 20 3e bd ce 7e c5 3b 72 a2 93 bb
       -0.12513493 -0.04641735 0.006027079 -0.004505449
0000b0 45 de 2b 3d a8 2d 96 3c 10 d2 4d ba 13 ed ca bd
       0.04196002 0.018332317 -0.0007851431 -0.099084996
0000c0 b8 ab 6a bd a9 ce 74 3d 57 d6 be bd 93 d3 a0 3d
       -0.05729267 0.0597674 -0.09318226 0.078528546
0000d0 0c 93 ae bd 4f f1 20 bd 9e 43 1d 3e 3d ef ae 3d
       -0.08524141 -0.03929263 0.15357825 0.08541725
0000e0 84 9d 9f bd 50 50 78 3b a1 ed 1f 3e 69 cb 75 3d
       -0.077937156 0.0037889667 0.15617992 0.06000844
0000f0 a4 47 06 3e 25 5b 2a 3e ee a5 42 bc 91 34 3f 3d
       0.13113266 0.16636331 -0.011880381 0.04668099
000100 11 98 09 be 02 28 8f 3c 25 79 cd 3d 24 e4 74 3c
       -0.13436915 0.017475132 0.10032872 0.014946971
000110 00 01 11 bd 1c 2d 1e be 45 14 f2 bd 22 1c a0 bd
       -0.035401344 -0.15446895 -0.11820272 -0.07817866
000120 18 51 42 bd ba 19 1a 3d ec e0 34 3d 14 f3 8c 3d
       -0.04744062 0.03762219 0.044159815 0.06882301
000130 22 20 02 be 81 88 0f be 10 7d c5 3d b6 bf 1f bd
       -0.1270757 -0.14016916 0.096429944 -0.03900119
000140 ac 3a cf 3c f3 c0 a6 3c b6 43 58 bd 64 cc 7c 3c
       0.025296532 0.020355677 -0.05279895 0.01542959
000150 aa a5 78 bd c2 e5 d6 3c a8 16 d9 bd ed f3 ce bd
       -0.060704865 0.026232604 -0.106000245 -0.10105119
000160 de 79 a2 bd 78 db 93 bc 00 39 23 3e e2 71 47 bc
       -0.079334006 -0.018048987 0.15939713 -0.012173148
000170 28 07 2f bd f4 0c ad 3b 15 7f 71 bc c9 af f2 3d
       -0.042731434 0.005281085 -0.014739771 0.118499346
000180 e3 60 32 3d 7c e5 31 3d 56 fb 24 be 9b 7b 92 3d
       0.04354943 0.043431744 -0.16111502 0.07152482
000190 ec 1c c2 3d 4f cc df 3c b4 23 0d bd 69 6f 86 3d
       0.09478173 0.027319102 -0.034457877 0.065642186
0001a0 fd 87 be bd 23 3a e1 bd ae 93 98 bd ee 38 2f 3d
       -0.093032815 -0.10997417 -0.07450043 0.0427789
0001b0 78 e5 c5 3d 3a 9c 96 3d e4 03 8b 3d 8d 04 0b be
       0.09662908 0.073540166 0.067878515 -0.13575955
0001c0 f2 75 91 bd 87 2f 33 bd 20 b5 95 3d d1 fa f2 3d
       -0.071025744 -0.043746497 0.073099375 0.11864246
0001d0 21 87 de bd 15 48 86 bd 7a 52 7b bd f9 c6 2b bd
       -0.108656175 -0.06556717 -0.061357953 -0.041937802
0001e0 70 f0 58 3d 9b eb a9 3c 85 46 13 3e a9 bf b2 bd
       0.052963674 0.020742228 0.1438237 -0.087279625
0001f0 44 d9 07 3e d7 ca 31 bd 09 7f 33 3d 4f 24 06 3e
       0.13266474 -0.043406334 0.043822322 0.13099788
000200 b1 c2 e6 bc ff 12 11 3e 18 17 89 bd 29 cc a4 bd
       -0.028169008 0.14167403 -0.06693858 -0.08046753
000210 9f bc c6 3d b4 a5 68 bd 8e d8 3e bd 38 ed b6 bc
       0.09703945 -0.05679865 -0.04659324 -0.022329912
000220 ef 81 ee 3d 30 9d 86 3d d8 f4 7d 3c 2a 4f 22 bd
       0.116458766 0.0657295 0.01550027 -0.039626278
000230 71 c2 c7 bd 12 05 82 bc c1 4d 7b 3d a0 b3 bd bc
       -0.09753884 -0.015871558 0.06135345 -0.023156941
000240 93 ee 28 bc 2e a0 74 3d ff 31 2b 3d 7f 33 27 3d
       -0.010310787 0.05972307 0.041795727 0.040820595
000250 50 5d 7d bd 0a 4f 9f bd 13 d0 14 be e1 fc af bd
       -0.061856568 -0.077787474 -0.14532499 -0.08593155
000260 57 c0 12 be d6 3e 8e 3d de 7b ce bb 30 44 9d bc
       -0.14331184 0.06945579 -0.006301387 -0.019197553
000270 c4 cb 17 3e 41 9c 99 ba 8f bf 69 3d ac 5d f8 bc
       0.14823824 -0.0011719541 0.05706745 -0.030318104
000280 dc 09 a4 bd ac 41 35 3d 13 d1 05 be b3 4b 6c bd
       -0.08009693 0.044252083 -0.13068037 -0.05768938
000290 63 b2 0b 3d 07 3f 7f bc 2e 0d 99 bd 2f fb 26 3d
       0.03410567 -0.015578992 -0.07473217 0.04076689
0002a0 e6 1b 8f 3d 45 c2 d6 bb 08 c0 b9 bc ba e1 bf bd
       0.06987743 -0.0065539205 -0.022674575 -0.09369226
0002b0 29 35 8e bc 52 d9 7a 3d 20 48 b0 3d f0 c1 2f bd
       -0.017359333 0.06124241 0.08607507 -0.042909563
0002c0 34 b0 a9 bc 49 94 23 3d 99 4b f8 bd 61 d6 de 3d
       -0.020713903 0.039936338 -0.12123794 0.10880733
0002d0 27 a6 c8 bd 7b 9f eb bc b2 f3 bb 3c b9 58 54 3d
       -0.09797316 -0.02876257 0.022943351 0.051842425
0002e0 bd 24 b0 bc 27 90 74 3d ca 5e c5 3c b6 53 87 3d
       -0.021501893 0.059707787 0.02409305 0.066077635
0002f0 62 c9 1b 3e 96 97 02 bd b5 54 5a bd 9c 0d 16 3e
       0.1521354 -0.031882845 -0.05330344 0.14653629
000300 e8 0d 3c 3d 78 33 3d bd b9 0c 04 3c a6 79 34 be
       0.0459117 -0.046191663 0.008059674 -0.1762453
000310 87 68 60 bd 5b f8 fc bc 4e 53 96 bb 20 b3 9e 3d
       -0.054787185 -0.030880144 -0.0045875674 0.07749009
000320 40 a1 9b 3c ac 02 3b 3e b1 8b e5 bc c1 41 aa bc
       0.018997788 0.18262738 -0.028020712 -0.020783307
000330 8a 62 2b bd a2 7e 85 bc b0 ce ae 3d b3 82 00 bd
       -0.04184202 -0.016295735 0.08535516 -0.031374644
000340 df 01 bf 3d 56 eb df bd 2b 46 c9 bd aa 5d e4 bc
       0.09326529 -0.10933559 -0.098278366 -0.027876694
000350 13 b6 88 3d 48 e1 29 3e c9 b0 82 3d 52 82 b1 3d
       0.06675353 0.16589844 0.06381375 0.08667435
000360 57 28 e2 3d 23 cd 16 3d f7 67 c0 bc 4f 1a eb 3d
       0.110428505 0.036816727 -0.023487074 0.11479627
000370 5a 21 8d bc 1b 54 ea bd 47 48 bf bd ad 23 a5 3d
       -0.017227817 -0.11441823 -0.09339958 0.08063445
000380 66 55 24 3c 13 b4 a8 bd 23 79 ec bd a3 3a ac 3d
       0.010030126 -0.082374714 -0.115465425 0.084096216
000390 78 42 3c bd 97 fe 34 bd 74 01 e1 3d b6 4d 9f bd
       -0.045961827 -0.04418811 0.10986605 -0.07778494
0003a0 1e 29 81 3d 5e c6 9b 3d d7 2a 8c 3d 50 8e b1 3d
       0.063066706 0.07606195 0.068441086 0.08669722
0003b0 50 f9 9b 3d 2c 6f 59 3d a3 27 22 3d 1b a5 39 bd
       0.07615912 0.053084537 0.03958858 -0.045323472
0003c0 6a a5 c5 3d c3 69 84 3d 67 ca 9e bd cc 91 b3 ba
       0.09650691 0.06465485 -0.07753449 -0.0013700067
0003d0 8b c1 8f bd d3 d4 e8 bd e9 ce 74 3d 4b 8f d1 3d
       -0.07019337 -0.11368718 0.059767637 0.10232409
0003e0 de 82 0b 3e 3c 61 bc 3b 86 70 3c bd f5 b5 f3 bc
       0.1362414 0.005748896 -0.04600575 -0.02974985
0003f0 96 f1 d4 3c 72 78 df 3c 41 90 9c bb 6a a4 b1 bd
       0.025994103 0.027279112 -0.0047779386 -0.086739376

lstm.bias_ih_l0 f4 [256]
000000 36 e8 10 3d a1 85 d5 bc 2e 9f 36 bd 36 e6 56 bb
       0.035377704 -0.026064696 -0.0445854 -0.0032791025
000010 31 b6 72 3d 99 b6 80 bd 5f 51 e9 3d ca d9 31 bd
       0.059255783 -0.06284828 0.113924734 -0.04342059
000020 b1 fc 89 3d e8 4e 2e 3e 8f 6d 09 bd b2 b5 47 bd
       0.0673765 0.17022288 -0.03355175 -0.048757263
000030 65 5c b2 bd e9 03 c0 bc 07 2a 86 bd b7 39 b6 bd
       -0.08709029 -0.023439365 -0.06550985 -0.08897727
000040 c7 f6 45 bd 98 2a 1b bd 89 32 cd 3d 6b 16 7f 3b
       -0.04833105 -0.037882417 0.100194044 0.0038923274
000050 4c e2 49 3d 2e be da 3b 7f 71 2f 3d 1f 21 94 3d
       0.04928808 0.006675503 0.042832848 0.0723288
000060 eb a3 1c bc b6 31 45 3c 7c 9d 06 3d 2f ca 11 3e
       -0.009560565 0.012035778 0.032865033 0.14237283
000070 48 93 61 bd 36 f8 0c 3e 6c 23 ad 3b 14 a5 e5 3d
       -0.0550721 0.1376656 0.0052837636 0.11213127
000080 55 a9 e1 3d 1f e3 f9 bc 5b 70 ae 3c 6f cb ab 3d
       0.11018626 -0.030503808 0.02129381 0.08388411
000090 84 9a 84 bc 0b 10 82 3d 3f a3 e2 3d af fd 68 3c
       -0.01618696 0.06350716 0.11066293 0.014220639
0000a0 12 2f 11 bc 60 2e f9 3d c5 16 0f 3e 91 02 04 3e
       -0.00886132 0.121670485 0.1397353 0.12891604
0000b0 89 b2 c2 bd 62 e5 d8 3d ce e4 a7 3d ec f8 66 bd
       -0.09506709 0.10590626 0.08197938 -0.056389734
0000c0 60 12 e4 3d 6c ab 09 bd c8 b7 66 3d c2 64 23 3d
       0.11136317 -0.033610746 0.05632761 0.039891012
0000d0 61 c6 86 3d 1b 9c 29 bd c0 c2 f9 3b 54 79 0c bd
       0.065808065 -0.04140864 0.007622093 -0.034295395
0000e0 97 f0 98 3d 12 70 85 bd a9 8d fd 3c 1e 23 b2 3c
       0.07467764 -0.06515516 0.030951338 0.02174526
0000f0 fa 02 bf 3c 24 93 5b bc a3 ae 80 3d 40 1f 07 3d
       0.023316849 -0.01340178 0.06283309 0.032988787
000100 46 e6 1d bd 91 ca 05 ba ee d0 1e bc 9a 04 da bc
       -0.038549684 -0.0005103732 -0.009693367 -0.026613522
000110 01 3a b5 bb d7 4c 1c bc 59 d5 8d bd 27 b6 84 bd
       -0.0055305962 -0.009539804 -0.069254585 -0.06480055
000120 9d 17 45 bd 6e c0 07 ba bd 4a ec 3d 1d d8 b2 3c
       -0.048118223 -0.00051785156 0.11537693 0.021831566
000130 35 12 b7 bd 99 94 7a bd 26 f0 1b 3d 50 60 15 3e
       -0.089390196 -0.06117687 0.03807082 0.14587522
000140 b6 d4 c5 bd f4 49 d6 3d 66 19 d1 3d 19 af 63 3d
       -0.09659712 0.10463324 0.102099225 0.055586908
000150 29 f7 cd 3d 51 71 ae 3d c6 0e a2 bd 31 f0 33 bd
       0.10056908 0.08517707 -0.07912974 -0.043930236
000160 7a cd 70 bd fd 4e 33 bd ba 82 cd 3c 48 00 66 3d
       -0.058789708 -0.0437765 0.02508675 0.056152612
000170 81 e5 18 3d 9b 9d b8 3d 36 20 23 bd 7c 62 05 3e
       0.037328247 0.09014436 -0.03982564 0.1302585
000180 e1 60 df bc a0 33 8c 3d 89 ae 0e 3e 0c 31 ed bd
       -0.027267875 0.06845784 0.13933767 -0.115816206
000190 d6 57 f3 bd bc e9 03 3e bf b2 b2 3d ea 0b d7 3c
       -0.11881988 0.12882131 0.08725499 0.026250798
0001a0 32 96 7c 3d e7 d7 44 3d fa d9 d4 bb 4f 52 9a 3d
       0.061666675 0.048057463 -0.0064957114 0.0753523
0001b0 5c bb 8c 3d 11 1e bf bd 57 8a 4e bc 9f f2 34 bd
       0.068716735 -0.093319066 -0.012606225 -0.044176694
0001c0 e6 4a ad 3d 87 61 ad bd 53 96 f3 bd a5 4a 9f bd
       0.08461551 -0.084658675 -0.118939064 -0.07777909
0001d0 1c 78 90 bc 89 b8 78 bd 82 66 4b 3b ed ed 9b bc
       -0.017635398 -0.06072286 0.0031036441 -0.01903435
0001e0 54 63 bf 3d 0b a6 16 3e ac af 93 3d 4b af 8a bd
       0.09345117 0.14711778 0.07211241 -0.06771716
0001f0 50 99 a2 3d 88 27 9d bd 9c 66 4a 3b a4 4b 71 bb
       0.07939398 -0.076735556 0.0030883914 -0.0036818767
000200 17 a2 e4 bd 01 f5 07 3e 8d 4b f2 3d 47 95 4e 3d
       -0.11163729 0.13277055 0.118308164 0.05043533
000210 ea 15 a9 3c a0 29 07 3e ae b7 59 bd fc 93 38 3d
       0.020640332 0.13199472 -0.053153686 0.045063004
000220 41 04 3b bd 3b ee a3 bd 05 3d d4 bd 33 f7 b0 3d
       -0.045658354 -0.08004423 -0.10363201 0.086408995
000230 36 02 81 bd 04 82 aa bd c2 6f 05 3e 56 2a 94 bd
       -0.0629925 -0.0832558 0.13030913 -0.072346374
000240 22 d1 62 3c 10 78 cb bd a8 6e 7d bd e2 01 0f 3e
       0.013843806 -0.099350095 -0.06187311 0.13965562
000250 80 8d 7c 3d b9 ec 42 3c cf 16 9a bd 06 1e 2b 3d
       0.061658382 0.011897259 -0.07523882 0.04177668
000260 ab 31 a8 3d 44 34 f3 3c 4a df 77 bd 37 e4 8b 3a
       0.082125984 0.029688008 -0.06051568 0.0010672872
000270 0f 9e ac 3d 1a ba 13 3d f8 30 d8 3d 9b 96 e0 3d
       0.08428585 0.036066152 0.10556215 0.10966226
000280 92 26 c6 3d 9a 73 56 bd e4 52 84 bc 90 b5 1c bd
       0.096753255 -0.05235634 -0.016152807 -0.03825909
000290 46 b0 14 bd e8 65 91 3c fd e7 76 3d 02 34 96 bd
       -0.03630092 0.017748788 0.060279835 -0.073341385
0002a0 95 e8 48 bd 33 f1 ef bd 71 8d 17 bd 92 31 98 3d
       -0.049049933 -0.11715927 -0.037000123 0.0743133
0002b0 65 ec 0b 3e 48 2b 3c 3c 04 27 a4 3d 4c 14 09 be
       0.13664396 0.011484928 0.08015254 -0.13386649
0002c0 46 77 12 bc 86 73 41 bd ec 16 dd bc b1 46 f9 3d
       -0.00893957 -0.047229312 -0.026988469 0.121716864
0002d0 1c 4d 99 3d 10 f0 e3 bd db f5 b9 bd ba e9 c3 bd
       0.074854106 -0.11129773 -0.09080096 -0.09566064
0002e0 fb 2a 78 3d 0d 70 64 3d a1 77 a0 3d cc 62 99 3d
       0.060587864 0.055770922 0.078353174 0.07489547
0002f0 5d c4 94 bd 5b d2 e1 3c 93 cb e8 bd 73 37 31 bd
       -0.07264016 0.027566126 -0.11366954 -0.04326577
000300 08 51 26 3d a2 cd bd 3c c8 fe a0 bd f6 a4 29 3d
       0.04060462 0.023169342 -0.07861096 0.041417085
000310 ab b8 69 3d 3a e0 0f 3e e6 d0 f9 bc 99 06 fb 3d
       0.05706088 0.1405038 -0.030495118 0.12257118
000320 2a c9 17 3c 09 2a 3e bd 9a be 07 3e 02 f2 3a 3c
       0.00926427 -0.046426807 0.13256302 0.011410238
000330 24 4f 53 bd d0 99 6c 3c d7 e1 02 3e b1 35 56 bc
       -0.051589146 0.014440969 0.12781464 -0.0130743245
000340 24 ea 3a bc c8 12 b7 3c ab 87 b3 bd 95 26 a0 3d
       -0.011408363 0.022347823 -0.08766111 0.07819859
000350 c9 a4 18 3e c0 0d c7 3d 6b 02 53 3a a3 52 67 bc
       0.1490661 0.097194195 0.00080493715 -0.014118823
000360 e4 bf 17 be ae a1 70 bd f8 f3 12 bb 0c 48 d1 3d
       -0.14819294 -0.05874794 -0.0022423249 0.1021882
000370 19 25 16 3e 4f 77 90 3c 29 4d d5 3c 71 5c ef 3d
       0.14662589 0.017635016 0.02603777 0.11687554
000380 7a 87 6e bc 11 16 f5 bd 90 97 c7 3d 70 81 6b bd
       -0.014558667 -0.119670995 0.09745705 -0.057496488
000390 32 06 ac bd b6 54 0c 3d b9 10 bf bd a0 56 40 bd
       -0.08399619 0.034260474 -0.093293615 -0.046957612
0003a0 f0 b3 d3 bc e0 d9 cf 3c fe 59 94 3d e1 82 18 bd
       -0.025842637 0.025372446 0.07243727 -0.03723419
0003b0 01 e8 c2 bd d6 98 4c bc 84 e8 0c 3e bc 5e 90 3a
       -0.095169075 -0.012487611 0.13760573 0.0011014561
0003c0 ba 7a 50 bd 2d da 9a bb f6 29 d4 3d bc 98 73 3d
       -0.05089829 -0.0047257156 0.10359566 0.05947183
0003d0 44 82 43 3c 2f ad 21 3e c1 ea 5b 3d 77 8a 58 3d
       0.011932913 0.1578872 0.053690676 0.052866425
0003e0 f7 7f 02 3e 7f c4 00 3d 5f ec 42 3b 45 bf 96 3d
       0.12744127 0.031437393 0.002974294 0.073607005
0003f0 54 6f 97 3d 1a aa 63 bd 0d 7f fa 3d d7 d8 f1 bc
       0.07394281 -0.055582143 0.12231264 -0.029522343

lstm.bias_hh_l0 f4 [256]
000000 72 2a 9b bd 1a 23 11 3e d8 8d 8f bd da 05 3d bc
       -0.07576455 0.14173546 -0.070094764 -0.01153704
000010 a3 d1 c7 bc 9e cb cb 3c ff 95 66 bc 91 fa 01 3e
       -0.024391955 0.024877366 -0.014073848 0.1269324
000020 64 df 00 3e 18 d3 85 bd 04 0d c1 bd 2f 3d b3 bd
       0.12585217 -0.065344036 -0.09426311 -0.08751904
000030 8d 64 a7 3d 25 6a 62 3c bb 5a 4f bd 92 b9 45 bd
       0.081734754 0.013819252 -0.050623637 -0.048272677
000040 8b 16 04 3d b2 51 29 3d fd 4a 82 3d b1 24 01 3e
       0.03224806 0.041337676 0.06361959 0.12611653
000050 d3 5c 15 3e e2 51 19 bd 02 25 89 3c ab 97 88 bd
       0.14586191 -0.037431605 0.01674128 -0.06669553
000060 ec ad 9c bd 8e 16 fe 3c 79 4d bd 3d 0a d1 01 bd
       -0.076503605 0.031016614 0.09243292 -0.031693496
000070 4c 36 2d bd 44 1e 94 bc 27 82 ad 3d ab e4 d8 3c
       -0.04228811 -0.018080838 0.0847209 0.026476225
000080 3b 3a db 3d 55 e7 16 be 35 e4 82 3d b7 39 bc 3d
       0.10704466 -0.14736684 0.06391183 0.09190696
000090 50 ac a3 3d a4 27 a3 bd fd 2b bd bd d8 2e 27 3d
       0.079918504 -0.07966545 -0.09236906 0.040816158
0000a0 c7 77 12 3d ec 28 cb 3d 9d 7c 04 3e 92 0b 55 3a
       0.03575876 0.099199146 0.12938161 0.0008127029
0000b0 86 04 63 bc 1a e4 bb 3d f2 29 78 bd 12 d8 09 bd
       -0.013856059 0.09174366 -0.060586877 -0.033653326
0000c0 2d bf 38 3d 1b 91 4c 3c ff b1 86 3d 27 d0 90 3b
       0.045104194 0.012485768 0.06576919 0.004419345
0000d0 7d 87 22 3d 6a 4c 91 3d 36 e0 ac 3c e5 17 d6 bb
       0.039679993 0.07094653 0.021103006 -0.00653361
0000e0 bd 0f ad 3d d6 96 d4 3d 86 2a 4c 3b 95 45 da bd
       0.084502675 0.10380332 0.0031153276 -0.10657803
0000f0 b4 d3 71 bc 5e ab e2 3d b1 1b dc 3d 2f 94 90 bc
       -0.014759947 0.11067842 0.10747469 -0.017648784
000100 f6 21 ca 3d c2 38 99 3c e6 23 29 3c 87 0e 75 bc
       0.09869759 0.018703822 0.0103235 -0.014957077
000110 63 da a2 bb 8f b2 4f 3b 96 18 07 3d 07 c8 a8 bd
       -0.0049698814 0.0031692123 0.03298243 -0.08241277
000120 0c 5a d4 3c 18 81 91 bd 53 55 ce bd 71 fc b2 bd
       0.025921844 -0.07104701 -0.10074868 -0.087395556
000130 4b 86 2d bd a3 8d 6b 3d af 34 f4 3c 8d 56 8d 3d
       -0.0423644 0.057508122 0.029810278 0.06901274
000140 16 2d 1a bd 4e ab 98 bd ca eb 15 bd 44 3a 88 bd
       -0.037640654 -0.07454549 -0.03660182 -0.06651738
000150 7a 4a b9 3c 29 29 98 3d d8 ef 42 3d b1 63 dc bd
       0.022618521 0.07429726 0.047592014 -0.10761202
000160 f1 a2 b6 3d b8 c3 0d 3e 6c fd dc bc ab 0f 9d bd
       0.08917797 0.13844192 -0.02697631 -0.07669004
000170 54 25 52 3d 63 70 4d 3d e7 1a db 39 99 58 04 bd
       0.05130513 0.05015601 0.0004179098 -0.032311056
000180 74 2a 07 3d 3e de dc bd 91 fc 21 bd 53 63 d7 3c
       0.03299947 -0.10784577 -0.039547507 0.026292479
000190 e0 76 77 3c 2e 25 b1 3d 29 50 c8 3d 8b 5a 1d 3d
       0.015104026 0.086496696 0.09780914 0.038416427
0001a0 96 54 a0 3d f6 70 f3 3d 40 c9 3e bd 69 27 be 3d
       0.078286335 0.1188678 -0.046578646 0.09284861
0001b0 02 d2 e5 3d a7 b1 a7 bc 1f e5 f4 3d ba 30 df bc
       0.112216964 -0.020470453 0.11957764 -0.027244914
0001c0 41 0f eb bc 3d e3 04 3e 9f 59 3e 3d 94 b0 bf 3c
       -0.028693797 0.1297731 0.046472188 0.023399629
0001d0 99 68 96 bd 7c 16 db 3d 11 7b 70 3d af 83 b8 bc
       -0.07344169 0.10697648 0.058711115 -0.02252373
0001e0 09 53 0a 3c 55 d1 02 3e 4c c0 9c 3d 56 10 9d bd
       0.008442649 0.12775166 0.07653865 -0.076691315
0001f0 22 a4 dd 3c 8f 8e 5e bc b2 ab 17 3e 61 45 a6 3d
       0.027055804 -0.013583793 0.1481159 0.08118702
000200 4d 83 59 bc 58 af 6c 3a ca d7 5f bd 75 ea 0f bd
       -0.013275933 0.0009028814 -0.05464915 -0.035135705
000210 b0 d2 bd 3c 76 1f e3 bd 75 38 29 3c 34 3a 09 3e
       0.023171753 -0.11089985 0.010328402 0.13401109
000220 3f 88 4d 3d 42 23 56 3b 58 4f 0f bd 8f 88 93 3a
       0.050178763 0.0032674824 -0.034987777 0.0011255908
000230 18 34 a3 bd c0 fc b3 bd 48 f6 4d 3d 54 ee 32 3d
       -0.079689205 -0.087884426 0.0502837 0.04368432
000240 7f 63 92 3d 6f 7c 61 bd c0 ee 3e 3d 26 3c 2f bd
       0.071478836 -0.05505031 0.04661441 -0.04278197
000250 bf 2b c8 bd f6 4d 29 bd bc 8f c8 bd dc 8a f4 bc
       -0.09773969 -0.041334115 -0.0979304 -0.02985137
000260 bf d3 81 bc af cb ad 3d 4d c8 ae 3d be 17 ad 3c
       -0.015848039 0.08486115 0.08534298 0.021129485
000270 74 ae 92 3d c8 14 1b 3d 2b 20 00 be 7c 7f 78 bd
       0.071621805 0.037861615 -0.12512271 -0.060668454
000280 96 85 8c bd 25 38 1b bd fc 36 80 3c f0 f4 62 3d
       -0.06861417 -0.03789534 0.015651219 0.05540937
000290 46 4b bc 3d 7f 74 90 bd ca a3 fd 3b 24 4b a4 3d
       0.09194045 -0.0705347 0.0077404724 0.080221444
0002a0 67 6a 77 3c 30 92 fe bd 9d 4e 28 bd c0 6d 4e 3d
       0.015101052 -0.12430227 -0.041090596 0.050397635
0002b0 05 6e 34 3d 72 ed f3 3d f6 15 d3 3d f8 f7 a9 bd
       0.044050235 0.119105235 0.10306923 -0.082992494
0002c0 f4 e3 b5 3d 49 c5 0a be f7 6e 25 bd 21 2b 68 3d
       0.08881369 -0.13551821 -0.040389027 0.056681756
0002d0 8b 60 1b 3a ad 7a ce 3d d7 d4 c6 3d 4e 85 82 bd
       0.0005927167 0.10081992 0.09708565 -0.06373082
0002e0 35 ff 0c 3e 36 f5 be bd 0a 4f 17 3d 71 c3 94 3c
       0.13769229 -0.09324114 0.036940612 0.0181596
0002f0 6b 33 d7 3d 48 ac 0e 3e 86 fc 43 3b cf 03 1d bd
       0.10507854 0.13932908 0.0029905154 -0.03833371
000300 32 43 0f 3e a7 39 f6 3d 5a 7e a5 3c 97 29 08 3e
       0.13990477 0.12022715 0.02020185 0.13297115
000310 b6 2c 8a 3c db 98 8f 3c 3b a4 2b 3d 15 40 1d 3d
       0.016867023 0.017528942 0.04190467 0.03839119
000320 c5 d6 02 3b 05 65 82 3d 51 6e c1 3c c5 03 38 bd
       0.0019964438 0.06366924 0.023612173 -0.04492547
000330 1d c3 e9 bd c4 01 9d 3d b8 52 09 bd 20 a1 31 3d
       -0.11414168 0.076663524 -0.033526152 0.04336655
000340 80 58 07 3e 83 b7 db 3d b9 4e 82 3d 65 a3 c4 3d
       0.13217354 0.107283615 0.063626714 0.096014775
000350 a5 8c 03 3e ad 5d 02 bd fe b6 16 3e 32 b3 a8 bd
       0.1284662 -0.031827617 0.14718243 -0.08237304
000360 e7 7c da bd 14 05 3b bc 79 e5 1d 3e fa ab d2 3d
       -0.106683545 -0.011414785 0.15419568 0.10286708
000370 69 ec 85 3d 1a 7a ca 3d 10 9c a6 bd 27 f6 b3 bd
       0.06539232 0.0988657 -0.08135235 -0.08787184
000380 cd 42 4f 3d d4 70 8c bd bf 22 b1 3d 58 c1 bc bd
       0.050600816 -0.06857458 0.086492054 -0.09216565
000390 84 ab fc 3d 5a 5d 9b bd 41 75 5b 3d 0d 5b ee 3d
       0.123374015 -0.07586165 0.05357862 0.1163846
0003a0 ac 64 c4 bc 8c 32 16 3e 0c 8a c4 3d 09 21 2e bd
       -0.023973785 0.1466772 0.09596643 -0.042511974
0003b0 b0 c8 03 bd 98 bc 00 3e 78 da 1a bc d8 69 1c 3d
       -0.032173812 0.12571943 -0.009451501 0.038186878
0003c0 b3 ff c7 3d 27 96 cd 3d 22 94 92 bd e1 d6 08 3e
       0.09765568 0.10038405 -0.0715716 0.1336322
0003d0 0d f6 89 3d d6 53 9b 3d 7f 93 8d bc 1b bb b8 3d
       0.067363836 0.0758435 -0.017282246 0.090200625
0003e0 41 b3 38 bc ee 19 08 3e 93 73 b6 3d 5f 19 83 3d
       -0.011273206 0.13291141 0.08908763 0.064013235
0003f0 50 16 8e 3c c2 23 e8 3d 8f c9 0d 3e dc 4b 4f 3d
       0.017344624 0.11334945 0.1384642 0.050609455

fc1.weight f4 [32, 64]
000000 c0 30 0e bd 2f f4 61 bd 96 91 ad bc 8f a3 26 3d
       -0.03471446 -0.055164512 -0.021187585 0.040683325
000010 72 93 82 bd be 9f ab bd bf 8c 49 3d a7 4a 16 bd
       -0.06375779 -0.08380078 0.04920649 -0.036692288
000020 a6 23 8c bd 81 76 d2 3c 75 bf 08 3d 80 a0 ad bd
       -0.06842737 0.025691273 0.033385713 -0.084778786
000030 0a d4 1a 3d ee 5b ff bd 0f 6f a9 3d bc af cd 3d
       0.037799872 -0.12468706 0.08273136 0.10043284
000040 81 0d 83 3d 46 96 d1 3d a4 0d 10 3c b3 d4 7b bc
       0.0639906 0.102337405 0.008792315 -0.015370536
000050 25 e8 e7 3b de e5 91 3d 6a ba a4 bd 88 2b d4 bd
       0.0070772343 0.07123922 -0.08043368 -0.103598654
000060 97 66 69 bd 96 1c a2 3d fb 0a a9 3d 0f f7 fd bc
       -0.056982603 0.079156086 0.082540475 -0.031001596
000070 3a 8c 09 3e b9 b5 10 be 7d dc 38 bd 3f 7f 69 3d
       0.13432398 -0.14131822 -0.04513215 0.057006117
000080 c2 5b e5 bd c4 ec f8 3d 00 57 d8 bd 4a 4f ac 3d
       -0.11199142 0.121545345 -0.10563469 0.08413561
000090 b9 cf 46 3d ba e1 3a bd fe 1b f1 3d bd be 38 bd
       0.048537944 -0.045625426 0.11772917 -0.045103777
0000a0 38 a3 d9 bb 12 e6 bf 3d 6f ce e8 bd e5 d1 fb 3d
       -0.0066417716 0.09370054 -0.11367499 0.122958936
0000b0 04 71 06 bd 40 c9 9b bd 18 8b ba 3d f1 3f 7e bd
       -0.032822624 -0.07606745 0.09108561 -0.062072698
0000c0 b4 ff 97 bd 1d 70 b1 bd a5 07 9a 3d 04 ac a4 3d
       -0.074218184 -0.08663962 0.07520989 0.08040622
0000d0 70 18 4f bd b6 10 1a 3d 3f 99 82 3d 10 1f 2d bd
       -0.050560415 0.037613593 0.063768856 -0.04226595
0000e0 7c 81 16 3d 93 24 77 3d 55 4f 76 3c 23 7a 13 bd
       0.03674458 0.060337614 0.015033563 -0.03600515
0000f0 54 5c 1e 3e f6 2d 21 bc 0f b9 53 3e 30 17 23 3e
       0.15464908 -0.009837618 0.20676063 0.15926814
000100 40 ca ea 3d ee 93 9f 3c 16 95 a6 3c ab b0 3b 3d
       0.114643574 0.019479718 0.020334762 0.04582278
000110 92 a3 03 be 0c 49 11 bd 7d 35 64 bd d9 27 03 bd
       -0.12855366 -0.035470054 -0.055715073 -0.032020424
000120 ce e3 9b bd a2 b9 e3 bc 27 f9 91 bd 09 f9 d5 bd
       -0.0761181 -0.027798478 -0.071276 -0.1044789
000130 e1 7d 7f 3d 6b e1 0a 3e b0 5c 84 bd 7a e9 c4 bd
       0.062375907 0.13562553 -0.06462991 -0.096148446
000140 f7 7c 64 bd f6 06 09 bd 79 f7 0a be 50 c0 c4 3d
       -0.05578324 -0.033453904 -0.13570966 0.09606993
000150 b1 93 c9 3d cf 5d a2 3d 8d cb 50 bd 22 41 8c bd
       0.09842623 0.07928049 -0.05097537 -0.068483606
000160 a5 dd 07 3e cd 99 b6 bd 1a 00 f3 bd 24 42 f1 bd
       0.13268144 -0.08916054 -0.11865254 -0.117801934
000170 9e 69 c8 3c 43 d8 3b bb 33 59 80 bd 39 58 be 3d
       0.024464425 -0.0028662838 -0.062670134 0.09294171
000180 1b c4 63 bd 1b ab ad bb 06 69 9b 3d 33 ff 98 3d
       -0.055606943 -0.0052999384 0.07588391 0.074705504
000190 0a 03 ba 3d be 36 f2 bc 6e 94 4d 3d 7f 4b 71 3b
       0.09082611 -0.029567119 0.05019038 0.003681868
0001a0 f3 fd f6 3c ca bb 74 bd 00 d8 7d 3d 37 d2 6f 3c
       0.03015039 -0.059749402 0.06197357 0.0146375215
0001b0 78 19 3b 3c de c8 bd bc a6 4d 17 3d eb 60 db bd
       0.011419646 -0.02316707 0.036939286 -0.10711845
0001c0 dc 0f b5 3d 7f 8d e4 3d cb 21 a6 3d ce 20 94 bc
       0.088409156 0.11159801 0.08111914 -0.018082049
0001d0 74 cb d2 bd 82 0b a5 bc 8d 6c e9 bd c1 d9 97 bd
       -0.10292712 -0.020147089 -0.113976575 -0.0741458
0001e0 59 fa ab 3d 7f 0d 58 ba 95 0c e3 3d 98 76 57 bd
       0.083973594 -0.0008241757 0.11086384 -0.052603334
0001f0 c0 d6 92 bd c3 d1 e8 bd 1a 08 0d 3d 8b aa 05 3d
       -0.071698666 -0.11368134 0.034431554 0.032633346
000200 b2 fc 03 3c 5c 1d 25 3e c3 07 df 3d 4f bb 2d be
       0.008055853 0.16124481 0.10890152 -0.16965984
000210 e5 25 4c 3d 6d 89 76 3d fb 8a 3c 3d 9e c6 d1 3d
       0.049840827 0.060189653 0.04603098 0.10242961
000220 9c 2d 83 bb ad 2c c1 bd 90 8b 8f 3d a1 ea 70 3c
       -0.00400324 -0.09432349 0.07009041 0.014704377
000230 1b 5d 34 3d d7 a9 ae bd 12 91 47 3a 88 e5 ce 3d
       0.044034105 -0.08528488 0.0007612865 0.10102373
000240 e3 dd 2a 3e d4 3d a3 bd f4 25 96 3d 7d 47 c7 3d
       0.16686206 -0.07970777 0.07331458 0.09730432
000250 f3 b9 98 bd 3f 45 a9 3d 28 bb 22 bc 75 83 e3 3d
       -0.07457342 0.08265161 -0.009932317 0.11109058
000260 91 cd 3c bd 20 93 1a 3e 9f 17 30 3d df 90 d1 3d
       -0.04609448 0.15095186 0.042991277 0.1023271
000270 64 37 4a bd 76 90 48 3d 9d fd 4c 3d 4d 1d ae 3d
       -0.04936923 0.048965894 0.050046552 0.085016824
000280 a9 b2 4f bd da f5 ee 3a e9 ff 13 be a1 fd 7f bd
       -0.050707493 0.0018231228 -0.1445309 -0.06249774
000290 36 e2 05 3e c2 7b a7 bd 15 99 3c 3c 21 72 08 be
       0.13074574 -0.08177902 0.011511107 -0.13324787
0002a0 df 21 2e be 72 e7 d3 bd fd 85 6e 3c d3 e4 52 bd
       -0.17005108 -0.10346879 0.0145583125 -0.051487755
0002b0 97 0e 33 bd 2e b9 41 bd 20 0b 41 3d e5 a4 ad bd
       -0.043715086 -0.04729574 0.04712975 -0.08478717
0002c0 22 21 14 3e 42 dd 31 be f7 69 1a be cf cc 78 3c
       0.14465764 -0.1736956 -0.15079485 0.015185549
0002d0 d7 d3 9f 3d 5f 8c 74 3d 06 eb 03 3d 7e 0d 30 bc
       0.07804077 0.05970418 0.032206558 -0.010745404
0002e0 f2 cb 76 3d 94 2b 46 bd ef e0 80 3d b3 31 50 bd
       0.06025309 -0.048381403 0.06292903 -0.050828647
0002f0 0c ed 49 3d 1d 96 9e 3d 13 fc af 3d 86 25 34 bd
       0.04929833 0.077434756 0.08593001 -0.043981098
000300 98 0a a3 bd 87 90 f1 3d 67 1e e9 3d ab c4 24 3c
       -0.07961005 0.117951445 0.11382752 0.010056655
000310 bb aa db 3b 92 7e 8d bc 9d b8 b1 bd 8c a7 25 3e
       0.0067037023 -0.017272267 -0.0867779 0.16177195
000320 e9 be 00 3e a3 d5 cf bd 38 1f 48 3c 6e 79 37 3e
       0.12572826 -0.1014817 0.012214474 0.17917415
000330 2d be 47 3c 73 f6 1d be 96 25 05 3e a1 0d 86 3d
       0.0121913375 -0.15426044 0.13002619 0.06545568
000340 6e 8d 89 3c 57 b9 db 3b 96 14 de 3d 4b 21 e0 3d
       0.016791072 0.006705444 0.1084377 0.1094385
000350 98 ba 1b be ae 3b e6 3d b7 ea 05 be fe e7 ec bd
       -0.15207899 0.11241852 -0.13077818 -0.115676865
000360 bc 71 27 bd 4f 3e f7 3d 46 15 1b 3e c2 36 b5 3d
       -0.04087995 0.12072431 0.15144834 0.08848335
000370 10 47 08 3e 50 65 19 be ea 35 f2 bd 69 49 8d bc
       0.13308358 -0.14980054 -0.118266895 -0.017246919
000380 6f 20 1f be 56 02 d7 bd 46 c3 0d be cb 4f 96 bd
       -0.15539716 -0.104984924 -0.13844022 -0.07339438
000390 bf e1 5a 3d 9d 22 03 bd b0 34 15 3d 06 6a a0 bd
       0.053437945 -0.03201543 0.0364272 -0.07832722
0003a0 d9 8e 43 bd 28 a2 29 be 87 5f b1 bd 8e 8a 7d bd
       -0.047743652 -0.16565764 -0.086607985 -0.061899714
0003b0 42 c7 13 3e d2 66 6b 3d 70 f3 69 bd 94 07 ce bd
       0.1443148 0.057471104 -0.057116926 -0.10060039
0003c0 ca ad 4f 3d 6d d1 0b be e7 cf 8c 3d 45 48 12 3e
       0.050702848 -0.13654108 0.06875592 0.14285381
0003d0 26 c0 a0 bc 1d 65 9c bd 36 da 00 3e 6e fe 03 3d
       -0.019622874 -0.07636473 0.12583241 0.032225065
0003e0 74 63 5a 3d b8 9a 20 bd 78 50 5d bd c4 bf 4c 3d
       0.053317502 -0.03921005 -0.05403182 0.04998757
0003f0 80 5d d5 3d 63 5f 06 3e ca 0a 8f 3c 0d b9 08 3e
       0.10418224 0.13122325 0.0174612 0.13351841

fc1.bias f4 [32]
000000 ad da dd 3d 9a 90 de bd e0 9a d9 3d 95 b6 be 3d
       0.10832725 -0.10867424 0.10625243 0.093121685
000010 e4 ba 1f 3d a7 58 4a bd be 55 85 bd b4 be 6d bc
       0.038996592 -0.04940095 -0.06510495 -0.014510799
000020 2a e9 2d bd 2f 6d c9 3d 4e f7 c3 bd c1 9a d6 3d
       -0.04245869 0.09835278 -0.09568654 0.10478736
000030 a3 b4 4f bd a9 f5 6e 3d b5 52 44 3d 68 2e 9c bc
       -0.050709378 0.05833975 0.047930438 -0.019065097
000040 1c 85 e6 3b 13 2a b4 bd e4 9c 84 3d 22 ae b6 3d
       0.007034911 -0.087970875 0.06475237 0.08919932
000050 20 35 bf bd fa 56 a8 3d a9 ff ff bd f0 f8 12 3e
       -0.09336305 0.082197145 -0.12499935 0.14352775
000060 94 13 69 bd 7a 2f f3 bd 3b c5 c9 3d a8 72 b6 3d
       -0.056903437 -0.1187429 0.09852072 0.08908588
000070 d5 fa 23 3d f8 f9 6c 3d 60 99 8d bd 0c 07 ec 3d
       0.040034134 0.057855576 -0.069140196 0.115247816

fc2.weight f4 [32, 32]
000000 23 6e 17 be f8 f4 46 bd 08 bf b4 bd 78 e7 d0 bd
       -0.14788108 -0.048573464 -0.08825499 -0.10200399
000010 c9 3d 05 3e 66 c4 06 3e ca 14 ba 3d ac c3 25 3e
       0.1301185 0.13160858 0.090859964 0.16187924
000020 3d 09 df bd b7 34 5b bd 2e 60 2f b9 08 f8 df 3b
       -0.10890434 -0.05351707 -0.0001672513 0.0068349876
000030 56 ea e6 3d d5 41 32 3e ac 63 8b 3e c8 b6 14 be
       0.11275165 0.17407925 0.2722448 -0.1452285
000040 c7 04 22 3e c3 51 10 3e 72 4f 7c bb a8 3a a7 ba
       0.15822135 0.1409369 -0.0038499502 -0.001275857
000050 b0 ca 00 bd e4 6f a5 bd ce 23 9c bd 55 59 8f 3e
       -0.031443298 -0.08077982 -0.07624017 0.27997842
000060 02 c4 e6 bd 6c c6 0e 3d 68 4d 1b 3d 94 96 e6 3d
       -0.11267854 0.0348572 0.037915617 0.11259189
000070 4a 14 cd bc 2b 34 07 3e 73 26 31 be 70 89 ff bd
       -0.025034089 0.13203494 -0.17299823 -0.12477386
000080 6c 4f 1d be 20 d5 a6 bb 42 e5 df bd 2e a2 f1 3d
       -0.15362328 -0.0050913244 -0.10932399 0.117985114
000090 49 1c ac bd 20 3b 76 3c e9 08 19 3e f2 66 32 be
       -0.084038325 0.015028745 0.14944805 -0.17422083
0000a0 de 57 95 3d 08 32 1a be 06 70 af 3d ac bb 3d bd
       0.0729215 -0.15058148 0.08566289 -0.046321556
0000b0 48 52 1b be 18 a2 ee 3c 70 7c 53 3c 10 e6 7b 3d
       -0.15168107 0.029130027 0.012908086 0.0614987
0000c0 06 18 d9 3d 70 7e 95 bc 9a e4 a7 bd 67 ea 30 3e
       0.10600285 -0.018248767 -0.08197899 0.17276917
0000d0 ec 9a 5f bd 8b e0 1a 3e 06 6b f1 3d c0 87 31 be
       -0.054591104 0.15124719 0.11787991 -0.17336941
0000e0 c8 ad 51 bd b0 18 3b 3c 6e 10 11 be 48 8d f7 3c
       -0.05119112 0.01141946 -0.14166424 0.030218735
0000f0 bb a5 95 bd 74 ca b9 bd df bb 06 3e 32 a7 9b 3d
       -0.07307001 -0.09071818 0.13157605 0.07600249
000100 c9 81 20 3e b0 1e 14 bd ce 3d 91 bd 6e 48 0b be
       0.15674509 -0.03616208 -0.070918664 -0.13601848
000110 82 ae d5 3b 8b 06 0e 3e 50 80 9e bc 4e 6b 2f 3e
       0.006521047 0.13869683 -0.019348294 0.17130777
000120 06 6c e7 3d e0 64 84 bd 68 ae cd 3c 4b 6f 1d 3e
       0.11299901 -0.06464553 0.025107577 0.15374486
000130 d5 98 4a 3e 20 25 31 3e 47 0f ba bc 28 ed f5 3c
       0.19784863 0.17299318 -0.022712363 0.030020311
000140 6c a9 16 3e a0 7e e9 3d 62 c6 32 be ae 6b ec 3d
       0.14713067 0.11401105 -0.1745849 0.11543976
000150 77 46 a7 bd b1 34 e1 bd 8f eb cb bd 93 e9 37 3c
       -0.08167737 -0.10996378 -0.099570386 0.011225122
000160 90 72 e2 bc 40 ca 4f bb 91 d7 d9 bd 3d d7 ba 3d
       -0.027642518 -0.0031706244 -0.10636819 0.09123085
000170 d4 d1 f2 bd eb 00 12 3e d7 5b 23 be 3d 2b 1b 3d
       -0.11856428 0.14258163 -0.15953003 0.037883032
000180 45 86 0c be c6 53 c9 bd f5 e8 61 3c 01 b2 7a bd
       -0.13723095 -0.09830432 0.013788451 -0.061204914
000190 12 e5 f2 bd c8 40 87 bc 3a 7b 02 be 73 51 d7 bd
       -0.11860098 -0.016510382 -0.1274232 -0.10513582
0001a0 ce fa d5 3d f1 f7 8e bc 80 7a 4c bd f2 3b 07 3e
       0.10448228 -0.017452212 -0.049921513 0.13206461
0001b0 9c 0d 7c 3c b5 e9 02 3e e0 e7 95 3d 00 cb 6d 3c
       0.015384104 0.12784465 0.07319617 0.014513731
0001c0 6b 68 85 bd ba 1c cd bd 11 bc 08 3e fb 0c ce 3c
       -0.06514057 -0.10015245 0.13352992 0.025152674
0001d0 95 53 1a 3e be 60 9f 3d 4e 2d a9 bc e1 ce 26 be
       0.15070947 0.07782124 -0.020651486 -0.16289856
0001e0 c2 00 92 3d 34 cb 47 bd 1f 85 f0 3b 41 b3 bf bd
       0.07129051 -0.048777774 0.007340088 -0.09360362
0001f0 4e 57 e3 3d 1f f8 10 3e 1c b7 d6 bd d8 66 8e bd
       0.111006364 0.1415715 -0.10484144 -0.0695321
000200 ca c0 06 be 3a 3f af 3d 3b 29 03 be 9e f8 0b be
       -0.1315948 0.085569814 -0.12808697 -0.13669059
000210 1e 54 04 be 78 ff 11 be 17 d6 0b 3e eb e0 9b bd
       -0.12922713 -0.1425761 0.13655888 -0.07611259
000220 c2 cc df 3d 50 60 48 bd d6 7f 5a bd c8 58 46 bd
       0.10927726 -0.048919976 -0.05334457 -0.048424512
000230 0e d6 12 be fc d1 4f 3d 3b 9f 91 bd 44 be 58 3d
       -0.14339468 0.050737366 -0.07110449 0.052915826
000240 8a 3d 1a be 68 84 e2 3c 5f 06 13 3e 28 92 5e bd
       -0.15062538 0.027651027 0.14357899 -0.054338604
000250 c4 58 1a 3d 9f b5 32 be 86 df 93 bd d3 ee 15 3e
       0.03768231 -0.17452095 -0.07220368 0.14641885
000260 9e 9a 8f 3d 30 a5 84 3d 9a 1f 9d 3d 50 d8 13 bd
       0.07011913 0.064768195 0.07672043 -0.036094964
000270 14 ad 99 bd f3 5a 2a 3e 5c c2 84 bd 50 fc 66 bc
       -0.07503715 0.16636257 -0.064823836 -0.014098242
000280 5d 30 09 be e1 c1 0a 3e ae 8e 6c bd 57 fa 86 bd
       -0.13397355 0.13550521 -0.057753257 -0.06590717
000290 6a 2e e1 bd d4 88 28 3d 46 2a 0c be d6 cb 0d 3e
       -0.10995181 0.041146114 -0.13688001 0.13847288
0002a0 df 13 05 3e 55 c4 09 be 84 18 26 be ec 9c 04 3d
       0.12995861 -0.13453801 -0.1622029 0.032376215
0002b0 82 44 d7 bd c3 96 41 be 41 00 c7 3d bc 16 36 bd
       -0.10511114 -0.18905167 0.09716845 -0.044455275
0002c0 23 8e ba 3c 78 e1 9a 3c 7e f5 fd bd 26 e1 cd bd
       0.022772854 0.01890634 -0.124003395 -0.10052709
0002d0 e0 bb 7b 3d 07 d5 1f be 68 e0 c6 bc de a5 f0 bc
       0.06145847 -0.15608607 -0.024276927 -0.029375967
0002e0 c4 ba c8 bd 8d e9 32 3e 9a 69 20 be 89 2a 1b be
       -0.09801248 0.17471905 -0.15665284 -0.15152945
0002f0 a0 de 02 be c6 4e cd 3d 52 17 1a be d6 c5 db 3d
       -0.12780237 0.100247905 -0.15047958 0.107310936
000300 5b 17 24 3e 6d e5 29 3e f9 30 1d 3e 34 b0 8e 3c
       0.16024534 0.16591425 0.15350713 0.017418005
000310 c8 6d bc bd 84 52 31 3d 6a 0f 95 3d 1f 94 74 3e
       -0.092006266 0.043291584 0.072783306 0.23884629
000320 82 a3 1e be 06 4f fb 3d dc fe 14 3d 99 d2 8e 3e
       -0.15492061 0.12270932 0.036375865 0.27895048
000330 77 5d 30 3c 7b 6d 0c bd 42 8e 93 3e 01 2b 31 be
       0.010764471 -0.034284096 0.28819472 -0.17301561
000340 83 2a 8b 3b f4 c4 16 3e a3 0b 75 bd 69 73 70 3e
       0.004247011 0.14723569 -0.05982555 0.23481525
000350 ba c4 dd 3d c6 50 03 bd ec 98 11 bd c0 73 74 3e
       0.10828538 -0.032059453 -0.03554623 0.2387228
000360 ac ef 12 bd ba a0 95 3d 03 4c 8b bd 06 0e dd bd
       -0.0358731 0.07306047 -0.068016075 -0.107936904
000370 1a 12 00 be a0 37 3f be 32 75 5c bd ff 1b be bd
       -0.12506905 -0.18673563 -0.053822704 -0.092826836
000380 19 f0 31 3d 80 36 c9 3a ba bf 05 be 43 bf 1c be
       0.043441866 0.0015351325 -0.13061419 -0.15307336
000390 3a c8 00 bd 32 82 82 3d d0 69 2a 3c 12 2f 8b 3e
       -0.03144095 0.06372489 0.010401204 0.2718435
0003a0 10 6c c2 bd 75 08 10 be 88 b6 18 bd 85 cd 9f 3d
       -0.094932675 -0.14065726 -0.03728345 0.078028716
0003b0 7f 2d 07 be c5 aa c4 3d 73 81 78 3e f8 dc 32 be
       -0.13200949 0.09602884 0.24268131 -0.17467105
0003c0 0a 5c b6 3d 0e 11 08 3e 36 bc 51 3d 86 85 cf bd
       0.08904274 0.13287756 0.051204883 -0.101328894
0003d0 2a 24 e4 3d 2a f2 f5 bd ad 80 9d bd 20 34 38 3e
       0.1113971 -0.1200908 -0.076905586 0.17988634
0003e0 80 f4 1b bd 06 54 fc 3d 3d 35 8f bd c7 1c 24 be
       -0.03807497 0.12320714 -0.06992576 -0.16026603
0003f0 fb 58 20 be 73 70 ad 3b 2a 10 0d be 61 8d 10 3e
       -0.15658943 0.005292946 -0.13775697 0.14116432

fc2.bias f4 [32]
000000 ac ea a0 3d 3c d2 40 bd 3f 64 7d 3a 37 2a be bd
       0.0785726 -0.047075495 0.0009666122 -0.092853956
000010 3e eb 6c bd d7 d0 4e bd d0 22 df ba 96 77 ca 3b
       -0.057841532 -0.050492134 -0.0017023925 0.0061788065
000020 ab 46 66 3d 97 ec d4 3d f6 ce 26 3e 8a 70 6a 3c
       0.056219738 0.103966884 0.16289887 0.014309058
000030 d8 30 81 bd f0 ae 5f 3d ba 33 f3 3d c8 e6 20 be
       -0.06308144 0.054610193 0.118751004 -0.15713036
000040 74 51 49 bc 97 18 b7 3d fd 8d 01 be 9d 6c 01 3e
       -0.012287486 0.08940237 -0.1265182 0.12639089
000050 e3 5d f4 bd 56 34 58 3d df c0 4f 3d 8e bb 0e 3d
       -0.1193197 0.052784286 0.050721046 0.034846835
000060 f1 90 f9 bd 70 71 3a 3d 4a c4 01 be 3e 40 b6 bd
       -0.121858485 0.04551834 -0.12672535 -0.08898972
000070 5a 08 6f 3d 28 c5 11 be 82 87 14 3e 92 99 83 3d
       0.058357574 -0.14235365 0.14504817 0.064257756

fc3.weight f4 [1, 32]
000000 06 c8 23 3e 8f d2 cd bd 8d 6b 26 3d 10 70 eb 3d
       0.15994272 -0.100499265 0.040629912 0.114959836
000010 76 dc 85 3d a9 28 f5 bc 7d ed 91 3e fa c2 43 3e
       0.0653619 -0.029926615 0.28501502 0.19117346
000020 23 d1 fc 3c 33 f2 e8 bd bc 24 26 be ee 1a 33 3e
       0.030861443 -0.11374321 -0.1622495 0.17490742
000030 ba 3d ee bc 18 67 a9 bd 69 1e 5e bd 82 79 be bd
       -0.029082168 -0.08271617 -0.05422822 -0.093005195
000040 19 0f 84 3d b5 b5 12 3d be 07 d5 3c 9f b9 a4 bd
       0.06448192 0.03581782 0.026004668 -0.08043217
000050 1e 8b 4a 3d 42 b7 0d 3e 31 ad 17 3e 36 1c 05 3e
       0.04944908 0.13839439 0.14812161 0.12999043
000060 f4 cd 5e 3d 54 67 80 3d 86 26 6a bd fc 25 fc bd
       0.05439563 0.06269708 -0.057165645 -0.123119324
000070 83 5f d6 3d 02 39 ba 3b 4c 67 6b bd d4 1e 60 ba
       0.10467436 0.0056830654 -0.05747156 -0.00085495156
