checkpoints/StockPrediction_epoch_1.pt (torch, 255962 bytes, 27 tensors)

lstm.weight_ih_l0 f4 [256, 1]
0.019873058 0.029286306 -0.07765964 0.038068946 -0.05377627 -0.00900377 -0.10362482 -0.001502478
0.042813424 -0.034425315 0.04210648 -0.05261736 0.078782804 -0.060023416 -0.00029874963 -0.0877962
0.038942557 -0.041971903 -0.081632234 -0.037058335 -0.12706934 -0.087527744 -0.12330897 0.05988049
-0.08692877 -0.13478373 -0.11143596 -0.1382526 -0.06376181 -0.17180687 0.03870866 -0.1737609
0.05213048 0.008584125 -0.10050029 0.09525036 -0.032979187 0.10442597 -0.016570888 -0.11330266
-0.03713936 -0.1074375 0.10876944 0.053997688 -0.008968966 -0.124877974 0.0012354356 -0.05562942
-0.013544772 -0.15152493 -0.14400682 -0.12426576 -0.1496517 0.030553352 -0.03197255 0.116595596
-0.027728388 -0.07383092 0.02032479 -0.1045475 -0.071062006 -0.1644038 0.1993506 -0.09741238
-0.035256054 -0.10043639 0.056402612 -0.15013193 -0.09244849 -0.10958824 0.073416166 -0.032306727
0.05535097 -0.055117063 -0.18529308 -0.17158598 -0.09011309 -0.02479457 -0.019187367 0.035816442
-0.120293565 -0.14319162 0.054269563 -0.11915625 0.009471674 -0.09894287 0.0016041473 -0.12004164
-0.04688076 -0.034092825 -0.049247716 -0.09432752 -0.00010663528 0.040728766 -0.16246238 -0.1317
0.06477512 -0.048466776 -0.10540884 -0.10393497 -0.12448078 0.06278038 -0.040993724 -0.16004914
-0.06536971 -0.1555785 -0.046909705 -0.12542786 -0.18877208 -0.14740586 0.055571042 -0.054587685
-0.036241706 -0.19069621 -0.09519079 -0.112331845 -0.026808856 -0.17890935 -0.11370312 0.026325604
-0.065414995 -0.11619596 -0.085153185 -0.09216318 -0.16251135 -0.15005438 0.14680012 -0.14711511
0.18773128 -0.09479892 0.07459947 0.111896545 -0.14692804 0.1474595 0.005156196 -0.11621407
-0.17750923 -0.1643053 0.10468299 -0.1015704 0.061726384 -0.031798616 0.03525061 -0.16616945
-0.07540014 0.088343546 0.04873441 0.04384726 0.18424267 -0.17785995 0.0983331 -0.095446795
0.0022101854 -0.17362414 0.046519384 -0.15808515 0.0033831373 0.11755742 0.11834239 -0.14024977
0.15860063 0.043358885 0.08787246 -0.12422377 -0.0070258146 -0.08544702 -0.08991878 0.18831205
0.09437463 -0.00348534 -0.10396879 -0.057511497 -0.001196407 -0.097780734 -0.14465247 0.03486461
-0.17190473 0.11640211 0.12314945 -0.19217905 0.09991019 0.13638952 -0.049331818 -0.10791637
0.0027129913 0.13837737 -0.02380756 -0.038111042 -0.11253843 -0.062046506 -0.09882312 -0.11476425
0.002993777 0.030444533 -0.062923715 -0.10599552 -0.023914754 -0.039779663 -0.009385653 -0.04291343
-0.1856748 0.01161871 0.038338307 -0.029395454 -0.020076877 -0.15861192 -0.13837686 -0.18565983
-0.10140266 -0.019902548 0.059955433 -0.014634985 -0.18697937 -0.15220577 -0.09592673 0.099818684
0.024319611 -0.114268966 -0.029752996 -0.115041405 -0.16165654 0.034640048 -0.13374388 -0.09441343
-0.16652942 0.07079904 0.031358603 0.06366352 -0.13896962 -0.11296993 -0.13069089 0.013694279
-0.017103685 0.026873706 0.12569678 -0.029515522 -0.08528576 -0.167661 -0.18032332 -0.19856778
-0.028085958 -0.14144099 -0.044622313 -0.15220685 -0.07647262 -0.16104825 -0.15887491 0.107532226
-0.10479275 0.001380977 -0.11996056 -0.10753786 -0.10353352 -0.14227985 0.1304794 -0.17204481
00000000: d3cc a23c d6e9 ef3c 040c 9fbd 2fee 1b3d
00000010: 8244 5cbd 8c84 13bc 4039 d4bd ccee c4ba
00000020: 215d 2f3d 8f01 0dbd d877 2c3d 4d85 57bd
00000030: e158 a13d 1ddb 75bd 7fa1 9cb9 7ece b3bd
00000040: 3b82 1f3d bbea 2bbd cd2e a7bd 7bca 17bd
00000050: 771e 02be bf41 b3bd 6a89 fcbd 3f45 753d
00000060: b607 b2bd bf04 0abe 8938 e4bd 1792 0dbe
00000070: 8d95 82bd 24ee 2fbe f98c 1e3d 61ee 31be
00000080: c586 553d 6ea4 0c3c 19d3 cdbd 9f12 c33d
00000090: 2f15 07bd 48dd d53d acbf 87bc 3a0b e8bd
000000a0: 711f 18bd 3108 dcbd 83c2 de3d ae2c 5d3d
000000b0: 92f2 12bc 06c0 ffbd 57ee a13a addb 63bd
000000c0: e4ea 5dbc 5a29 1bbe 8676 13be 0c7f febd
000000d0: 4c3e 19be 064b fa3c a6f5 02bd acc9 ee3d
000000e0: a526 e3bc aa34 97bd 2d80 a63c 001d d6bd
000000f0: f588 91bd 7859 28be 9022 4c3e 2480 c7bd
00000100: a768 10bd 98b1 cdbd 6d06 673d 2fbc 19be
00000110: a255 bdbd cd6f e0bd 375b 963d 0f54 04bd
00000120: b3b7 623d 6ec2 61bd 78bd 3dbe 3cb4 2fbe
00000130: 368d b8bd fb1d cbbc d32e 9dbc 43b4 123d
00000140: 795c f6bd d3a0 12be c349 5e3d 3108 f4bd
00000150: 152f 1b3c 8fa2 cabd 4042 d23a 64d8 f5bd
00000160: 0a06 40bd eba4 0bbd f9b7 49bd c92e c1bd
00000170: 61a1 dfb8 35d3 263d 8a5c 26be 5ddc 06be
00000180: d1a8 843d 1985 46bd 97e0 d7bd dcdb d4bd
00000190: c7ef febd 0093 803d 09e9 27bd ece3 23be
000001a0: 8ee0 85bd f84f 1fbe 6424 40bd 2970 00be
000001b0: 784d 41be 90f1 16be 769e 633d 5697 5fbd
000001c0: 2f72 14bd de45 43be 64f3 c2bd 3d0e e6bd
000001d0: 3f9e dbbc 0334 37be 2edd e8bd cba8 d73c
000001e0: 4cf8 85bd 26f8 edbd cb64 aebd 0dc0 bcbd
000001f0: 6069 26be dba7 19be c552 163e 58a5 16be
00000200: a13c 403e f025 c2bd 9bc7 983d 042a e53d
00000210: 4e74 16be a0ff 163e 4ff5 a83b a401 eebd
00000220: fbc4 35be a63f 28be 0964 d63d 2404 d0bd
00000230: ced4 7c3d 443f 02bd f262 103d 5328 2abe
00000240: 636b 9abd 76ed b43d bc9d 473d 2f99 333d
00000250: 1caa 3c3e eb20 36be dd62 c93d 9c79 c3bd
00000260: c2d8 103b 87ca 31be 1c8b 3e3d 13e1 21be
00000270: a0b7 5d3b f2c1 f03d 7f5d f23d a39d 0fbe
00000280: 3468 223e 1699 313d 7af6 b33d 0869 febd
00000290: ce38 e6bb d9fe aebd 5627 b8bd e0d4 403e
000002a0: 7c47 c13d 4d6a 64bb 97ed d4bd 2d91 6bbd
000002b0: c2d0 9cba 4441 c8bd c71f 14be 31ce 0e3d
000002c0: cb07 30be 3b64 ee3d c735 fc3d 96ca 44be
000002d0: b79d cc3d b2a9 0b3e 2910 4abd 4203 ddbd
000002e0: 71cc 313b ccb2 0d3e 1208 c3bc 531a 1cbd
000002f0: 8c7a e6bd 7a24 7ebd c763 cabd 8509 ebbd
00000300: 3e33 443b d066 f93c 26de 80bd 2e14 d9bd
00000310: e0e8 c3bc 00f0 22bd 48c6 19bc fec5 2fbd
00000320: 8921 3ebe 675c 3e3c a108 1d3d bcce f0bc
00000330: 4378 a4bc 2a6b 22be aab2 0dbe 9c1d 3ebe
00000340: 33ac cfbd ab0a a3bc d493 753d 93c7 6fbc
00000350: 8577 3fbe d4db 1bbe 3c75 c4bd bd6d cc3d
00000360: ec39 c73c d905 eabd 8ebc f3bc d49a ebbd
00000370: 4b89 25be b9e2 0d3d 28f4 08be d45b c1bd
00000380: b086 2abe 16ff 903d e171 003d 0562 823d
00000390: 0d4e 0ebe c75c e7bd d5d3 05be f85d 603c
000003a0: 071d 8cbc 3f26 dc3c a8b6 003e 89ca f1bc
000003b0: 4daa aebd 53af 2bbe ada6 38be 5a55 4bbe
000003c0: 8614 e6bc e8d5 10be e3c5 36bd 1ddc 1bbe
000003d0: ad9d 9cbd d5e9 24be 1bb0 22be db39 dc3d
000003e0: 959d d6bd e601 b53a e2ad f5bd cf3c dcbd
000003f0: 6209 d4bd cfb1 11be 649c 053e 842c 30be

lstm.weight_hh_l0 f4 [256, 64]
0.02243143 -0.044185724 0.068162255 0.00767015 0.13748515 -0.15763897 0.061409835 -0.01447537
0.09632204 0.20108731 -0.058660444 0.047150146 -0.060620736 -0.14166729 0.08853208 -0.06988651
0.11888135 0.053716067 0.11063196 0.0010163784 -0.15264967 0.08436667 0.028011346 -0.09654139
-0.009686075 -0.026107447 0.02496021 -0.012789941 -0.012719501 -0.06675616 -0.16795309 0.15319878
0.050298005 -0.044066478 -0.052942056 0.015369271 -0.08999199 -0.07234002 0.08954848 -0.12231989
-0.12578166 -0.046945624 0.015828887 -0.0040717004 0.042405665 0.018901775 0.00017416858 -0.09942127
-0.055663347 0.059391066 -0.09502841 0.07917625 -0.086184256 -0.040070716 0.15389885 0.09442961
-0.076986566 0.002742343 0.15647589 0.0647318 0.13202511 0.16709545 0.003146832 0.04714098
-0.1360308 0.018928852 0.10089068 0.01284549 -0.031501107 -0.15925138 -0.11858142 -0.077029124
-0.0452871 0.05837891 0.042098537 0.07059149 -0.12392538 -0.14137259 0.09687706 -0.03739347
0.02709176 0.018757017 -0.05217271 0.016039591 -0.062173538 0.027858544 -0.10672696 -0.09854391
-0.08765021 -0.016815048 0.16084163 -0.010532998 -0.041809924 0.0022441747 -0.01658908 0.119994
0.04086536 0.04686053 -0.1633914 0.07749948 0.09652092 0.03784952 -0.03278009 0.06426399
-0.09471222 -0.111085504 -0.05454819 0.043963287 0.09740151 0.074642636 0.06930168 -0.13659671
-0.06887927 -0.04465079 0.07020412 0.119763516 -0.111220405 -0.06725981 -0.059828386 -0.020920197
0.05414449 0.01877597 0.14483432 -0.08791272 0.13420306 -0.042305402 0.084906206 0.13351074
-0.02646078 0.13953413 -0.06945063 -0.078526355 0.09464822 -0.05346624 -0.044314463 -0.02459644
0.11448777 0.06851597 0.017509518 -0.041325465 -0.09995499 -0.013542138 0.05922985 -0.024862088
-0.01254497 0.061968744 0.040284965 0.0387228 -0.059647914 -0.07905912 -0.14296842 -0.083411284
-0.122107014 0.067583025 -0.008399067 -0.021629434 0.14611524 0.0005697521 0.05876607 -0.03208484
-0.07816787 0.04242501 -0.1290462 -0.05357899 0.032209963 -0.014761039 -0.07786015 0.042456266
0.071821496 -0.0042886697 -0.020192804 -0.095858 -0.019111684 0.058920447 0.083791256 -0.04057631
-0.022553012 0.042377733 -0.11788709 0.10652152 -0.09590798 -0.026142487 0.020948116 0.049176224
-0.023713565 0.06166184 0.022084614 0.068861224 0.15058114 -0.033798326 -0.05737875 0.14417356
0.044195373 -0.044470485 0.00949124 -0.17773841 -0.05205226 -0.033534076 -0.006420881 0.07915891
0.020611502 0.18774311 -0.03023327 -0.019126385 -0.043722108 -0.01797095 0.087318 -0.030345693
0.09516687 -0.11123403 -0.096973404 -0.026616573 0.06539672 0.16672832 0.06222144 0.08600365
0.10637317 0.038138755 -0.021933436 0.11633725 -0.015750905 -0.11627228 -0.09474248 0.081912376
0.008130361 -0.08287312 -0.11707304 0.086062744 -0.044328216 -0.040838223 0.11211958 -0.07878213
0.061559122 0.07427484 0.072911255 0.0884633 0.077810265 0.054517712 0.041378446 -0.04689194
0.09843504 0.06323215 -0.08028681 7.5277356e-05 -0.07147783 -0.11532871 0.06105575 0.10931465
0.13847852 0.0041878046 -0.044410557 -0.0264069 0.027264675 0.028833777 0.008993107 -0.085704125
00000000: 1ec2 b73c 17fc 34bd a798 8b3d e255 fb3b
00000010: e8c8 0c3e 1c6c 21be e188 7b3d 1a2a 6dbc
00000020: 7d44 c53d d5e9 4d3e ef45 70bd 8320 413d
00000030: 734d 78bd 3b11 11be 4f50 b53d a920 8fbd
00000040: 1178 f33d 6105 5c3d 0293 e23d 0038 853a
00000050: 3250 1cbe 6fc8 ac3d 0d78 e53c 7eb7 c5bd
00000060: 58b2 1ebc 49df d5bc 5b79 cc3c e78c 51bc
00000070: 7465 50bc 74b7 88bd e5fb 2bbe 24e0 1c3e
00000080: 4805 4e3d 0d7f 34bd c5d9 58bd 65cf 7b3c
00000090: b84d b8bd 0127 94bd 3265 b73d da82 fabd
000000a0: e8cc 00be 0e4a 40bd 95ab 813c e66b 85bb
000000b0: 90b1 2d3d e5d7 9a3c 06a1 3639 619d cbbd
000000c0: 40ff 63bd 0c44 733d 419e c2bd 2827 a23d
000000d0: 5f81 b0bd 3121 24bd a997 1d3e 5064 c13d
000000e0: 22ab 9dbd e1b8 333b 373b 203e 1b92 843d
000000f0: 9731 073e 121b 2b3e 153b 4e3b e616 413d
00000100: a84b 0bbe ae10 9b3c c69f ce3d e475 523c
00000110: 4e07 01bd cb12 23be d1da f2bd 72c1 9dbd
00000120: f77e 39bd b91e 6f3d 846f 2c3d 4592 903d
00000130: 97cc fdbd fac3 10be 7b67 c63d e529 19bd
00000140: 8aef dd3c 51a8 993c 0db3 55bd 7665 833c
00000150: aea9 7ebd 9a37 e43c aa93 dabd 64d1 c9bd
00000160: f481 b3bd b6bf 89bc abb3 243e 9892 2cbc
00000170: e240 2bbd 0113 133b d3e5 87bc 6abf f53d
00000180: 7062 273d d4f0 3f3d 1350 27be 0cb8 9e3d
00000190: c3ac c53d 1908 1b3d 6a44 06bd d79c 833d
000001a0: 7bf8 c1bd cc80 e3bd ec6d 5fbd d912 343d
000001b0: 717a c73d 3dde 983d 0aee 8d3d 02e0 0bbe
000001c0: 9310 8dbd bfe3 36bd 2dc7 8f3d 9346 f53d
000001d0: 86c7 e3bd 83bf 89bd 9c0e 75bd d560 abbc
000001e0: 9dc6 5d3d 10d0 993c 734f 143e 960b b4bd
000001f0: 876c 093e 6e48 2dbd 4ee3 ad3d 0ab7 083e
00000200: 47c4 d8bc 09e2 0e3e 223c 8ebd 6dd2 a0bd
00000210: edd6 c13d 6bff 5abd 1583 35bd 797e c9bc
00000220: 9078 ea3d 1a52 8c3d 1f70 8f3c e444 29bd
00000230: 34b5 ccbd d8df 5dbc 009b 723d 94ab cbbc
00000240: 6b89 4dbc f0d2 7d3d d901 253d cc9b 1e3d
00000250: 5f51 74bd bfe9 a1bd 5066 12be 89d3 aabd
00000260: 3e13 fabd f868 8a3d 3e9c 09bc 3630 b1bc
00000270: 3c9f 153e 6b5b 153a b1b4 703d 656b 03bd
00000280: 7a16 a0bd d9c5 2d3d b024 04be a575 5bbd
00000290: 98ee 033d 49d8 71bc 2475 9fbd 9fe6 2d3d
000002a0: 2617 933d f887 8cbb 616b a5bc 3351 c4bd
000002b0: 1b90 9cbc 9156 713d c09a ab3d 5833 26bd
000002c0: 18c1 b8bc 4694 2d3d c96e f1bd f427 da3d
000002d0: 676b c4bd c528 d6bc 629b ab3c 026d 493d
000002e0: f342 c2bc 2091 7c3d cbea b43c 1d07 8d3d
000002f0: f131 1a3e 1d70 0abd fb05 6bbd 3ca2 133e
00000300: 3506 353d af26 36bd 2581 1b3c 0f01 36be
00000310: c034 55bd 075b 09bd 4166 d2bb 111e a23d
00000320: 74d9 a83c bb3f 403e c3ab f7bc f0ae 9cbc
00000330: f415 33bd d037 93bc c8d3 b23d 8897 f8bc
00000340: d9e6 c23d abce e3bd fe99 c6bd 000b dabc
00000350: b7ee 853d d4ba 2a3e e9db 7e3d af22 b03d
00000360: 2dda d93d 6237 1c3d c0ad b3bc 3942 ee3d
00000370: 0b08 81bc 2920 eebd 5808 c2bd adc1 a73d
00000380: 3535 053c 62b9 a9bd fdc3 efbd aa41 b03d
00000390: 8191 35bd fb45 27bd f39e e53d 8658 a1bd
000003a0: 6b25 7c3d 681d 983d 7f52 953d 3f2c b53d
000003b0: fd5a 9f3d f74d 5f3d 727c 293d c311 40bd
000003c0: 4f98 c93d dc7f 813d 696d a4bd 39de 9d38
000003d0: f862 92bd 7531 ecbd 9815 7a3d 5ce0 df3d
000003e0: 50cd 0d3e da39 893b d8e7 35bd 4853 d8bc
000003f0: 2b5a df3c d034 ec3c d357 133c a585 afbd

lstm.bias_ih_l0 f4 [256]
0.0372955 -0.025537968 -0.045580678 -0.0010097135 0.063869365 -0.058577675 0.1129831 -0.043259673
0.07185013 0.18276535 -0.03116923 -0.0465754 -0.07986042 -0.022639584 -0.06495864 -0.083501905
-0.048232295 -0.035012696 0.1020725 0.0020461702 0.051139694 0.012461142 0.04318774 0.07382111
0.0058937203 0.015022724 0.03464595 0.1439779 -0.054767955 0.14557306 0.009848927 0.11468702
0.112550765 -0.026122417 0.02465573 0.081252106 -0.013137431 0.076947555 0.11165236 0.01917864
-0.008524064 0.12342923 0.14978088 0.12984005 -0.09358013 0.10835177 0.083794616 -0.054711632
0.11546616 -0.033486728 0.056052156 0.04174695 0.07047138 -0.039884996 0.008037951 -0.019155277
0.07777135 -0.06200234 0.031326853 0.026746675 0.02788208 -0.010710614 0.07935052 0.03689491
-0.034728073 0.0005132217 -0.010998577 -0.022446277 0.0024760254 -0.0035733639 -0.07271723 -0.06423764
-0.04102753 0.0161712 0.119503535 0.024942169 -0.083654754 -0.06215804 0.036526036 0.15268888
-0.096712045 0.10811809 0.10319526 0.051917642 0.10415596 0.092815965 -0.07998916 -0.04098809
-0.048300497 -0.03999155 0.025680033 0.05971968 0.036357943 0.10131367 -0.03399508 0.1348901
-0.022417743 0.07261859 0.14305615 -0.11545448 -0.11516579 0.14458889 0.08877326 0.034234803
0.06378222 0.04857698 0.0016100891 0.07647169 0.06741376 -0.0906698 -0.011094711 -0.043760687
0.08946618 -0.0853584 -0.11746344 -0.075204566 -0.010838621 -0.05717291 0.004892293 -0.0023384264
0.09542677 0.15211368 0.07012739 -0.06359015 0.0844951 -0.07554474 0.01831835 0.0024960614
-0.11247385 0.13306507 0.12390568 0.052884858 0.018881172 0.13516803 -0.054462224 0.045639712
-0.044982735 -0.087063015 -0.1076056 0.08841755 -0.06357178 -0.08409228 0.13238029 -0.07316714
0.014836574 -0.09972207 -0.05330916 0.13953178 0.06294788 0.012785437 -0.07597762 0.035824724
0.08496688 0.029074911 -0.058552586 0.001545098 0.08532108 0.0359397 0.10560358 0.10773329
0.09668771 -0.055841055 -0.015191687 -0.040243775 -0.03235008 0.012004032 0.061486214 -0.071744256
-0.051780563 -0.11772773 -0.042928647 0.07944224 0.1376559 0.014679775 0.08029214 -0.13626465
-0.010465832 -0.04550989 -0.029890496 0.12377062 0.07523718 -0.11009813 -0.09002346 -0.1040606
0.06315462 0.055233125 0.07921526 0.079070665 -0.073643066 0.029879011 -0.12556191 -0.044801425
0.041542914 0.023136046 -0.07965191 0.042992387 0.061269484 0.14414567 -0.0315862 0.12233689
0.011801136 -0.03423763 0.1342998 0.012601142 -0.04491115 0.01532277 0.12796465 -0.009237124
-0.011415538 0.024155544 -0.08667625 0.07687758 0.15003403 0.10109375 0.0011359485 -0.013007603
-0.13583103 -0.056881085 -0.00070361525 0.1028505 0.1473971 0.021555906 0.029280098 0.11834668
-0.012758124 -0.11504797 0.099685915 -0.06049356 -0.081888996 0.044656765 -0.09232559 -0.0445559
-0.026005803 0.026308209 0.08230288 -0.036527075 -0.093713164 -0.0106659485 0.13937195 0.0027571933
-0.04857479 -0.0049418677 0.10298913 0.060642026 0.015964067 0.15891075 0.054576013 0.06727717
0.13073623 0.033186145 0.0036371995 0.07864256 0.0773019 -0.053328793 0.1334879 -0.025135119
00000000: 2bc3 183d 0035 d1bc ceb2 3abd 5d58 84ba
00000010: f1cd 823d 25ef 6fbd af63 e73d 0e31 31bd
00000020: 2926 933d d726 3b3e 9d56 ffbc d9c5 3ebd
00000030: dc8d a3bd a676 b9bc 0909 85bd 0c03 abbd
00000040: 3a8f 45bd 7969 0fbd 630b d13d 0a19 063b
00000050: db77 513d d129 4c3c a1e5 303d 862f 973d
00000060: 1c20 c13b df21 763c e9e8 0d3d f16e 133e
00000070: 5d54 60bd 1b11 153e 655d 213c 07e1 ea3d
00000080: 0481 e63d aefe d5bc d0fa c93c 8167 a63d
00000090: 613e 57bc ae96 9d3d fea9 e43d 861c 9d3c
000000a0: 84a8 0bbc 77c8 fc3d 2960 193e caf4 043e
000000b0: f0a6 bfbd 88e7 dd3d 839c ab3d 4e19 60bd
000000c0: 8679 ec3d 6129 09bd f296 653d dafe 2a3d
000000d0: 4d53 903d 735e 23bd 9cb1 033c 87eb 9cbc
000000e0: 9646 9f3d 2af6 7dbd 9650 003d d81b db3c
000000f0: f668 e43c 927b 2fbc 8782 a23d 1e1f 173d
00000100: 063f 0ebd ba89 063a 6033 34bc 41e1 b7bc
00000110: d044 223b 192f 6abb c5ec 94bd 068f 83bd
00000120: 7c0c 28bd 7779 843c 45be f43d 8553 cc3c
00000130: 2f53 abbd 6e99 7ebd 539c 153d 795a 1c3e
00000140: f710 c6bd 046d dd3d 0958 d33d 98a7 543d
00000150: b84f d53d 4c16 be3d 5bd1 a3bd 21e3 27bd
00000160: bed6 45bd 2ece 23bd ef5e d23c a09c 743d
00000170: 11ec 143d 8b7d cf3d 6d3e 0bbd a120 0a3e
00000180: 6aa5 b7bc 0eb9 943d 507d 123e 6673 ecbd
00000190: 0bdc ebbd 1c0f 143e c1ce b53d cb39 0c3d
000001a0: 41a0 823d a8f8 463d a009 d33a 309d 9c3d
000001b0: 3a10 8a3d 17b1 b9bd 97c6 35bc 683e 33bd
000001c0: 0b3a b73d 63d0 aebd ac90 f0bd da04 9abd
000001d0: 7994 31bc 242e 6abd 874f a03b 4940 19bb
000001e0: 1c6f c33d b0c3 1b3e f39e 8f3d 8d3b 82bd
000001f0: c40b ad3d 33b7 9abd 5d10 963c f694 233b
00000200: b158 e6bd 3642 083e 43c2 fd3d cb9d 583d
00000210: b0ac 9a3c 7d69 0a3e c813 5fbd b5f0 3a3d
00000220: d13f 38bd 184e b2bd 5360 dcbd 4314 b53d
00000230: ec31 82bd 9338 acbd b38e 073e a7d8 95bd
00000240: 1a15 733c 163b ccbd b55a 5abd 6be1 0e3e
00000250: d1ea 803d 027a 513c 289a 9bbd f2bc 123d
00000260: 1e03 ae3d 822e ee3c d6d4 6fbd e384 ca3a
00000270: d2bc ae3d 8235 133d b146 d83d 45a3 dc3d
00000280: 3504 c63d 97b9 64bd 8ee6 78bc a8d6 24bd
00000290: 8481 04bd 8fac 443c f8d8 7b3d a7ee 92bd
000002a0: db17 54bd 3c1b f1bd f3d5 2fbd 9db2 a23d
000002b0: abf5 0c3e 7083 703c 3570 a43d f688 0bbe
000002c0: e278 2bbc 9468 3abd eadc f4bc 737b fd3d
000002d0: f315 9a3d 217b e1bd 385e b8bd b91d d5bd
000002e0: 3657 813d 213c 623d 9c3b a23d cdef a13d
000002f0: 2dd2 96bd d4c4 f43c 4d93 00be b381 37bd
00000300: e728 2a3d ce87 bd3c 8a20 a3bd c918 303d
00000310: b6f5 7a3d ec9a 133e 8860 01bd c38b fa3d
00000320: 8d59 413c c23c 0cbd e385 093e 0575 4e3c
00000330: c1f4 37bd 5b0c 7b3c 2a09 033e 4e57 17bc
00000340: 3d08 3bbc d9e1 c53c 5183 b1bd fe71 9d3d
00000350: 85a2 193e 3d0a cf3d 1be4 943a d71d 55bc
00000360: 4a17 0bbe 24fc 68bd d272 38ba 48a3 d23d
00000370: 44ef 163e 0396 b03c d1dc ef3c bf5f f23d
00000380: 7307 51bc 459e ebbd 2128 cc3d 18c8 77bd
00000390: 6bb5 a7bd 03ea 363d 3315 bdbd 3f80 36bd
000003a0: 1f0a d5bc 5084 d73c 6a8e a83d 6a9d 15bd
000003b0: b0ec bfbd 3bc0 2ebc 85b7 0e3e 07b2 343b
000003c0: 5cf6 46bd 64ef a1bb f7eb d23d c663 783d
000003d0: 13c7 823c 80b9 223e 198b 5f3d 9dc8 893d
000003e0: b8df 053e 32ee 073d 155e 6e3b 5a0f a13d
000003f0: 7550 9e3d 4b6f 5abd 0db1 083e 2ae8 cdbc

lstm.bias_hh_l0 f4 [256]
-0.07384699 0.14226261 -0.07109025 -0.009267656 -0.019778391 0.029148042 -0.015015562 0.1270934
0.13032596 -0.052801736 -0.091880575 -0.085337155 0.088964626 0.014619034 -0.050072532 -0.04279726
0.032346815 0.044207394 0.06549805 0.12427063 0.14771317 -0.031646013 0.017096166 -0.06520322
-0.061049327 0.03400361 0.09421406 -0.030088749 -0.041983966 -0.010173504 0.08928604 0.029031992
0.10940917 -0.14298522 0.067273825 0.08927495 0.082968 -0.066225044 -0.09137963 0.045774054
0.036096003 0.1009579 0.13942721 0.0017369254 -0.012368962 0.094189174 -0.058771666 -0.031975225
0.04920717 0.012609866 0.06549377 0.006275246 0.044343464 0.07247007 0.02151889 0.008606507
0.08759639 0.10695615 0.0034908187 -0.10157677 -0.010194694 0.113369465 0.12399212 -0.013742712
0.10251923 0.019727413 0.009018291 -0.010789837 0.0030367442 0.009135652 0.02951971 -0.081849866
0.033012435 -0.05435797 -0.09662207 -0.08428485 -0.03662909 0.056526937 0.028265454 0.0758263
-0.037755717 -0.07106064 -0.035505466 -0.07018665 0.026205402 0.08193616 0.04673274 -0.10466996
0.09966709 0.14222682 -0.026383024 -0.07312283 0.050334826 0.061325457 0.0062484206 -0.027679492
0.03784956 -0.10368502 -0.035829116 0.026654158 0.018757781 0.10226438 0.09932741 0.046400417
0.08040209 0.11938724 -0.03847286 0.09396798 0.11091399 -0.017821092 0.121089004 -0.026828855
-0.023843028 0.12907313 0.047947984 0.025974281 -0.06664475 0.110526636 0.060499843 -0.005827788
0.0104181655 0.13274756 0.07455363 -0.072564304 0.03215699 -0.012392997 0.16334601 0.08736486
-0.014112484 0.0011971997 -0.049051598 -0.032686178 0.021412592 -0.1077269 0.009019822 0.13458775
0.05085438 -0.0037513257 -0.038961504 0.0031341047 -0.08026849 -0.08872091 0.052354712 0.04286336
0.07247144 -0.055422094 0.05517836 -0.042906135 -0.09645005 -0.040445965 -0.09866921 -0.035803333
-0.013007122 0.08424787 0.08730599 0.021607244 0.07265704 0.03773516 -0.12508146 -0.062597506
-0.06867972 -0.041380055 0.016612371 0.053424682 0.0958914 -0.076279305 0.008946823 0.08181857
0.012370414 -0.12487058 -0.04701912 0.055526372 0.045062445 0.12230016 0.10320883 -0.08539072
0.08728732 -0.13379858 -0.043291066 0.05873564 0.00097578514 0.10201952 0.09786315 -0.07213078
0.14025876 -0.093778744 0.03780261 0.022334807 0.10407563 0.14164194 -0.0089019025 -0.03986936
0.14084332 0.120193765 0.019160775 0.13454661 0.021075554 0.02117098 0.040813588 0.038156774
0.004533285 0.07585852 0.025348721 -0.04373452 -0.107463785 0.07754524 -0.033376418 0.047203798
0.1321659 0.10909152 0.06461158 0.094693765 0.12943412 -0.027928162 0.1475132 -0.08126201
-0.094321616 -0.009547915 0.15573429 0.10352938 0.06616349 0.102786586 -0.07811007 -0.086400695
0.052401364 -0.06395155 0.08872092 -0.09516279 0.12548117 -0.06546541 0.05454664 0.11878669
-0.02413695 0.14761287 0.10583204 -0.04180486 -0.030717967 0.12754118 -0.00768532 0.0398426
0.099979244 0.1001679 -0.07217813 0.13480234 0.07139503 0.0768672 -0.01639693 0.10461146
-0.007978365 0.13466021 0.08975044 0.06904879 0.020703599 0.115602806 0.14963955 0.054996718
00000000: 173d 97bd 4aad 113e c497 91bd 5ed7 17bc
00000010: 4b06 a2bc e0c7 ee3c d503 76bc c624 023e
00000020: 2b74 053e a246 58bd e22b bcbd 3fc5 aebd
00000030: 1633 b63d ac84 6f3c db18 4dbd 2e4c 2fbd
00000040: 187e 043d d012 353d d723 863d 9a81 fe3d
00000050: 1f42 173e 409f 01bd 420d 8c3c 4489 85bd
00000060: dc0e 7abd 5f47 0b3d 4df3 c03d ae7c f6bc
00000070: 61f7 2bbd c5ae 26bc 99db b63d 80d4 ed3c
00000080: ea11 e03d b86a 12be dcc6 893d c9d5 b63d
00000090: 20eb a93d ffa0 87bd 3e25 bbbd 937d 3b3d
000000a0: 67d9 133d 04c3 ce3d 02c6 0e3e 8ca9 e33a
000000b0: 30a7 4abc 41e6 c03d 8fba 70bd 74f8 02bd
000000c0: 758d 493d 9d99 4e3c 9921 863d 94a0 cd3b
000000d0: 7ea1 353d 306b 943d 6248 b03c 4f02 0d3c
000000e0: bc65 b33d d30b db3d 38c6 643b 7b07 d0bd
000000f0: a507 27bc 402e e83d 95ef fd3d 1d29 61bc
00000100: 9af5 d13d 629b a13c 74c1 133c dbc7 30bc
00000110: 1d04 473b b4ad 153c 52d3 f13c e7a0 a7bd
00000120: 0c38 073d 76a6 5ebd cbe1 c5bd 899d acbd
00000130: 6208 16bd ca88 673d f48c e73c d24a 9b3d
00000140: bda5 1abd 3e88 91bd 2e6e 11bd 05be 8fbd
00000150: b6ac d63c 25ce a73d d46a 3f3d 345d d6bd
00000160: 421e cc3d e8a3 113e 3621 d8bc 6cc1 95bd
00000170: e42b 4e3d 6730 7b3d 8dbf cc3b 1ac0 e2bc
00000180: 2408 1b3d d058 d4bd 8dc1 12bd d259 da3c
00000190: eba9 993c fd6f d13d 2b6c cb3d 5d0e 3e3d
000001a0: daa9 a43d 4c81 f43d b895 1dbd 4972 c03d
000001b0: e026 e33d 8afd 91bc 83fd f73d 30c8 dbbc
000001c0: 7452 c3bc bf2b 043e 1b65 443d 04c8 d43c
000001d0: 0b7d 88bd ca5b e23d afce 773d 07f7 bebb
000001e0: f4b0 2a3c faee 073e 93af 983d 989c 94bd
000001f0: 0cb7 033d ff0b 4bbc 2d44 273e 59ec b23d
00000200: 0c38 67bc 5beb 9c3a 54ea 48bd f1e1 05bd
00000210: 7669 af3c ec9f dcbd e0c7 133c 5fd1 093e
00000220: af4c 503d cdd8 75bb 1996 1fbd 8d65 4d3b
00000230: ce63 a4bd 4fb3 b5bd e571 563d 7e91 2f3d
00000240: e86b 943d 4702 63bd b402 623d 58be 2fbd
00000250: 9b87 c5bd abaa 25bd 1513 cabd 84a6 12bd
00000260: d31b 55bc 268a ac3d 7ccd b23d ad01 b13c
00000270: 37cd 943d 2f90 1a3d 5b15 00be 1f33 80bd
00000280: f4a7 8cbd 227e 29bd ab16 883c d7d3 5a3d
00000290: b662 c43d 5338 9cbd b295 123c 7f90 a73d
000002a0: 47ad 4a3c 26bc ffbd 1f97 40bd 9f6f 633d
000002b0: 6693 383d 8278 fa3d 275f d33d 54e1 aebd
000002c0: b2c3 b23d 7f02 09be f951 31bd c894 703d
000002d0: d5cb 7f3a 9cef d03d 7a6c c83d 4db9 93bd
000002e0: fe9f 0f3e 120f c0bd e9d6 1a3d 7cf7 b63c
000002f0: 9b25 d53d 960a 113e 49d9 11bc 0e4e 23bd
00000300: 3b39 103e 2628 f63d 0ff7 9c3c 96c6 093e
00000310: a4a6 ac3c c36e ad3c 262c 273d 474a 1c3d
00000320: f38b 943b b65b 9b3d 1fa8 cf3c f822 33bd
00000330: f915 dcbd 0ad0 9e3d b6b5 08bd c558 413d
00000340: 7f56 073e 606b df3d 1353 843d ceee c13d
00000350: 618a 043e 9ac9 e4bc b30d 173e b26c a6bd
00000360: b12b c1bd dc6e 1cbc cf78 1f3e 3607 d43d
00000370: b980 873d c681 d23d 2cf8 9fbd d9f2 b0bd
00000380: d0a2 563d 08f9 82bd 50b3 b53d b5e4 c2bd
00000390: 237e 003e bb12 86bd 4c6c 5f3d 7046 f33d
000003a0: daba c5bc d427 173e 78be d83d 933b 2bbd
000003b0: 3fa4 fbbc 289a 023e 23d5 fbbb fe31 233d
000003c0: ebc1 cc3d d424 cd3d 21d2 93bd a009 0a3e
000003d0: 8f37 923d 8d6c 9d3d db52 86bc 883e d63d
000003e0: b0b7 02bc 5ee4 093e 14cf b73d 7469 8d3d
000003f0: 989a a93c 2ac1 ec3d 1c3b 193e 3d44 613d

fc1.weight f4 [32, 64]
-0.03361654 -0.056484655 -0.023229433 0.04237697 -0.06633587 -0.08029467 0.050225556 -0.037911218
-0.07019248 0.021228269 0.03470518 -0.08590456 0.03248524 -0.122931704 0.08183513 0.098897085
0.06227538 0.10368983 0.007565484 -0.016990453 0.008727537 0.07002216 -0.07928407 -0.10246262
-0.05001082 0.078012146 0.08076983 -0.032804303 0.13291608 -0.13944533 -0.04369848 0.05575262
-0.11047713 0.1179347 -0.1041014 0.0850027 0.047131926 -0.047582336 0.116335504 -0.04375667
-0.0051414566 0.09502012 -0.118659966 0.121647336 -0.0335038 -0.07756382 0.0897733 -0.06076318
-0.075743034 -0.085179895 0.07773091 0.07895666 -0.048394423 0.039266877 0.061963007 -0.053105015
0.03584808 0.062112454 0.013783224 -0.031043204 0.15351412 -0.010924485 0.16807404 0.15678692
0.114643574 0.019479718 0.020334762 0.04582278 -0.12855366 -0.035470054 -0.055715073 -0.032020424
-0.0761181 -0.027798478 -0.071276 -0.1044789 0.062375907 0.13562553 -0.06462991 -0.096148446
-0.05578324 -0.033453904 -0.13570966 0.09606993 0.09842623 0.07928049 -0.05097537 -0.068483606
0.13268144 -0.08916054 -0.11865254 -0.117801934 0.024464425 -0.0028662838 -0.062670134 0.09294171
-0.055606943 -0.0052999384 0.07588391 0.074705504 0.09082611 -0.029567119 0.05019038 0.003681868
0.03015039 -0.059749402 0.06197357 0.0146375215 0.011419646 -0.02316707 0.036939286 -0.10711845
0.088409156 0.11159801 0.08111914 -0.018082049 -0.10292712 -0.020147089 -0.113976575 -0.0741458
0.083973594 -0.0008241757 0.11086384 -0.052603334 -0.071698666 -0.11368134 0.034431554 0.032633346
0.009429762 0.15948723 0.10629006 -0.16836819 0.049132768 0.061703708 0.048312407 0.10040118
-0.005270514 -0.08328791 0.07141076 0.013425044 0.04413635 -0.08320936 -0.001625492 0.09967895
0.16507787 -0.07803586 0.0717101 0.09513599 -0.0728305 0.08173693 -0.007688271 0.11377296
-0.038546123 0.14939691 0.041314434 0.100371405 -0.051351063 0.04964534 0.051245753 0.08362529
-0.049463365 0.0046028653 -0.14350888 -0.05849726 0.12926519 -0.07568596 0.008850189 -0.13182868
-0.16854867 -0.101491764 0.027676903 -0.053422954 -0.045391418 -0.049415518 0.04533501 -0.08256991
0.14346296 -0.17139103 -0.14847028 0.013151145 0.079249 0.061731704 0.030517474 -0.0038708055
0.058329087 -0.0470514 0.061100177 -0.04968084 0.048216324 0.0757125 0.10765011 -0.045564372
-0.07857969 0.11645561 0.11184389 0.010515606 0.0078951055 -0.018045038 -0.084386654 0.15987004
0.12540042 -0.09346119 0.012826054 0.17817242 0.015612642 -0.15307067 0.12732032 0.06469617
0.015803425 0.0075926348 0.107309006 0.10769051 -0.15115935 0.111885205 -0.12885949 -0.11279501
-0.041879762 0.119527616 0.15078549 0.08738302 0.13154311 -0.15050806 -0.117667496 -0.018259825
-0.15478377 -0.101593584 -0.1382986 -0.0718439 0.052449733 -0.021122307 0.034207407 -0.07725887
-0.046881784 -0.1643274 -0.076693036 -0.06349749 0.14244314 0.055902027 -0.058262922 -0.09889161
0.0503646 -0.13463195 0.06904103 0.14151272 -0.019726114 -0.07468503 0.12500228 0.04937321
0.05120228 -0.038929798 -0.05545083 0.047565468 0.10353952 0.12986836 0.06257598 0.1332614
00000000: 7fb1 09bd 745c 67bd a74b bebc 7993 2d3d
00000010: 1adb 87bd 8871 a4bd 50b9 4d3d cb48 1bbd
00000020: 13c1 8fbd e8e6 ad3c 0527 0e3d bbee afbd
00000030: 3e0f 053d 9ec3 fbbd 2d99 a73d 8e8a ca3d
00000040: 7814 7f3d 555b d43d e1e7 f73b 902f 8bbc
00000050: f1fd 0e3c c767 8f3d b05f a2bd ecd7 d1bd
00000060: 25d8 4cbd d5c4 9f3d a76a a53d ce5d 06bd
00000070: 271b 083e c2ca 0ebe 2dfd 32bd dc5c 643d
00000080: d541 e2bd bf87 f13d 1d33 d5bd e515 ae3d
00000090: 680d 413d b2e5 42bd 4f41 ee3d 323a 33bd
000000a0: aa79 a8bb e999 c23d ff03 f3bd 3d22 f93d
000000b0: 483b 09bd c8d9 9ebd 10db b73d d0e2 78bd
000000c0: 2a1f 9bbd cc72 aebd 6231 9f3d 08b4 a13d
000000d0: 3b39 46bd 4ed6 203d eccc 7d3d a584 59bd
000000e0: 70d5 123d a169 7e3d 08d3 613c 514e febc
000000f0: ce32 1d3e 9cfc 32bc 9a1b 2c3e c08c 203e
00000100: 40ca ea3d ee93 9f3c 1695 a63c abb0 3b3d
00000110: 92a3 03be 0c49 11bd 7d35 64bd d927 03bd
00000120: cee3 9bbd a2b9 e3bc 27f9 91bd 09f9 d5bd
00000130: e17d 7f3d 6be1 0a3e b05c 84bd 7ae9 c4bd
00000140: f77c 64bd f606 09bd 79f7 0abe 50c0 c43d
00000150: b193 c93d cf5d a23d 8dcb 50bd 2241 8cbd
00000160: a5dd 073e cd99 b6bd 1a00 f3bd 2442 f1bd
00000170: 9e69 c83c 43d8 3bbb 3359 80bd 3958 be3d
00000180: 1bc4 63bd 1bab adbb 0669 9b3d 33ff 983d
00000190: 0a03 ba3d be36 f2bc 6e94 4d3d 7f4b 713b
000001a0: f3fd f63c cabb 74bd 00d8 7d3d 37d2 6f3c
000001b0: 7819 3b3c dec8 bdbc a64d 173d eb60 dbbd
000001c0: dc0f b53d 7f8d e43d cb21 a63d ce20 94bc
000001d0: 74cb d2bd 820b a5bc 8d6c e9bd c1d9 97bd
000001e0: 59fa ab3d 7f0d 58ba 950c e33d 9876 57bd
000001f0: c0d6 92bd c3d1 e8bd 1a08 0d3d 8baa 053d
00000200: 4a7f 1a3c 9f50 233e 9aae d93d b668 2cbe
00000210: 713f 493d 07bd 7c3d 3be3 453d 229f cd3d
00000220: 47b4 acbb da92 aabd ce3f 923d b7f4 5b3c
00000230: 51c8 343d ab69 aabd 760e d5ba 7a24 cc3d
00000240: 2c0a 293e 44d1 9fbd bfdc 923d a8d6 c23d
00000250: 2828 95bd b165 a73d e4ed fbbb cc01 e93d
00000260: 8ae2 1dbd 81fb 183e 5339 293d 868f cd3d
00000270: 7e55 52bd e958 4b3d 11e7 513d bc43 ab3d
00000280: 199a 4abd a2d3 963b fef3 12be d39a 6fbd
00000290: 185e 043e 3e01 9bbd 6200 113c 19fe 06be
000002a0: 0698 2cbe eada cfbd acba e23c 07d2 5abd
000002b0: 5aec 39bd ed67 4abd 34b1 393d 6a1a a9bd
000002c0: f4e7 123e 2181 2fbe 9808 18be e677 573c
000002d0: 4d4d a23d 62da 7c3d c8ff f93c 57ad 7dbb
000002e0: 7bea 6e3d f8b8 40bd 2e44 7a3d 237e 4bbd
000002f0: 7b7e 453d 280f 9b3d a977 dc3d b5a1 3abd
00000300: 63ee a0bd 4780 ee3d 690e e53d a649 2c3c
00000310: 795a 013c 30d3 93bc e9d2 acbd f9b4 233e
00000320: f868 003e 9568 bfbd 5f24 523c d572 363e
00000330: 2bcc 7f3c 8fbe 1cbe 4260 023e 6d7f 843d
00000340: 2f76 813c a3cb f83b d3c4 db3d d88c dc3d
00000350: 84c9 1abe 1224 e53d bef3 03be 1201 e7bd
00000360: 1d8a 2bbd e5ca f43d 8367 1a3e def5 b23d
00000370: 3db3 063e c91e 1abe a8fb f0bd a195 95bc
00000380: a37f 1ebe 4c10 d0bd 269e 0dbe e522 93bd
00000390: 88d5 563d b008 adbc 111d 0c3d e639 9ebd
000003a0: 1d07 40bd 7145 28be 3d11 9dbd f90a 82bd
000003b0: 9ddc 113e 86f9 643d 1aa5 6ebd af87 cabd
000003c0: 1c4b 4e3d f5dc 09be 6265 8d3d b6e8 103e
000003d0: a998 a1bc 77f4 98bd 9900 003e 903b 4a3d
000003e0: 7bb9 513d da74 1fbd 6920 63bd 02d4 423d
000003f0: 870c d43d 36fc 043e d627 803d ad75 083e

fc1.bias f4 [32]
0.10948164 -0.10867424 0.102663726 0.09014282 0.038996592 -0.04940095 -0.06510495 0.004663353
-0.04245869 0.09295271 -0.09675159 0.09406396 -0.05070936 0.059435245 0.05924499 -0.019065097
0.007838763 -0.09327182 0.06314992 0.08346127 -0.09336305 0.07424801 -0.12499935 0.10281625
-0.056903437 -0.1187429 0.09645293 0.08817209 0.042991184 0.07385295 -0.069140196 0.11258138
00000000: e937 e03d 9a90 debd 5c41 d23d cc9c b83d
00000010: e4ba 1f3d a758 4abd be55 85bd 0acf 983b
00000020: 2ae9 2dbd fe5d be3d b325 c6bd 9ba4 c03d
00000030: 9eb4 4fbd 5f72 733d e0aa 723d 682e 9cbc
00000040: 286e 003c 4c05 bfbd bf54 813d beed aa3d
00000050: 2035 bfbd 570f 983d a9ff ffbd 5391 d23d
00000060: 9413 69bd 7a2f f3bd 1d89 c53d 9293 b43d
00000070: 8617 303d 3740 973d 6099 8dbd 1191 e63d

fc2.weight f4 [32, 32]
-0.15981285 -0.048573464 -0.09289878 -0.10620219 0.1301185 0.13160858 0.090859964 0.021499189
-0.10890434 -0.06603592 -0.08830126 0.0014784491 0.112751424 0.17131633 0.2589973 -0.1452285
0.1550712 -0.16892372 -0.0070411023 -0.0021820662 -0.031443298 -0.084228404 -0.07624017 0.23801747
-0.11267854 0.0348572 0.03391684 0.10842741 -0.02637355 0.12436372 -0.17299823 -0.12655094
-0.15362328 -0.0050913244 -0.10932399 0.117985114 -0.084038325 0.015028745 0.14944805 -0.17422083
0.0729215 -0.15058148 0.08566289 -0.046321556 -0.15168107 0.029130027 0.012908086 0.0614987
0.10600285 -0.018248767 -0.08197899 0.17276917 -0.054591104 0.15124719 0.11787991 -0.17336941
-0.05119112 0.01141946 -0.14166424 0.030218735 -0.07307001 -0.09071818 0.13157605 0.07600249
0.16117637 -0.03616208 -0.06750224 -0.13062432 0.006521047 0.13869683 -0.019348294 0.028599486
0.11299901 0.0023051912 0.025107577 0.15710998 0.19784844 0.17132948 -0.02722537 0.030020311
0.14425354 0.15672801 -0.1694141 0.11607509 -0.08167737 -0.10608669 -0.099570386 0.029374478
-0.027642518 -0.0031706244 -0.09521521 0.09654473 -0.118565045 0.14245151 -0.15953003 0.04114227
-0.13723095 -0.09830432 0.013788451 -0.061204914 -0.11860098 -0.016510382 -0.1274232 -0.10513582
0.10448228 -0.017452212 -0.049921513 0.13206461 0.015384104 0.12784465 0.07319617 0.014513731
-0.06514057 -0.10015245 0.13352992 0.025152674 0.15070947 0.07782124 -0.020651486 -0.16289856
0.07129051 -0.048777774 0.007340088 -0.09360362 0.111006364 0.1415715 -0.10484144 -0.0695321
-0.1315948 0.085569814 -0.12808697 -0.13669059 -0.12922713 -0.1425761 0.13655888 -0.07611259
0.10927726 -0.048919976 -0.05334457 -0.048424512 -0.14339468 0.050737366 -0.07110449 0.052915826
-0.15062538 0.027651027 0.14357899 -0.054338604 0.03768231 -0.17452095 -0.07220368 0.14641885
0.07011913 0.064768195 0.07672043 -0.036094964 -0.07503715 0.16636257 -0.064823836 -0.014098242
-0.13397355 0.13550521 -0.057753257 -0.06590717 -0.10995181 0.041146114 -0.13688001 0.13847607
0.12995861 -0.13453801 -0.1622029 0.032379463 -0.10511114 -0.18904845 0.09717169 -0.044455275
0.022776114 0.01890634 -0.12400019 -0.10052386 0.06145847 -0.15608607 -0.024276927 -0.029372701
-0.09801248 0.17471905 -0.15665284 -0.15152945 -0.12780237 0.100247905 -0.15047958 0.107310936
0.16130368 0.16591425 0.15472147 0.018677391 -0.092006296 0.043291584 0.072783306 0.092200406
-0.15492061 0.12327857 -0.007565558 0.22693922 0.010764201 -0.04776387 0.2735096 -0.17301561
-0.014620428 0.15172835 -0.06053601 0.20470016 0.10828538 -0.030731494 -0.03554623 0.19537985
-0.0358731 0.07306047 -0.06619184 -0.107525714 -0.121413775 -0.18563792 -0.053822704 -0.09080092
0.0465985 0.0015351325 -0.1267747 -0.14056759 -0.03144095 0.06372489 0.010401204 0.12620804
-0.094932675 -0.08952831 -0.037282813 0.08104262 -0.13200971 0.09172026 0.23176883 -0.17467105
0.08376087 -0.008575743 0.064557925 -0.1008728 0.1113971 -0.11217717 -0.076905586 0.18088315
-0.03807497 0.12320714 -0.034028836 -0.14725225 -0.15623882 -0.0007987707 -0.13775697 0.14879349
00000000: fba5 23be f8f4 46bd b741 bebd 8980 d9bd
00000010: c93d 053e 66c4 063e ca14 ba3d 111f b03c
00000020: 3d09 dfbd d73d 87bd 4ad7 b4bd 85c8 c13a
00000030: 38ea e63d 8c6d 2f3e 4b9b 843e c8b6 14be
00000040: fcca 1e3e 57fa 2cbe 0cb9 e6bb ff00 0fbb
00000050: b0ca 00bd f17f acbd ce23 9cbd daba 733e
00000060: 02c4 e6bd 6cc6 0e3d 62ec 0a3d 310f de3d
00000070: 580d d8bc 68b2 fe3d 7326 31be 9296 01be
00000080: 6c4f 1dbe 20d5 a6bb 42e5 dfbd 2ea2 f13d
00000090: 491c acbd 203b 763c e908 193e f266 32be
000000a0: de57 953d 0832 1abe 0670 af3d acbb 3dbd
000000b0: 4852 1bbe 18a2 ee3c 707c 533c 10e6 7b3d
000000c0: 0618 d93d 707e 95bc 9ae4 a7bd 67ea 303e
000000d0: ec9a 5fbd 8be0 1a3e 066b f13d c087 31be
000000e0: c8ad 51bd b018 3b3c 6e10 11be 488d f73c
000000f0: bba5 95bd 74ca b9bd dfbb 063e 32a7 9b3d
00000100: 6b0b 253e b01e 14bd 9d3e 8abd 62c2 05be
00000110: 82ae d53b 8b06 0e3e 5080 9ebc 7849 ea3c
00000120: 066c e73d b112 173b 68ae cd3c 70e1 203e
00000130: c898 4a3e ff70 2f3e bd07 dfbc 28ed f53c
00000140: 33b7 133e 4f7d 203e e47a 2dbe c7b8 ed3d
00000150: 7746 a7bd fb43 d9bd 8feb cbbd bfa2 f03c
00000160: 9072 e2bc 40ca 4fbb 3100 c3bd 3eb9 c53d
00000170: 3bd2 f2bd cfde 113e d75b 23be cc84 283d
00000180: 4586 0cbe c653 c9bd f5e8 613c 01b2 7abd
00000190: 12e5 f2bd c840 87bc 3a7b 02be 7351 d7bd
000001a0: cefa d53d f1f7 8ebc 807a 4cbd f23b 073e
000001b0: 9c0d 7c3c b5e9 023e e0e7 953d 00cb 6d3c
000001c0: 6b68 85bd ba1c cdbd 11bc 083e fb0c ce3c
000001d0: 9553 1a3e be60 9f3d 4e2d a9bc e1ce 26be
000001e0: c200 923d 34cb 47bd 1f85 f03b 41b3 bfbd
000001f0: 4e57 e33d 1ff8 103e 1cb7 d6bd d866 8ebd
00000200: cac0 06be 3a3f af3d 3b29 03be 9ef8 0bbe
00000210: 1e54 04be 78ff 11be 17d6 0b3e ebe0 9bbd
00000220: c2cc df3d 5060 48bd d67f 5abd c858 46bd
00000230: 0ed6 12be fcd1 4f3d 3b9f 91bd 44be 583d
00000240: 8a3d 1abe 6884 e23c 5f06 133e 2892 5ebd
00000250: c458 1a3d 9fb5 32be 86df 93bd d3ee 153e
00000260: 9e9a 8f3d 30a5 843d 9a1f 9d3d 50d8 13bd
00000270: 14ad 99bd f35a 2a3e 5cc2 84bd 50fc 66bc
00000280: 5d30 09be e1c1 0a3e ae8e 6cbd 57fa 86bd
00000290: 6a2e e1bd d488 283d 462a 0cbe accc 0d3e
000002a0: df13 053e 55c4 09be 8418 26be 54a0 043d
000002b0: 8244 d7bd eb95 41be f301 c73d bc16 36bd
000002c0: f994 ba3c 78e1 9a3c d0f3 fdbd 74df cdbd
000002d0: e0bb 7b3d 07d5 1fbe 68e0 c6bc 059f f0bc
000002e0: c4ba c8bd 8de9 323e 9a69 20be 892a 1bbe
000002f0: a0de 02be c64e cd3d 5217 1abe d6c5 db3d
00000300: cb2c 253e 6de5 293e 4e6f 1e3e 5401 993c
00000310: cc6d bcbd 8452 313d 6a0f 953d 91d3 bc3d
00000320: 82a3 1ebe 7a79 fc3d 80e8 f7bb c162 683e
00000330: 555c 303c 0ca4 43bd 7309 8c3e 012b 31be
00000340: 858a 6fbc ad5e 1b3e 9bf4 77bd eb9c 513e
00000350: bac4 dd3d 9dc0 fbbc ec98 11bd a811 483e
00000360: acef 12bd baa0 953d 968f 87bd 7136 dcbd
00000370: c9a7 f8bd de17 3ebe 3275 5cbd d5f5 b9bd
00000380: 12de 3e3d 8036 c93a 3ad1 01be f3f0 0fbe
00000390: 3ac8 00bd 3282 823d d069 2a3c ae3c 013e
000003a0: 106c c2bd 9e5a b7bd ddb5 18bd acf9 a53d
000003b0: 8e2d 07be d5d7 bb3d cf54 6d3e f8dc 32be
000003c0: d28a ab3d 4681 0cbc f236 843d 6696 cebd
000003d0: 2a24 e43d 25bd e5bd ad80 9dbd 6f39 393e
000003e0: 80f4 1bbd 0654 fc3d d261 0bbd 4bc9 16be
000003f0: 12fd 1fbe 9864 51ba 2a10 0dbe 525d 183e

fc2.bias f4 [32]
0.07711688 -0.047075495 0.0030748951 -0.092853956 -0.057841532 -0.050488885 -0.0092632 0.0102639
0.055681206 0.10356103 0.16255987 0.0148234265 -0.14668494 0.054184653 0.117825165 -0.15713036
-0.012287486 0.091215 -0.1265182 0.12563545 -0.1193197 0.052784286 0.048563533 0.03380885
-0.121858485 0.044415295 -0.12672535 -0.08898972 0.05763507 -0.14235365 0.14439458 0.064271025
00000000: 74ef 9d3d 3cd2 40bd 2e84 493b 372a bebd
00000010: 3eeb 6cbd 6fcd 4ebd adc4 17bc eb29 283c
00000020: fa11 643d ce17 d43d 1876 263e f5dd 723c
00000030: 9434 16be baf0 5d3d 524e f13d c8e6 20be
00000040: 7451 49bc eece ba3d fd8d 01be 94a6 003e
00000050: e35d f4bd 5634 583d 8eea 463d 267b 0a3d
00000060: f190 f9bd d0ec 353d 4ac4 01be 3e40 b6bd
00000070: c012 6c3d 28c5 11be 2cdc 133e 87a0 833d

fc3.weight f4 [1, 32]
0.156651 -0.100499265 0.037246946 0.114959836 0.0653619 -0.029929843 0.24868791 0.17542878
0.02920128 -0.111235514 -0.16031976 0.1538476 -0.007881277 -0.08066943 -0.052574262 -0.093005195
0.06448192 0.03012822 0.026004668 -0.07796016 0.04944908 0.13839439 0.11876466 0.1276693
0.05439563 0.061005134 -0.057165645 -0.123119324 0.098622024 0.0056830654 -0.055760454 -0.00086582685
00000000: 1f69 203e 8fd2 cdbd 4190 183d 1070 eb3d
00000010: 76dc 853d 6e2f f5bc 0ba8 7e3e 9aa3 333e
00000020: 8637 ef3c 72cf e3bd dd2a 24be 3a8a 1d3e
00000030: 7920 01bc 0436 a5bd 1c58 57bd 8279 bebd
00000040: 190f 843d 75cf f63c be07 d53c 94a9 9fbd
00000050: 1e8b 4a3d 42b7 0d3e e33a f33d bebb 023e
00000060: f4cd 5e3d 85e0 793d 8626 6abd fc25 fcbd
00000070: 58fa c93d 0239 ba3b 1365 64bd a8f8 62ba

exp_avg f4 [256, 1]
-4.4878107e-07 -8.5084525e-07 1.1232227e-05 4.6953664e-07 1.6280651e-06 3.1651884e-06 2.3938317e-06 -8.2812926e-07
-1.3676872e-06 1.8592e-05 -2.4642998e-06 2.4696105e-06 -9.4910064e-07 -1.8308338e-06 5.3878857e-06 2.485342e-06
1.3752459e-06 -5.2001424e-06 1.8836397e-06 4.969534e-06 -5.3295125e-06 1.9076801e-06 -5.4351144e-06 6.9836033e-06
-4.3531293e-07 -6.864776e-06 -1.7357524e-06 -1.7062168e-06 4.4624517e-07 2.1154335e-07 1.3719848e-06 -3.5936637e-07
4.747824e-06 9.694564e-08 -2.336893e-06 3.6717402e-06 9.907815e-07 9.765106e-06 5.529447e-07 9.966898e-07
-1.1439797e-06 -4.1729472e-06 9.627841e-06 5.799746e-07 -6.0146385e-07 -9.199798e-07 -6.7827254e-06 -2.0892564e-06
5.6765225e-07 -3.5434032e-06 2.7499282e-06 -5.7965194e-06 3.984036e-06 -5.79334e-07 -4.3471937e-06 1.6279042e-05
2.2702682e-07 -5.5870055e-06 -1.7010257e-07 7.1311575e-08 -2.0508357e-06 -1.3172878e-06 1.891789e-05 6.0416405e-06
-1.5761589e-06 -1.6479679e-06 5.102425e-06 -3.7788948e-07 -2.2030406e-07 1.294698e-06 9.589726e-07 -1.9550719e-06
-1.6108031e-06 9.146168e-06 -3.4521909e-06 1.4944658e-07 -6.9341536e-07 -2.6552596e-06 3.0578287e-06 1.5603719e-06
-5.5485907e-07 -3.8516046e-06 9.107177e-07 2.3739833e-06 -4.715138e-06 1.5744729e-07 -4.2810843e-06 2.744384e-06
4.4295888e-08 -5.6251592e-06 -1.4674016e-06 -7.640547e-07 -7.872535e-07 4.679082e-07 4.846361e-07 -1.1364695e-06
2.0989403e-06 -1.886755e-07 -1.1813272e-06 1.0249323e-06 1.8400763e-07 4.1889098e-06 2.799976e-07 -2.8553382e-07
-2.5107418e-06 -6.4747305e-06 3.3285153e-06 -8.6231637e-07 -1.3698683e-06 -1.6066625e-06 -4.999707e-06 -2.0543944e-06
-5.656889e-07 -2.809068e-06 1.1983266e-06 -5.5436412e-06 3.6673473e-06 -1.2220016e-06 -3.929481e-06 6.0759976e-06
-2.9104763e-07 -4.563358e-06 -9.997103e-07 -7.403294e-08 -2.0553398e-06 -1.7337275e-06 4.876792e-06 3.3484014e-06
7.9085796e-05 -5.123297e-05 9.5056865e-05 9.119416e-05 -0.000106047664 9.7636424e-05 -2.5648695e-05 -4.6801077e-05
-0.0001615138 -0.0002496639 6.789321e-05 -5.6501634e-05 9.27873e-06 3.8810977e-05 3.0597315e-05 -0.00014281026
-2.4313647e-05 7.435704e-05 4.040696e-05 5.1210336e-05 0.00014383552 -0.00022411387 4.6052715e-05 -7.010927e-05
1.8118886e-05 -0.00012793193 -1.8691026e-05 -9.628266e-05 5.111177e-06 0.00013827924 0.0001048664 -9.14485e-05
6.309836e-05 -1.525869e-06 0.00013482865 -4.3887616e-05 -6.557411e-08 -0.00017435322 -4.8296977e-05 0.00018132983
4.6299974e-05 4.4445667e-05 -0.00015562537 -1.1061605e-05 -1.817619e-05 -4.0223527e-05 -8.8085246e-05 1.8455503e-05
-8.1274724e-05 6.750283e-05 1.0069646e-05 -6.6011795e-05 0.00013494826 0.00011673737 -6.18339e-05 -0.00017119494
-9.893796e-06 0.00012768565 -1.8337152e-05 -4.9065898e-06 -9.963505e-05 -4.4124125e-05 -0.00017083278 -9.93438e-05
1.5419722e-06 5.759489e-08 1.3416745e-05 7.379356e-07 1.1541474e-06 1.5587717e-06 3.622518e-06 1.1387306e-06
2.0103762e-06 1.8382985e-05 4.3046907e-07 4.6678715e-06 -8.8711687e-07 2.694504e-06 7.0627684e-06 5.3242356e-06
5.9361137e-06 -2.022196e-06 2.9532325e-06 5.763676e-06 -1.0819763e-06 3.1551028e-06 -2.5032036e-06 8.1039425e-06
1.3439194e-06 -1.9052131e-06 5.844639e-07 2.973685e-06 1.7831551e-06 7.5073376e-06 3.9696206e-06 2.0793914e-06
4.6350715e-06 8.576251e-08 7.787162e-08 4.266156e-06 3.174256e-06 9.39171e-06 1.1953018e-06 7.250572e-06
2.0978405e-06 2.3284883e-08 9.468227e-06 3.2650687e-06 1.4584361e-07 1.4985227e-06 -5.4078027e-06 8.0340294e-07
5.481641e-06 4.3508408e-07 2.9132682e-06 -1.2264882e-06 4.2279908e-06 4.083754e-07 6.6211624e-07 1.4302133e-05
3.7842062e-07 -1.998866e-06 1.1052418e-06 -2.856828e-08 -3.2654293e-07 1.5665878e-06 1.5799633e-05 4.6440246e-06
00000000: 00f0 f0b4 a465 64b5 0c72 3c37 a014 fc34
00000010: e483 da35 8669 5436 b7a5 2036 9c4c 5eb5
00000020: 6091 b7b5 04f6 9b37 5960 25b6 96bb 2536
00000030: b3c5 7eb5 f8ba f5b5 96c9 b436 dac9 2636
00000040: 1795 b835 e27c aeb6 5ed1 fc35 f9bf a636
00000050: 2ad4 b2b6 b205 0036 475f b6b6 b254 ea36
00000060: f4b4 e9b4 fa57 e6b6 00f8 e8b5 2a01 e5b5
00000070: 7893 ef34 9824 6334 0a25 b835 f0ee c0b4
00000080: 7f4f 9f36 6e30 d033 84d3 1cb6 0468 7636
00000090: fefa 8435 d0d4 2337 126e 1435 00c6 8535
000000a0: d88a 99b5 5805 8cb6 4387 2137 8daf 1b35
000000b0: 4874 21b5 88f4 76b5 2b97 e3b6 2735 0cb6
000000c0: c460 1835 34cb 6db6 688b 3836 b97f c2b6
000000d0: 9cae 8536 8883 1bb5 1cde 91b6 fa8e 8837
000000e0: a8c4 7334 0378 bbb6 70a5 36b4 f423 9933
000000f0: 17a1 09b6 aacd b0b5 dcb1 9e37 4cb9 ca36
00000100: 688c d3b5 bf2f ddb5 7f35 ab36 bce0 cab4
00000110: b88c 6cb4 7cc5 ad35 0cb6 8035 e133 03b6
00000120: c632 d8b5 7e72 1937 30ac 67b6 9077 2034
00000130: 2423 3ab5 0331 32b6 1935 4d36 f86d d135
00000140: a0f1 14b5 083d 81b6 0b78 7435 b950 1f36
00000150: ba36 9eb6 c80e 2934 3ca6 8fb6 282c 3836
00000160: d83f 3e33 c0bf bcb6 89f3 c4b5 7019 4db5
00000170: a653 53b5 d034 fb34 f017 0235 cb88 98b5
00000180: 85db 0c36 ba96 4ab4 188e 9eb5 6890 8935
00000190: a293 4534 768e 8c36 9452 9634 784b 99b4
000001a0: 377e 28b6 8341 d9b6 755f 5f36 ee79 67b5
000001b0: 51dc b7b5 81a4 d7b5 28c3 a7b6 3ade 09b6
000001c0: d8d9 17b5 6c83 3cb6 30d6 a035 8403 bab6
000001d0: 8c1c 7636 a803 a4b5 fcd9 83b6 6ce0 cb36
000001e0: 4841 9cb4 f21e 99b6 c92d 86b5 0afc 9eb3
000001f0: 78ee 09b6 6cb2 e8b5 53a3 a336 19b5 6036
00000200: ddda a538 fce2 56b8 4459 c738 7e3f bf38
00000210: e865 deb8 28c2 cc38 2728 d7b7 464c 44b8
00000220: 085c 29b9 52e5 82b9 e461 8e38 2bfc 6cb8
00000230: d8ab 1b37 f8c8 2238 9e55 0038 56bf 15b9
00000240: 29f5 cbb7 22f0 9b38 a57a 2938 aeca 5638
00000250: 8ed2 1639 1c00 6bb9 ba28 4138 a107 93b8
00000260: 03fe 9737 7725 06b9 acca 9cb7 5ceb c9b8
00000270: ad80 ab36 0dff 1039 b8eb db38 0ac8 bfb8
00000280: ad53 8438 76cc ccb5 ca60 0d39 f813 38b8
00000290: c0d1 8cb3 96d2 36b9 7c92 4ab8 5b23 3e39
000002a0: 3832 4238 2c6b 3a38 5e2f 23b9 3b95 39b7
000002b0: 1279 98b7 afb5 28b8 68ba b8b8 e4d0 9a37
000002c0: 0972 aab8 4e90 8d38 cdf0 2837 d06f 8ab8
000002d0: e680 0d39 e6d0 f438 d3ac 81b8 cb82 33b9
000002e0: 88fd 25b7 5be3 0539 bcd2 99b7 49a3 a4b6
000002f0: 29f3 d0b8 eb11 39b8 9321 33b9 cc56 d0b8
00000300: c3f5 ce35 405e 7733 7b18 6137 8c16 4635
00000310: 34e8 9a35 fd36 d135 631a 7336 7cd6 9835
00000320: 00ea 0636 2935 9a37 381b e734 b6a0 9c36
00000330: 3522 6eb5 3ad3 3436 b8fc ec36 d6a6 b236
00000340: d42e c736 10b5 07b6 2630 4636 9a65 c136
00000350: 6c38 91b5 41bc 5336 b6fc 27b6 2bf6 0737
00000360: b860 b435 a0b6 ffb5 0ee4 1c35 858f 4736
00000370: be54 ef35 8ae7 fb36 c832 8536 ac8b 0b36
00000380: f686 9b36 702c b833 603a a733 0026 8f36
00000390: 4e05 5536 1691 1d37 426e a035 f049 f336
000003a0: a0c8 0c36 0004 c832 bad9 1e37 741d 5b36
000003b0: 3099 1c34 d920 c935 ac74 b5b6 6ea9 5735
000003c0: f0ee b736 8095 e934 9181 4336 d09d a4b5
000003d0: 2ade 8d36 b03e db34 48bc 3135 32f3 6f37
000003e0: bc29 cb34 4224 06b6 d257 9435 5066 f5b2
000003f0: b84f afb4 8c43 d235 7489 8437 ded3 9b36
