checkpoints/StockPrediction_epoch_8.pt (torch, 255962 bytes, 27 tensors)

lstm.weight_ih_l0 f4 [256, 1]
000000 34 d0 a5 3c 0f 6c f0 3c 1a 9e a6 bd 70 61 20 3d
       0.02024088 0.029348401 -0.08135624 0.039155424
000010 59 21 3a bd 1e c3 0b bb b4 07 db bd 21 06 4b bb
       -0.04544196 -0.0021326016 -0.10694829 -0.0030978995
000020 89 4a 3b 3d 55 c1 1c bc f9 ee 33 3d 32 b9 5a bd
       0.04572538 -0.009567578 0.043929074 -0.053399272
000030 c7 dd ba 3d 50 27 80 bd 75 19 91 ba 2e 83 b4 bd
       0.09124332 -0.06257498 -0.0011070209 -0.08814083
000040 0e a4 1a 3d 85 12 2d bd f3 02 a7 bd ff 67 23 bd
       0.03775411 -0.04225399 -0.081548594 -0.0398941
000050 0b e8 00 be d4 2f ae bd 2d b8 ff bd 46 b3 8a 3d
       -0.12588517 -0.08505216 -0.124863006 0.06772475
000060 88 ee 9b bd fa 07 09 be bd 68 e8 bd 82 90 0c be
       -0.076138556 -0.13381949 -0.11348102 -0.13727
000070 18 7a 88 bd b2 90 28 be 6a 06 1e 3d ba 02 2f be
       -0.066639125 -0.16461447 0.038580336 -0.17090884
000080 d9 56 4f 3d d2 6b 5b 3c 74 d3 ca bd d1 b5 d5 3d
       0.050619934 0.013392406 -0.09903613 0.10435069
000090 19 6c 0b bd 82 6b 04 3e f5 1b 99 bc 49 2a e3 bd
       -0.034038637 0.12931636 -0.018690089 -0.1109205
0000a0 84 61 19 bd d4 c6 e0 bd 5f 5e 0a 3e 44 79 52 3d
       -0.037446514 -0.109754235 0.13512562 0.05138518
0000b0 60 8a 24 bc b3 cf 00 be 03 58 e9 3a fa 96 6e bd
       -0.010042757 -0.12579231 0.0017802719 -0.05824945
0000c0 ec fc 6e bc eb da 1c be 45 b6 12 be 9b 33 00 be
       -0.014586668 -0.15317886 -0.14327343 -0.12519686
0000d0 08 7b 17 be b7 dc f7 3c c1 03 03 bd a9 f3 11 3e
       -0.14793026 0.030256612 -0.031986002 0.14253105
0000e0 9c a5 ef bc 1f ec 92 bd 3b 2f 9a 3c 5f 37 d1 bd
       -0.029253773 -0.07173943 0.01882135 -0.10215639
0000f0 a2 95 8f bd 02 4d 2a be f1 76 6f 3e 41 a3 ca bd
       -0.07010962 -0.16630939 0.23385216 -0.098944195
000100 b9 d1 18 bd f5 22 d2 bd 4b 4f 54 3d 81 6e 19 be
       -0.037309382 -0.10260574 0.051833432 -0.1498356
000110 6a 26 aa bd c7 66 d2 bd c8 ac 8c 3d 38 77 10 bd
       -0.08308108 -0.102735095 0.06868893 -0.035269946
000120 26 e4 66 3d da 67 9f bc 04 8f 3d be 41 53 32 be
       0.056369923 -0.0194587 -0.18511587 -0.17414571
000130 a0 fc 9f bd 9e 29 ea bc 6f 18 9f bc 90 01 0c 3d
       -0.07811856 -0.028584298 -0.01942083 0.034181178
000140 50 6a fb bd 09 9d 15 be c2 f6 55 3d ec 8e fb bd
       -0.12276137 -0.14610685 0.05223728 -0.122831196
000150 d5 01 0b 3c 0c ec c8 bd 00 91 c3 ba 72 00 da bd
       0.0084843235 -0.09810647 -0.0014920533 -0.10644616
000160 83 1f 30 bd ba 7b 11 bd 26 9d 58 bd 28 91 c4 bd
       -0.042998802 -0.035518385 -0.052884243 -0.09597999
000170 7c 1e 8b bb 0a 60 42 3d d9 35 28 be 73 29 06 be
       -0.0042455774 0.04745487 -0.16426791 -0.13101749
000180 0e e4 80 3d bd e0 23 bd 69 91 d8 bd 03 d8 c0 bd
       0.06293498 -0.04000925 -0.1057461 -0.09416201
000190 95 25 02 be 40 f4 ec 3d 89 fc 35 bd 83 3a 23 be
       -0.12709649 0.115700245 -0.04443029 -0.15940289
0001a0 8c ec 88 bd 6f 3b 23 be 36 91 b4 3b c0 41 05 be
       -0.06685743 -0.15940641 0.0055104746 -0.13013363
0001b0 9b 79 43 be 1d e5 19 be 07 d1 5b 3d e7 0a 75 bd
       -0.19089358 -0.15028806 0.05366614 -0.05982485
0001c0 48 05 20 bd 4c cd 46 be f5 bb c3 bd 7e 65 eb bd
       -0.039067537 -0.19414252 -0.09557334 -0.114939675
0001d0 dc 9b d6 bc 3d 06 39 be 89 e9 ec bd 6a a7 9f 3d
       -0.026197366 -0.18068786 -0.11567981 0.077956036
0001e0 16 9d 8b bd d4 59 ed bd d1 0b b5 bd 3d 6b b9 bd
       -0.06817071 -0.11589399 -0.088401444 -0.09053657
0001f0 f9 b6 27 be 77 39 1d be 5c a3 58 3e a6 83 18 be
       -0.16378392 -0.15353952 0.21156067 -0.1489397
000200 c0 7d 43 3e 9f d4 cb bd ff ad 87 3d 96 cf ed 3d
       0.19090939 -0.09952664 0.06624984 0.116118595
000210 f1 d0 19 be d2 ca 1a 3e 0c ae 17 3c cb be f5 bd
       -0.15021111 0.15116432 0.009257805 -0.119992815
000220 01 59 37 be c1 2c 2a be ba 1a de 3d 2e 10 d8 bd
       -0.17905046 -0.16618635 0.108449414 -0.10549961
000230 c8 45 44 3d 1c 19 fc bc 67 3e 15 3d 78 ce 29 be
       0.04791811 -0.030773692 0.036436465 -0.16582668
000240 31 b4 a3 bd d5 8d bd 3d 0b 1f 32 3d 8e ac 1c 3d
       -0.07993353 0.09255568 0.043486636 0.0382505
000250 89 20 3f 3e 46 99 36 be 9f 91 cc 3d 2b 86 cb bd
       0.18664755 -0.17831907 0.099887125 -0.099377
000260 ff 52 14 3c 14 35 32 be 81 93 36 3d 01 b4 25 be
       0.009052991 -0.1740306 0.044574264 -0.16181947
000270 c5 6b c9 39 b2 82 f4 3d e4 0f f5 3d 8b 13 13 be
       0.00038418002 0.11938991 0.119659215 -0.14362924
000280 39 c8 25 3e 56 c1 0e 3d be f2 b9 3d dd e3 05 be
       0.1618966 0.03485235 0.090795025 -0.13075204
000290 91 2f 34 bc 38 c0 b7 bd 7b 1f bd bd 43 fc 40 3e
       -0.010997669 -0.0897221 -0.0923452 0.1884623
0002a0 34 38 ce 3d 8d a8 08 b9 dd fe e2 bd 95 33 82 bd
       0.10069314 -0.00013032761 -0.110837676 -0.06357495
0002b0 a2 a0 94 ba 50 66 ce bd a4 38 16 be 1e dd 26 3d
       -0.0011339376 -0.10078108 -0.14670044 0.040738218
0002c0 cf 85 30 be c0 21 f3 3d 02 53 05 3e bf 14 47 be
       -0.17238544 0.11871672 0.13019946 -0.19441508
0002d0 34 7e d3 3d 2a b3 0e 3e 56 e9 60 bd c0 93 e9 bd
       0.10326806 0.13935533 -0.054910026 -0.11405134
0002e0 9f 63 b4 3a f0 f7 10 3e f5 93 d9 bc 3d 9c 05 bd
       0.00137626 0.1415708 -0.02655981 -0.032619704
0002f0 86 3c e9 bd bc 5b 80 bd 6f 3c e8 bd 16 ac f1 bd
       -0.11388497 -0.06267497 -0.11339652 -0.11800401
000300 7e 18 1c 3b f2 96 ed 3c 29 16 89 bd 58 bc d5 bd
       0.002381831 0.02900264 -0.0669368 -0.10436314
000310 37 58 67 bc 5e 2b e0 bc b1 ac 5b bc b1 09 3c bd
       -0.014120153 -0.02736443 -0.013407872 -0.04590768
000320 7a 97 3c be d7 e9 4c 3d 5f d8 1b 3d 27 2f 01 bd
       -0.18417159 0.050027695 0.038048144 -0.03153911
000330 4e 0c ae bb f1 f9 25 be f4 bb 0e be 6e 22 3f be
       -0.0053115254 -0.16208626 -0.13938886 -0.18665478
000340 9c d0 d4 bd e7 bc b5 bc e0 c9 6c 3d 2d 9e 8f bc
       -0.103913516 -0.022184802 0.05780971 -0.017531479
000350 4b f1 3f be 4e 1a 19 be 8c 51 ca bd 77 5b de 3d
       -0.1874439 -0.1495144 -0.09878835 0.10857289
000360 68 28 ec 3c 96 d5 ec bd d8 b4 05 bd 56 2e ef bd
       0.028827861 -0.11564176 -0.03264317 -0.1167876
000370 8a 59 29 be 85 0d 13 3d 97 d2 09 be fe 83 bf bd
       -0.16538063 0.035901565 -0.1345924 -0.093513474
000380 e7 1b 2b be d0 e6 9c 3d 8e 2a 01 3d 77 eb 9a 3d
       -0.16709863 0.076612115 0.031534724 0.075644426
000390 c2 2c 11 be aa d7 91 bd aa 96 09 be df a8 58 3c
       -0.1417723 -0.07121213 -0.1343638 0.013223856
0003a0 ff 74 9b bc 4c 9a bd 3c ce df 2a 3e 6c de 09 bd
       -0.018976687 0.023144864 0.16686937 -0.033659384
0003b0 65 fe b2 bd da 25 2e be 7e 27 39 be 2a 5e 4f be
       -0.08739928 -0.17006627 -0.18081471 -0.20250764
0003c0 2b 80 f8 bc 99 0a 14 be da 2f 34 bd 41 6e 1e be
       -0.030334553 -0.14457168 -0.043990947 -0.15471746
0003d0 d9 79 97 bd 5d ef 25 be 3d 6c 24 be 75 fb 16 3e
       -0.073962875 -0.16204591 -0.16056915 0.1474436
0003e0 41 90 db bd 51 99 f1 3a 18 ae fa bd e3 0d d6 bd
       -0.107208736 0.0018432533 -0.12240237 -0.104518674
0003f0 5b 97 d4 bd db ab 14 be 8d e6 42 3e 64 43 30 be
       -0.10380431 -0.14518683 0.1903326 -0.17213207

lstm.weight_hh_l0 f4 [256, 64]
000000 9d 27 c0 3c f6 55 38 bd ec b2 8b 3d 10 21 05 3c
       0.02345639 -0.045003854 0.06821236 0.0081255585
000010 36 ed 0a 3e b5 07 20 be 83 76 7d 3d 9e 1d 7a bc
       0.13567051 -0.1562794 0.0618806 -0.01526585
000020 cf 9b c3 3d 47 1d 48 3e ee d6 6a bd b9 af 3d 3d
       0.095512025 0.19542418 -0.05733388 0.04631016
000030 e0 00 6f bd 3c 66 10 be 84 a7 b3 3d 69 6f 8f bd
       -0.058350444 -0.141015 0.087721854 -0.07003672
000040 32 c9 f1 3d c3 11 60 3d 94 3f e3 3d 81 a6 71 3a
       0.11805953 0.05470444 0.11096111 0.00092182314
000050 1c c0 1b be 30 2d ac 3d 75 58 ea 3c 37 fa c9 bd
       -0.15210003 0.08407056 0.028606633 -0.09862178
000060 db 47 3c bc d5 fc da bc 80 05 c9 3c 68 7a 5b bc
       -0.011491741 -0.026731888 0.024538755 -0.013395883
000070 e9 55 58 bc a4 1e 87 bd 6b 69 2b be da 4b 1c 3e
       -0.013204076 -0.06597641 -0.16739433 0.1526331
000080 9d 62 51 3d 92 a8 2f bd 2d 64 56 bd 51 69 3b 3c
       0.051119436 -0.04288537 -0.05234163 0.011438684
000090 47 40 b9 bd 2a 63 9d bd 89 39 b5 3d db cc f9 bd
       -0.09045463 -0.0768493 0.088488646 -0.12197276
0000a0 65 4e 00 be 95 b3 3c bd f4 ab 3c 3c cc 3e 9c bb
       -0.12529905 -0.0460697 0.011515606 -0.004768228
0000b0 57 ee 2a 3d 41 e9 95 3c 4f 09 48 ba 55 3d ca bd
       0.041731205 0.0182997 -0.00076307816 -0.098749794
0000c0 dc 80 68 bd a8 9c 75 3d 77 b3 bf bd e1 c0 a0 3d
       -0.056763515 0.059963852 -0.09360402 0.07849289
0000d0 1f 0c b0 bd ca 05 22 bd 5e 4b 1d 3e af db b9 3d
       -0.08596062 -0.039556302 0.15360782 0.090751044
0000e0 1a 30 a0 bd 2d d9 61 3b e5 a7 1f 3e 1f 73 7b 3d
       -0.07821675 0.0034461722 0.1559139 0.061389085
0000f0 25 b2 06 3e 39 5b 2a 3e 32 e9 95 bb ee ba 41 3d
       0.13153894 0.16636361 -0.004574918 0.04729741
000100 b9 00 0a be 67 ea 91 3c 9b 3b cd 3d 93 05 6d 3c
       -0.13476838 0.017811967 0.100211345 0.014466661
000110 fa d3 0d bd dc 21 1f be fe f4 f1 bd 7c 9a 9f bd
       -0.034625985 -0.1554026 -0.11814307 -0.077931374
000120 59 5c 40 bd a6 b8 26 3d f2 02 33 3d f2 f6 8d 3d
       -0.04696307 0.04070344 0.04370398 0.06931867
000130 89 da 01 be 85 bc 0f be 72 a7 c5 3d c9 0c 1e bd
       -0.12681021 -0.14036758 0.09651078 -0.03858641
000140 34 27 d2 3c 42 19 a4 3c 0b 81 58 bd 51 94 7c 3c
       0.02565346 0.020031575 -0.05285744 0.015416221
000150 a8 c0 79 bd d5 fc da 3c c0 46 d9 bd 26 63 cd bd
       -0.060974747 0.026731888 -0.106091976 -0.10028677
000160 6b 1a a3 bd ee 54 91 bc 5b 7c 23 3e c4 28 42 bc
       -0.07964023 -0.017740693 0.15965407 -0.01185054
000170 59 67 2e bd e4 f1 96 3b 52 79 79 bc 9f 7b f3 3d
       -0.04257903 0.0046064723 -0.015226679 0.11888813
000180 b2 c3 2f 3d b3 6d 33 3d 1e 8f 25 be 1b e1 95 3d
       0.04291124 0.04380579 -0.16167876 0.07318326
000190 28 0b c3 3d 6f be f0 3c 49 8a 0b bd a8 b4 85 3d
       0.09523612 0.02938768 -0.034067426 0.06528598
0001a0 a0 49 bf bd 3d a5 e1 bd ee 48 93 bd 9d 33 30 3d
       -0.09340215 -0.11017845 -0.071916446 0.043017972
0001b0 e7 63 c6 3d 27 0b 97 3d b9 9a 8b 3d ba 27 0b be
       0.096870236 0.07375174 0.068166204 -0.13589373
0001c0 60 85 90 bd dc c2 33 bd 8a c1 94 3d 1b 5e f3 3d
       -0.07056689 -0.043887004 0.07263477 0.118831836
0001d0 10 ba df bd ed 03 87 bd 13 0d 7a bd 83 6f 20 bd
       -0.109241605 -0.06592546 -0.061047625 -0.039168846
0001e0 22 49 5a 3d da 98 a6 3c 29 7c 13 3e 4a 8f b1 bd
       0.0532924 0.020336557 0.14402832 -0.08669908
0001f0 65 4b 08 3e 4c b9 30 bd c6 18 48 3d 1e b3 06 3e
       0.1331001 -0.043145463 0.04885175 0.13154265
000200 af 42 e6 bc 99 f5 10 3e 6e 5b 89 bd a2 6c a4 bd
       -0.02810797 0.14156188 -0.06706892 -0.080285326
000210 79 0a c6 3d 33 92 66 bd 7d d9 3e bd ce a0 b7 bc
       0.09669966 -0.05629177 -0.04659413 -0.022415545
000220 6b 20 ee 3d 21 f4 82 3d 85 f9 7f 3c 52 7a 22 bd
       0.11627277 0.0639422 0.015623455 -0.039667435
000230 34 31 ca bd 4e 59 80 bc 51 6d 7b 3d 0c bd be bc
       -0.09872666 -0.015667584 0.06138355 -0.023283504
000240 59 79 2b bc 80 5d 75 3d 7a 86 2b 3d 2c dc 26 3d
       -0.010465943 0.05990362 0.041876294 0.040737316
000250 31 8a 7c bd d8 6a 9f bd 91 ac 14 be 9d de af bd
       -0.061655227 -0.07784051 -0.14518954 -0.08587382
000260 10 12 11 be 72 14 8e 3d dd 17 d6 bb 8c 2f 9f bc
       -0.14167047 0.069374934 -0.0065336064 -0.019431852
000270 7f aa 17 3e 08 49 73 ba 9c 45 6a 3d 35 1f f9 bc
       0.14811133 -0.0009280597 0.05719529 -0.030410388
000280 29 c7 a3 bd c3 cd 2f 3d 27 a7 05 be c7 d4 6b bd
       -0.07996971 0.04292084 -0.13052045 -0.057575967
000290 f7 64 0b 3d d7 ce 85 bc c6 7f 99 bd bb 6a 27 3d
       0.034031834 -0.01633398 -0.07495074 0.04087327
0002a0 6c 71 8f 3d 64 1f d2 bb 99 bc cf bc 77 21 c0 bd
       0.070040554 -0.0064124335 -0.025358485 -0.09381383
0002b0 48 4f 8e bc 1b 45 7a 3d 5b 04 b0 3d 59 2e 2f bd
       -0.017371789 0.06110106 0.08594581 -0.04276881
0002c0 d6 ba aa bc d8 2c 24 3d 6a a6 f7 bd ce 88 de 3d
       -0.020841043 0.04008183 -0.12092288 0.10865937
0002d0 bb 09 c8 bd dc d4 e9 bc 5c 08 ba 3c d4 1e 4b 3d
       -0.09767481 -0.028543882 0.022709064 0.049589947
0002e0 5c 34 b0 bc c7 6a 75 3d 4f 6b c4 3c c4 79 89 3d
       -0.021509342 0.059916284 0.02397695 0.06712678
0002f0 07 b3 1b 3e 68 f2 02 bd dd 09 6f bd 4f b4 15 3e
       0.15205012 -0.031969458 -0.058359016 0.14619564
000300 60 f4 39 3d 08 c5 3b bd 8d 5b 03 3c 59 0d 35 be
       0.04539907 -0.0458422 0.008017433 -0.17680873
000310 60 7b 5d bd 9e 6d 02 bd e4 40 98 bb a1 4c 9f 3d
       -0.054072738 -0.03184282 -0.0046464074 0.07778288
000320 85 19 a0 3c 9f 7f 3d 3e 5e 2b e9 bc b0 60 a5 bc
       0.019543419 0.18505715 -0.028463062 -0.020187706
000330 ba 57 2d bd 16 f5 86 bc 1a 30 af 3d d8 60 fc bc
       -0.04231999 -0.016474288 0.085540965 -0.030807897
000340 5b ce bf 3d c8 88 e0 bd 4a e7 c8 bd f1 0c e4 bc
       0.09365531 -0.10963589 -0.0980974 -0.027838202
000350 3c ff 87 3d ac 88 2a 3e 3d 69 82 3d 1b 66 b2 3d
       0.06640479 0.16653699 0.06367729 0.08710881
000360 2f 3f e2 3d 28 69 18 3d 23 38 be bc 56 f0 eb 3d
       0.110472076 0.03720966 -0.023220127 0.1152045
000370 12 b7 8b bc b8 df eb bd 94 73 c0 bd a5 29 a6 3d
       -0.017055068 -0.1151728 -0.09397045 0.08113412
000380 87 3e 16 3c 5e ca a8 bd cd be ed bd 2a ea af 3d
       0.009170181 -0.082417235 -0.11608658 0.08589585
000390 71 36 3a bd 4d 79 2e bd a1 01 e2 3d 8a 57 a0 bd
       -0.045462076 -0.04259615 0.11035467 -0.07829197
0003a0 56 46 80 3d 7c 74 9b 3d f3 97 8f 3d cf 14 b2 3d
       0.062634155 0.07590577 0.07011404 0.08695375
0003b0 ba a6 9c 3d 03 78 5a 3d 47 5c 23 3d 6a 39 3a bd
       0.07648988 0.05333711 0.039882924 -0.04546491
0003c0 11 c9 c6 3d fd 08 84 3d 4a aa 9f bd 7f 8d 95 ba
       0.09706319 0.06447027 -0.07796152 -0.0011409967
0003d0 ce 0b 91 bd 0b d0 e9 bd 48 49 76 3d eb 6e d5 3d
       -0.0708233 -0.11416634 0.06012848 0.104215465
0003e0 86 d3 0b 3e 66 c0 ad 3b b7 6b 3b bd e2 07 ea bc
       0.13654909 0.0053024767 -0.04575702 -0.028568212
0003f0 43 34 d9 3c 6e 3c e2 3c 35 4e 2b bb aa 68 b0 bd
       0.026514178 0.027616706 -0.0026139144 -0.08613713

lstm.bias_ih_l0 f4 [256]
000000 64 05 10 3d ae fe d2 bc 95 09 34 bd c7 d4 59 bb
       0.03516139 -0.025756206 -0.04395445 -0.0033238397
000010 1b 97 73 3d fc 3c 80 bd 54 c1 eb 3d ac 5f 31 bd
       0.059470277 -0.06261632 0.11511484 -0.04330413
000020 35 ed 89 3d 7a 60 2f 3e dd c0 07 bd 23 88 47 bd
       0.06734697 0.17126647 -0.033142913 -0.048713814
000030 fa 01 ab bd cf e0 bc bc d4 19 84 bd 64 ba b5 bd
       -0.083499864 -0.023056416 -0.06450239 -0.08873442
000040 3c ab 45 bd fd 25 18 bd 45 63 d1 3d 12 76 9f 3b
       -0.048259005 -0.037145603 0.10224012 0.00486637
000050 d9 53 48 3d 68 43 e1 3b f0 6a 32 3d ad 35 97 3d
       0.04890809 0.0068744905 0.043559015 0.07383285
000060 6f 0e 9a bb 3b 99 48 3c c0 ef 07 3d b0 8b 11 3e
       -0.0047014276 0.012243564 0.033187628 0.14213443
000070 64 15 5f bd a3 dc 0d 3e a8 42 b7 3b f3 89 e5 3d
       -0.05446376 0.13853697 0.005592663 0.11207952
000080 a4 c5 e1 3d c8 d0 e8 bc f9 70 b1 3c 32 3c ab 3d
       0.11024025 -0.028419867 0.021660315 0.08361091
000090 0d 3c 7a bc 82 4b 86 3d b1 4c e3 3d 20 ef 67 3c
       -0.015273106 0.06557371 0.11098612 0.014156133
0000a0 1f c1 18 bc 7b 09 fb 3d f6 05 11 3e 0a ae 04 3e
       -0.009323387 0.12257668 0.1416243 0.12957016
0000b0 95 77 c0 bd f2 fc d9 3d 28 d1 a8 3d 1d 6b 62 bd
       -0.093978085 0.106439486 0.082430184 -0.055277932
0000c0 db 0b e5 3d 90 69 09 bd c3 aa 66 3d dd db 23 3d
       0.11183902 -0.033547938 0.056315195 0.0400046
0000d0 b5 da 86 3d 3e 26 2a bd dd 7a ef 3b 2c 26 07 bd
       0.06584684 -0.041540377 0.0073083476 -0.032995388
0000e0 52 ac 9b 3d cd 8a 85 bd 39 1d 02 3d 28 25 be 3c
       0.07601227 -0.06520615 0.03176615 0.023211077
0000f0 9b b3 c4 3c af d4 52 bc a1 31 84 3d 5b 1a 08 3d
       0.024011424 -0.0128680905 0.064547785 0.03322826
000100 bb 6b 1c bd b2 c7 64 39 2e a0 11 bc e3 9e d5 bc
       -0.038188677 0.00021818167 -0.0088882875 -0.02607674
000110 37 99 88 bb da 07 0a bc 1d 6f 8b bd bc 18 84 bd
       -0.0041686553 -0.0084247235 -0.068083026 -0.0645003
000120 e0 fd 41 bd 6f d9 06 3b 68 35 ee 3d d5 ab b4 3c
       -0.047361255 0.0020576378 0.1163128 0.022054592
000130 05 9f b0 bd 8d 54 7a bd 64 45 1f 3d 63 ef 15 3e
       -0.086240806 -0.06111579 0.038884535 0.146421
000140 3c b0 c5 bd 45 84 d8 3d 82 2e d5 3d a9 7e 66 3d
       -0.09652755 0.105721034 0.10409261 0.056273136
000150 ab 6a ce 3d d1 22 b0 3d 61 f5 a0 bd 32 6f 2a bd
       0.10078939 0.08600391 -0.07859302 -0.04160995
000160 4f d8 62 bd a0 44 31 bd 02 be ce 3c 30 d0 67 3d
       -0.05538207 -0.043278337 0.025237087 0.056595027
000170 31 b1 1a 3d 63 6e bc 3d b7 8b 20 bd e0 e7 05 3e
       0.03776664 0.09200742 -0.039195742 0.13076735
000180 9a fc da bc 3e 69 91 3d 40 48 0f 3e 31 0e ec bd
       -0.026731778 0.071001515 0.13992405 -0.11526144
000190 a3 1b f1 bd 51 28 07 3e f3 f0 b3 3d cb 32 dc 3c
       -0.117728494 0.13198973 0.08786192 0.026879689
0001a0 97 c4 7c 3d 0b d6 47 3d bc 21 7e bb 0d 77 9c 3d
       0.06171092 0.04878811 -0.0038777431 0.07639895
0001b0 4e 04 8e 3d 40 fc bd bd 2b 4d 44 bc aa f9 30 bd
       0.06934415 -0.092766285 -0.011981289 -0.04320685
0001c0 74 b5 ae 3d 32 7f ad bd 04 28 f2 bd f7 b4 9e bd
       0.08530703 -0.08471526 -0.118240386 -0.0774936
0001d0 8e 59 8a bc 55 9c 76 bd 42 b8 4d 3b 64 42 89 bc
       -0.016888406 -0.060207684 0.0031390344 -0.01675529
0001e0 b0 ba c1 3d cb 37 17 3e fe 06 95 3d e2 8c 88 bd
       0.09459436 0.14767377 0.07276724 -0.06667496
0001f0 01 4c a4 3d 41 f7 9c bd b0 4e ae 3b 2f aa 3a bb
       0.08022309 -0.076643474 0.005319439 -0.0028482785
000200 b0 2d e6 bd 30 8f 09 3e 66 3c f6 3d 77 cb 4c 3d
       -0.11239183 0.13433528 0.12023239 0.049998727
000210 b0 e1 aa 3c 3f 37 07 3e 8d 1b 64 bd ee 82 3d 3d
       0.02085957 0.13204668 -0.055690337 0.046267442
000220 af 38 39 bd 56 08 a6 bd 6a cd d7 bd fe 6a b2 3d
       -0.045220073 -0.08107059 -0.105372265 0.087118134
000230 fa 4c 83 bd 8e 14 ad bd c4 f3 06 3e 5d bf 93 bd
       -0.064111665 -0.08451186 0.13178927 -0.07214234
000240 a4 a1 78 3c c2 54 ce bd a0 75 75 bd f9 7a 11 3e
       0.015175257 -0.1007476 -0.05992663 0.14207067
000250 14 53 7a 3d d8 f8 41 3c b4 86 9d bd 0b 52 25 3d
       0.061114386 0.011839114 -0.07691708 0.040361445
000260 f7 f7 a7 3d 2a 01 f7 3c a8 a2 72 bd 8c cc e9 3a
       0.082015924 0.030151922 -0.059237152 0.0017837449
000270 e7 0d b0 3d b1 d8 11 3d 9e 22 d7 3d 0b fe e0 3d
       0.08596402 0.035607044 0.105046496 0.10985955
000280 10 71 c5 3d c8 35 61 bd 21 d7 84 bc 1f b2 1f bd
       0.096407056 -0.05498293 -0.016215863 -0.03898823
000290 73 1d 0d bd 50 39 8a 3c c9 51 7a 3d 3f d2 96 bd
       -0.034451913 0.016873032 0.061113153 -0.0736432
0002a0 43 f0 4d bd 7c ca f2 bd 95 61 1b bd 4a 1b 9e 3d
       -0.05027796 -0.11855027 -0.03793486 0.07720049
0002b0 31 39 0d 3e b1 eb 5a 3c dc 42 a6 3d 99 cf 0b be
       0.13791348 0.013361857 0.08118221 -0.13653411
0002c0 23 4d 0e bc 66 39 43 bd 71 9d e5 bc 56 bd fb 3d
       -0.008685383 -0.04766216 -0.028029175 0.12291972
0002d0 32 42 98 3d a1 e2 e4 bd 39 60 b8 bd 9c 1f c5 bd
       0.07434501 -0.111760385 -0.09002728 -0.0962517
0002e0 91 71 7d 3d 68 9d 62 3d 3c cb a4 3d 78 2d 9b 3d
       0.061875883 0.055325896 0.080465764 0.07577032
0002f0 e5 2e 94 bd 76 21 e9 3c 5d 75 ea bd d4 d0 31 bd
       -0.07235507 0.028458338 -0.114481665 -0.043412045
000300 d0 7a 25 3d ba c3 bf 3c 54 cf 9f bd 67 9a 29 3d
       0.040400326 0.02340876 -0.078032166 0.041407015
000310 dd c2 6a 3d 36 f8 0f 3e a8 70 f2 bc 5e 46 fb 3d
       0.057314742 0.14059529 -0.029594734 0.12269281
000320 54 87 17 3c 8a 8e 39 bd 47 21 08 3e f3 37 3b 3c
       0.009248573 -0.04530195 0.13293944 0.011426914
000330 ae 8a 44 bd 5a 3f 74 3c b5 c6 03 3e a1 e0 51 bc
       -0.047983818 0.014907682 0.1286877 -0.012809903
000340 e9 c3 36 bc 33 09 bc 3c f8 e2 af bd b7 df a1 3d
       -0.011155107 0.022953605 -0.08588213 0.07903998
000350 85 65 18 3e eb 2a c7 3d 4b 58 bb 3a f4 84 4d bc
       0.14882477 0.09724983 0.0014293281 -0.0125439055
000360 c8 4f 13 be 77 a9 6f bd 03 c6 ef ba ac 12 d1 3d
       -0.14385903 -0.058511224 -0.0018293265 0.102086395
000370 db ef 16 3e 39 5e 96 3c 90 36 d8 3c f1 46 ef 3d
       0.14739935 0.018355476 0.026393205 0.11683453
000380 67 d1 6e bc 0c ac f0 bd f5 2c c8 3d 95 ea 6c bd
       -0.014576293 -0.11751565 0.097742 -0.057840902
000390 38 36 aa bd e1 93 12 3d 8e 3d be bd fc 80 40 bd
       -0.08311123 0.03578556 -0.092890844 -0.04699801
0003a0 3d 6a d6 bc 67 9a d4 3c 30 7b 98 3d 2b 04 16 bd
       -0.026173705 0.025952531 0.07445371 -0.03662507
0003b0 ab 82 c0 bd ed 5d 44 bc 56 80 0d 3e 07 20 0d 3b
       -0.09399923 -0.011985284 0.13818488 0.0021533982
0003c0 8f cf 4e bd 4e 3c 99 bb 6c 09 d4 3d f8 33 74 3d
       -0.050490912 -0.0046763783 0.103533596 0.059619874
0003d0 9d ba 43 3c 5e a2 21 3e ed 60 5c 3d 26 3d 5e 3d
       0.011946348 0.15784594 0.053803373 0.054257534
0003e0 2f fb 03 3e 5d 8a 00 3d 92 07 7c 3b 90 c3 99 3d
       0.12888788 0.031381954 0.003845666 0.07508004
0003f0 01 c6 98 3d 00 54 61 bd 0f fe fd 3d c8 13 f0 bc
       0.07459641 -0.05501175 0.124019735 -0.029306307

lstm.bias_hh_l0 f4 [256]
000000 e1 9b 9b bd 00 74 11 3e 08 43 8e bd 80 c1 3d bc
       -0.07598091 0.14204407 -0.06946379 -0.0115817785
000010 d4 0f c6 bc 22 b2 cd 3c c8 16 53 bc 15 19 02 3e
       -0.02417747 0.025109354 -0.012883849 0.1270488
000020 b7 d7 00 3e fc af 83 bd b4 36 c0 bd 6f 26 b3 bd
       0.12582289 -0.06430051 -0.09385434 -0.08747565
000030 f8 be ae 3d 5c b0 68 3c 3e 3a 4b bd e9 ba 44 bd
       0.08532518 0.014202204 -0.04961609 -0.048029814
000040 16 62 04 3d 4d 56 2c 3d b9 7b 86 3d 0e 24 02 3e
       0.032320105 0.04207449 0.06566567 0.12709066
000050 2f f9 14 3e 40 81 18 bd d2 17 8f 3c 1d 83 85 bd
       0.14548181 -0.037232637 0.017467413 -0.065191485
000060 5a ba 92 bd 5a ca ff 3c a1 f6 bd 3d 0c cb 02 bd
       -0.0716445 0.031224418 0.09275556 -0.03193192
000070 68 b8 2a bd 12 fb 8c bc 17 24 ae 3d 3c 78 d8 3c
       -0.04167977 -0.017209563 0.08502977 0.02642452
000080 8a 56 db 3d 0b c5 14 be 58 a4 83 3d 7a aa bb 3d
       0.107098654 -0.14528291 0.064278305 0.09163375
000090 72 8b a5 3d 2c ec 9e bd 8b 82 bc bd 31 eb 26 3d
       0.08083238 -0.0775989 -0.092045866 0.04075164
0000a0 45 93 10 3d 07 04 cd 3d ce 6b 06 3e f3 43 c0 3a
       0.035296697 0.10010534 0.13127062 0.0014668688
0000b0 99 2c 51 bc aa fb bc 3d 3e 51 76 bd 43 4a 05 bd
       -0.012766981 0.092276886 -0.060136072 -0.032541525
0000c0 22 b2 3a 3d 92 98 4d 3c 8a ab 86 3d d1 88 94 3b
       0.045580037 0.012548583 0.06575687 0.0045329113
0000d0 19 b0 22 3d 55 07 91 3d 43 4e aa 3c ad 7e ab bb
       0.03971872 0.070814766 0.020789271 -0.005233607
0000e0 78 cb af 3d 1b 7c d4 3d 5b c8 80 3b 07 45 d7 bd
       0.085837305 0.10375234 0.0039301342 -0.10511213
0000f0 76 72 66 bc 22 c3 e3 3d af 9e df 3d 06 9e 8e bc
       -0.014065376 0.11121203 0.10918938 -0.017409336
000100 3b df ca 3d a2 30 9f 3c a6 54 36 3c 14 43 6c bc
       0.09905859 0.01943237 0.01112858 -0.01442029
000110 36 73 6c bb 41 63 8c 3b 06 e5 0b 3d 9c 2a a8 bd
       -0.0036079413 0.004284293 0.03415396 -0.08211252
000120 7e 8d da 3c ca 3a 8c bd a8 6a cc bd 83 87 b2 bd
       0.026678797 -0.068471506 -0.099812806 -0.08717253
000130 06 a0 20 bd af cd 6b 3d 2d df fa 3c af 74 8e 3d
       -0.03921511 0.057569202 0.030623997 0.069558494
000140 2a e4 19 bd fd 70 96 bd 75 c1 0d bd 7e d2 86 bd
       -0.03757111 -0.073457696 -0.034608323 -0.06583117
000150 5f 18 bb 3c a9 da 99 3d be 22 45 3d 33 a3 d7 bd
       0.02283877 0.07512409 0.048128836 -0.10529175
000160 88 9d bd 3d 54 46 0e 3e 24 c2 db bc aa 27 9c bd
       0.09258562 0.13894016 -0.026825972 -0.07624753
000170 04 f1 53 3d f7 11 55 3d 0a 56 89 3a 0b 43 02 bd
       0.051743522 0.052019086 0.0010477912 -0.03180222
000180 8b 5c 09 3d a0 a8 d7 bd cb 95 1f bd e7 ee db 3c
       0.03353552 -0.105302095 -0.038961213 0.026847316
000190 37 ac 84 3c 6b a2 b7 3d 5d 8e c9 3d fb ed 1f 3d
       0.0161954 0.08966526 0.09841607 0.039045315
0001a0 dd 6b a0 3d 05 f0 f4 3d 1e 10 34 bd 27 4c c0 3d
       0.07833073 0.119598426 -0.043960683 0.09389525
0001b0 f4 1a e7 3d 18 2a a3 bc cb 2c f6 3d dc 3e d7 bc
       0.11284438 -0.019917533 0.12020262 -0.02627509
0001c0 c5 64 e5 bc 5d d4 04 3e 32 36 41 3d 4d 07 c2 3c
       -0.028002152 0.12971635 0.047170825 0.023685122
0001d0 00 e1 94 bd 93 24 dc 3d 36 a0 70 3d 26 d8 a5 bc
       -0.07269478 0.107491635 0.05874654 -0.02024467
0001e0 ec 0d 1d 3c 15 63 03 3e 9e 17 9e 3d ed ed 9a bd
       0.009585839 0.12830766 0.07719348 -0.07564912
0001f0 2e 6f e4 3c 37 0c 5d bc 8c f4 19 3e 68 fa a7 3d
       0.027885046 -0.013491682 0.15034693 0.08202058
000200 02 e0 65 bc 29 b5 21 3b 01 f6 57 bd 45 b4 11 bd
       -0.014030458 0.002467463 -0.052724842 -0.03557231
000210 76 9e bf 3c 67 04 e3 bd de 51 ff 3b ef 75 0a 3e
       0.02339099 -0.11084824 0.0077917418 0.1352155
000220 d1 53 4f 3d a3 e0 12 3b 30 70 16 bd 3a 7a f0 3a
       0.050617043 0.0022411726 -0.036728084 0.0018346973
000230 dc 7e a5 bd 4a 8f b6 bd 63 06 54 3d 5c c4 33 3d
       -0.08080837 -0.08914049 0.051763903 0.043888435
000240 91 1d 95 3d c7 35 67 bd c8 e7 46 3d ea 57 25 bd
       0.0728103 -0.05644777 0.048560888 -0.040367045
000250 f0 48 c9 bd e9 8a 29 bd a1 ff cb bd 67 11 00 bd
       -0.09828365 -0.04139224 -0.09960867 -0.031266596
000260 91 ba 82 bc da be ae 3d 99 66 b1 3d 44 f6 b2 3c
       -0.015958102 0.08532496 0.08662147 0.021845944
000270 4c 1e 96 3d 5f 33 19 3d 53 a7 00 be 9f b0 77 bd
       0.073299974 0.037402507 -0.12563829 -0.060471173
000280 18 3b 8d bd 53 fa 25 bd 9c 65 7f 3c 61 f8 5f 3d
       -0.06896037 -0.04052193 0.01558819 0.054680232
000290 a9 14 c0 3d ab 3f 92 bd 07 79 0c 3c e7 ac a3 3d
       0.093789406 -0.0714105 0.008573777 0.07991963
0002a0 a7 4b 63 3c c5 b5 00 be c1 22 2c bd 30 41 5a 3d
       0.013873017 -0.1256934 -0.04202533 0.053284824
0002b0 6f a1 39 3d 84 c5 f7 3d ce 31 d5 3d 90 6e af bd
       0.04531997 0.1209822 0.1040989 -0.0856601
0002c0 34 69 b6 3d c1 36 0b be 34 b2 29 bd 73 18 6d 3d
       0.08906785 -0.13595106 -0.041429713 0.057884645
0002d0 dc 5f af 38 1c 88 cd 3d 79 6a c8 3d 30 bb 83 bd
       8.3625055e-05 0.100357264 0.09785933 -0.064321876
0002e0 d9 50 0e 3e 7e de bf bd 26 f6 1f 3d 36 ee 9b 3c
       0.13898028 -0.09368609 0.039053105 0.019034486
0002f0 e3 c8 d7 3d 25 96 0f 3e 8c c1 0e 3b 30 9d 1d bd
       0.10536363 0.1402212 0.0021782843 -0.038479984
000300 ac 0d 0f 3e 29 b7 f6 3d f2 3b aa 3c f5 26 08 3e
       0.13970059 0.12046654 0.020780537 0.13296111
000310 09 41 8c 3c ff 58 90 3c 5d 54 2f 3d b8 bf 1d 3d
       0.017120855 0.017620562 0.042805064 0.038512915
000320 2f cf 01 3b d4 b2 84 3d c4 83 c4 3c 44 f2 37 bd
       0.001980733 0.06479421 0.023988612 -0.044908777
000330 e7 60 e2 bd 78 f6 9d 3d 3e bf 05 bd 5a b6 32 3d
       -0.11053639 0.07713026 -0.032653086 0.043630935
000340 dc 9a 07 3e 26 f5 dc 3d 6c f3 85 3d 87 5c c6 3d
       0.13242668 0.10788946 0.0654057 0.09685617
000350 61 4d 03 3e 3f 23 02 bd a9 5a 17 3e 85 79 a5 bd
       0.12822486 -0.031771895 0.14780678 -0.08079819
000360 7d 9c d1 bd 25 24 37 bc c5 51 1e 3e 9a 76 d2 3d
       -0.10234926 -0.011178051 0.1546088 0.10276528
000370 e3 81 87 3d d3 f3 cb 3d be e1 a5 bd a7 0b b4 bd
       0.06616571 0.09958615 -0.080996975 -0.08791285
000380 51 30 4f 3d cf 06 88 bd 24 b8 b1 3d ec 75 bd bd
       0.050583187 -0.06641924 0.086777 -0.092510074
000390 7e 7b fe 3d d3 3d 98 bd 9f 1b 5d 3d e6 45 ee 3d
       0.12425898 -0.07433667 0.05398142 0.11634426
0003a0 f9 1a c7 bc a3 ca 16 3e 3e ab c8 3d 53 a2 2b bd
       -0.024304854 0.14725737 0.09798287 -0.04190285
0003b0 f3 fb fd bc 45 40 01 3e f5 5c 11 bc ea b8 20 3d
       -0.031003928 0.12622173 -0.00887226 0.039238848
0003c0 42 d5 c8 3d 0b b0 cd 3d ac b4 92 bd b2 fd 08 3e
       0.09806301 0.10043343 -0.07163367 0.13378027
0003d0 14 fd 89 3d 38 3e 9b 3d 3c a7 8c bc 72 94 bb 3d
       0.06737724 0.07580227 -0.017169587 0.09159173
0003e0 8f ff 20 bc 5f 0b 08 3e 6f 3c b8 3d aa 1d 86 3d
       -0.009826555 0.13285588 0.08995902 0.06548627
0003f0 25 71 93 3c d1 4e e9 3d 15 89 0f 3e 6a 2e 50 3d
       0.017998287 0.11391986 0.14017136 0.050825514

fc1.weight f4 [32, 64]
000000 0a db 0e bd ea 2a 61 bd 47 51 ad bc ea f9 25 3d
       -0.03487686 -0.054972567 -0.02115692 0.04052154
000010 bf 01 83 bd 7d 4e ab bd 88 8b 48 3d 8f 71 15 bd
       -0.063968174 -0.0836458 0.048961192 -0.03648525
000020 f2 fe 8b bd af d7 c8 3c 93 3f 08 3d 34 1f ad bd
       -0.06835736 0.024516908 0.033263754 -0.08453217
000030 31 8f 18 3d b1 6c ff bd 2f 0b aa 3d 7c 09 ce 3d
       0.037245933 -0.12471903 0.08302914 0.10060403
000040 00 5a 83 3d c5 54 d1 3d 7f 04 13 3c ea 08 7a bc
       0.064136505 0.10221247 0.00897324 -0.015260914
000050 94 17 e6 3b 94 39 92 3d ae 0d a5 bd 1d 8c d4 bd
       0.0070218537 0.071398884 -0.0805925 -0.10378287
000060 7e e9 69 bd af 75 a2 3d 5f 1e a9 3d 65 70 fd bc
       -0.05710744 0.079326026 0.08257746 -0.030937383
000070 b9 ac 09 3e 94 de 10 be b5 8c 39 bd e2 38 6a 3d
       0.13444795 -0.14147407 -0.045300204 0.057183154
000080 32 e4 e5 bd f6 9a f7 3d 3b b3 d8 bd 21 99 ac 3d
       -0.112251654 0.12090103 -0.105810605 0.084276445
000090 72 dc 47 3d c6 96 3d bd fc 88 f1 3d 0d 51 39 bd
       0.048794217 -0.046286367 0.11793706 -0.04524331
0000a0 d3 a7 de bb 23 ae bf 3d d4 90 eb bd 1b 2a fc 3d
       -0.0067949085 0.09359386 -0.11502233 0.123127185
0000b0 3b 23 05 bd 4f 99 9b bd a6 cc ba 3d 04 b4 7e bd
       -0.0325043 -0.07597601 0.09121065 -0.062183395
0000c0 93 b3 97 bd 70 a8 b1 bd b1 55 9a 3d fe cf a4 3d
       -0.07407298 -0.08674705 0.075358756 0.08047484
0000d0 37 52 4f bd ef 44 19 3d a9 af 82 3d 74 05 34 bd
       -0.050615516 0.037419256 0.06381161 -0.043950513
0000e0 ca d3 17 3d 32 f6 76 3d 79 08 79 3c cc e9 10 bd
       0.037067212 0.060293384 0.015199774 -0.035379216
0000f0 ba 96 1e 3e ed 6e 1e bc 7e 16 4e 3e cf 1f 23 3e
       0.15487185 -0.009670001 0.20125768 0.15930103
000100 40 ca ea 3d ee 93 9f 3c 16 95 a6 3c ab b0 3b 3d
       0.114643574 0.019479718 0.020334762 0.04582278
000110 92 a3 03 be 0c 49 11 bd 7d 35 64 bd d9 27 03 bd
       -0.12855366 -0.035470054 -0.055715073 -0.032020424
000120 ce e3 9b bd a2 b9 e3 bc 27 f9 91 bd 09 f9 d5 bd
       -0.0761181 -0.027798478 -0.071276 -0.1044789
000130 e1 7d 7f 3d 6b e1 0a 3e b0 5c 84 bd 7a e9 c4 bd
       0.062375907 0.13562553 -0.06462991 -0.096148446
000140 f7 7c 64 bd f6 06 09 bd 79 f7 0a be 50 c0 c4 3d
       -0.05578324 -0.033453904 -0.13570966 0.09606993
000150 b1 93 c9 3d cf 5d a2 3d 8d cb 50 bd 22 41 8c bd
       0.09842623 0.07928049 -0.05097537 -0.068483606
000160 a5 dd 07 3e cd 99 b6 bd 1a 00 f3 bd 24 42 f1 bd
       0.13268144 -0.08916054 -0.11865254 -0.117801934
000170 9e 69 c8 3c 43 d8 3b bb 33 59 80 bd 39 58 be 3d
       0.024464425 -0.0028662838 -0.062670134 0.09294171
000180 1b c4 63 bd 1b ab ad bb 06 69 9b 3d 33 ff 98 3d
       -0.055606943 -0.0052999384 0.07588391 0.074705504
000190 0a 03 ba 3d be 36 f2 bc 6e 94 4d 3d 7f 4b 71 3b
       0.09082611 -0.029567119 0.05019038 0.003681868
0001a0 f3 fd f6 3c ca bb 74 bd 00 d8 7d 3d 37 d2 6f 3c
       0.03015039 -0.059749402 0.06197357 0.0146375215
0001b0 78 19 3b 3c de c8 bd bc a6 4d 17 3d eb 60 db bd
       0.011419646 -0.02316707 0.036939286 -0.10711845
0001c0 dc 0f b5 3d 7f 8d e4 3d cb 21 a6 3d ce 20 94 bc
       0.088409156 0.11159801 0.08111914 -0.018082049
0001d0 74 cb d2 bd 82 0b a5 bc 8d 6c e9 bd c1 d9 97 bd
       -0.10292712 -0.020147089 -0.113976575 -0.0741458
0001e0 59 fa ab 3d 7f 0d 58 ba 95 0c e3 3d 98 76 57 bd
       0.083973594 -0.0008241757 0.11086384 -0.052603334
0001f0 c0 d6 92 bd c3 d1 e8 bd 1a 08 0d 3d 8b aa 05 3d
       -0.071698666 -0.11368134 0.034431554 0.032633346
000200 57 f4 03 3c d2 1d 25 3e ab b8 de 3d 3c e2 2d be
       0.008053861 0.16124657 0.10875066 -0.16980833
000210 34 af 4c 3d 26 1a 76 3d 6f 39 3d 3d 51 99 d1 3d
       0.049971774 0.06008353 0.04619735 0.10234321
000220 b5 2a 80 bb e1 bb bf bd 5d 6b 8f 3d e4 29 73 3c
       -0.003911341 -0.09362007 0.070029 0.0148415305
000230 cd 32 3b 3d 57 6a ae bd 05 71 1e 3a c6 1e cf 3d
       0.045702744 -0.085163765 0.0006044063 0.101132914
000240 85 e5 2a 3e 36 32 a3 bd 9e 54 96 3d 0c 0a c7 3d
       0.16689117 -0.07968561 0.07340358 0.09718713
000250 2f 8e 98 bd 0d 99 a9 3d 4c 75 1f bc c1 dc e3 3d
       -0.07448994 0.08281145 -0.009732556 0.1112609
000260 f9 3e 40 bd 81 8e 1a 3e 9b 14 30 3d 1f 63 d1 3d
       -0.046935055 0.15093423 0.0429884 0.10223984
000270 0d 9b 4a bd ec 39 47 3d 92 74 4c 3d 4f 34 ae 3d
       -0.049464274 0.048639223 0.049915858 0.08506071
000280 6c 84 50 bd 9d cc 4e 3b 00 36 14 be 28 4c 7d bd
       -0.050907537 0.0031555064 -0.14473724 -0.061840206
000290 6e 10 06 3e ca e5 a5 bd 09 b3 39 3c d3 76 08 be
       0.13092205 -0.081004694 0.011334189 -0.13326578
0002a0 d7 36 2e be ea a9 d3 bd 26 6b 80 3c ed fe 52 bd
       -0.17013107 -0.10335143 0.015676092 -0.051512647
0002b0 50 0e 33 bd 33 57 42 bd 66 b8 40 3d 71 43 ad bd
       -0.04371482 -0.04744644 0.047050856 -0.08460129
0002c0 db 3a 14 3e 58 a5 31 be 16 40 1a be 43 02 76 3c
       0.14475577 -0.1734823 -0.1506351 0.015015188
0002d0 fd 71 9f 3d 4f ae 74 3d a9 e9 03 3d ed c5 15 bc
       0.077854134 0.059736546 0.032205258 -0.009141427
0002e0 8b e7 76 3d 96 71 46 bd 46 c3 80 3d 23 24 52 bd
       0.06027941 -0.048448168 0.062872455 -0.051303994
0002f0 27 8f 4a 3d 36 72 9e 3d eb 63 ba 3d 84 93 33 bd
       0.049452927 0.07736628 0.09101089 -0.043841854
000300 d8 75 a2 bd d0 00 f1 3d e4 62 e8 3d fa 23 27 3c
       -0.07932633 0.11767733 0.11346987 0.010201449
000310 44 3f d9 3b 30 77 8a bc 19 d5 b0 bd 5d 42 25 3e
       0.0066298563 -0.016902536 -0.08634395 0.16138597
000320 ec 8c 00 3e a1 46 cf bd d9 94 4a 3c f1 4e 37 3e
       0.12553757 -0.10120893 0.01236459 0.17901208
000330 16 51 53 3c 9c b6 1d be b1 b7 04 3e 30 9f 85 3d
       0.01289775 -0.15401691 0.12960698 0.06524503
000340 a3 8a 87 3c c9 39 e2 3b 99 ce dd 3d eb 70 df 3d
       0.0165456 0.006903861 0.10830421 0.10910209
000350 65 63 1b be 7e f3 e5 3d d6 82 05 be 95 47 ec bd
       -0.15174635 0.11228083 -0.13038191 -0.11537091
000360 7f 47 28 bd 2a ac f6 3d b4 f5 1a 3e ae 74 b4 3d
       -0.04108381 0.120445564 0.15132791 0.088113174
000370 94 fb 07 3e d5 6e 19 be 85 ea f1 bd 67 63 8f bc
       0.13279563 -0.14983685 -0.11812309 -0.017503453
000380 82 e6 1e be b0 de d5 bd 1e b7 0d be 04 29 96 bd
       -0.15517619 -0.10442865 -0.13839385 -0.07332042
000390 e4 94 5a 3d ad 8d ff bc 8b 25 13 3d ef cc 9f bd
       0.05336465 -0.031195486 0.035924476 -0.0780276
0003a0 80 cf 42 bd 35 63 29 be 6f 48 b0 bd 95 91 7e bd
       -0.04756117 -0.1654175 -0.086075656 -0.062150557
0003b0 7c 87 13 3e ec d4 69 3d ac 18 6b bd 04 4f cd bd
       0.14407152 0.057087824 -0.057396576 -0.10024837
0003c0 62 df 4e 3d 96 56 0b be fb 78 8d 3d 26 e6 11 3e
       0.050506003 -0.13607249 0.06907841 0.14247951
0003d0 a9 39 a0 bc aa 8b 9b bd d1 a2 00 3e 62 2c 08 3d
       -0.019558745 -0.07594998 0.1256211 0.03324545
0003e0 a0 90 59 3d 20 fa 1f bd 94 55 5e bd b6 49 4b 3d
       0.05311644 -0.039056897 -0.054280832 0.049630843
0003f0 f8 25 d5 3d 7a 13 06 3e e0 61 a5 3c 97 91 08 3e
       0.104076326 0.13093367 0.020188272 0.13336788

fc1.bias f4 [32]
000000 5b 96 de 3d 9a 90 de bd 04 fd d7 3d 03 d6 bd 3d
       0.10868522 -0.10867424 0.10546306 0.09269335
000010 e4 ba 1f 3d a7 58 4a bd be 55 85 bd 81 aa b0 bc
       0.038996592 -0.04940095 -0.06510495 -0.021565678
000020 2a e9 2d bd 2f bc c8 3d d7 db bf bd 01 e5 d2 3d
       -0.04245869 0.09801518 -0.09368103 0.10297585
000030 a3 b4 4f bd 79 01 6f 3d 31 da 45 3d 68 2e 9c bc
       -0.050709378 0.058351014 0.048303787 -0.019065097
000040 c7 3c e2 3b c9 4a b4 bd 4a 34 84 3d ad 97 b5 3d
       0.006904218 -0.08803327 0.06455286 0.088668205
000050 20 35 bf bd 5c 6a a7 3d a9 ff ff bd e3 90 0f 3e
       -0.09336305 0.08174583 -0.12499935 0.14020114
000060 94 13 69 bd 7a 2f f3 bd c1 ea c9 3d e0 fe b7 3d
       -0.056903437 -0.1187429 0.09859229 0.089841604
000070 32 c4 22 3d a4 2d 7c 3d 60 99 8d bd 17 06 ed 3d
       0.039737888 0.061566964 -0.069140196 0.11573427

fc2.weight f4 [32, 32]
000000 ed 3d 19 be f8 f4 46 bd a0 0a b6 bd 59 1f d2 bd
       -0.14965029 -0.048573464 -0.08888745 -0.10259885
000010 c9 3d 05 3e 66 c4 06 3e ca 14 ba 3d 6b 6c 24 3e
       0.1301185 0.13160858 0.090859964 0.16056983
000020 3d 09 df bd 5d be 62 bd e2 fe cf bb 32 9a ba 3b
       -0.10890434 -0.055357326 -0.006347523 0.005694651
000030 56 ea e6 3d 29 9e 31 3e c7 78 8a 3e c8 b6 14 be
       0.11275165 0.1734549 0.2704527 -0.1452285
000040 6b 26 21 3e d3 22 03 3e 8d a4 92 bb 6a 54 ba ba
       0.15737312 0.12806253 -0.0044751824 -0.0014215831
000050 b0 ca 00 bd 5c 5d a6 bd ce 23 9c bd 19 63 8c 3e
       -0.031443298 -0.08123276 -0.07624017 0.27419356
000060 02 c4 e6 bd 6c c6 0e 3d 86 7c 18 3d c3 d4 e4 3d
       -0.11267854 0.0348572 0.03722813 0.111733936
000070 13 6f cf bc 7f 1b 06 3e 73 26 31 be 46 07 00 be
       -0.025321519 0.13096426 -0.17299823 -0.12502775
000080 6c 4f 1d be 20 d5 a6 bb 42 e5 df bd 2e a2 f1 3d
       -0.15362328 -0.0050913244 -0.10932399 0.117985114
000090 49 1c ac bd 20 3b 76 3c e9 08 19 3e f2 66 32 be
       -0.084038325 0.015028745 0.14944805 -0.17422083
0000a0 de 57 95 3d 08 32 1a be 06 70 af 3d ac bb 3d bd
       0.0729215 -0.15058148 0.08566289 -0.046321556
0000b0 48 52 1b be 18 a2 ee 3c 70 7c 53 3c 10 e6 7b 3d
       -0.15168107 0.029130027 0.012908086 0.0614987
0000c0 06 18 d9 3d 70 7e 95 bc 9a e4 a7 bd 67 ea 30 3e
       0.10600285 -0.018248767 -0.08197899 0.17276917
0000d0 ec 9a 5f bd 8b e0 1a 3e 06 6b f1 3d c0 87 31 be
       -0.054591104 0.15124719 0.11787991 -0.17336941
0000e0 c8 ad 51 bd b0 18 3b 3c 6e 10 11 be 48 8d f7 3c
       -0.05119112 0.01141946 -0.14166424 0.030218735
0000f0 bb a5 95 bd 74 ca b9 bd df bb 06 3e 32 a7 9b 3d
       -0.07307001 -0.09071818 0.13157605 0.07600249
000100 a7 a0 21 3e b0 1e 14 bd f9 6a 8f bd e3 0d 0a be
       0.1578394 -0.03616208 -0.07002825 -0.1348186
000110 82 ae d5 3b 8b 06 0e 3e 50 80 9e bc 16 5e 2e 3e
       0.006521047 0.13869683 -0.019348294 0.17028078
000120 06 6c e7 3d 04 fa 52 bd 68 ae cd 3c 96 ac 1d 3e
       0.11299901 -0.051507965 0.025107577 0.15397868
000130 d5 98 4a 3e f9 59 30 3e dd 78 d0 bc 28 ed f5 3c
       0.19784863 0.17221822 -0.025448257 0.030020311
000140 95 8a 15 3e 06 28 34 3e a7 16 32 be e7 74 ec 3d
       0.14603646 0.17593393 -0.17391454 0.11545735
000150 77 46 a7 bd c3 4d df bd 8f eb cb bd af a6 41 3c
       -0.08167737 -0.10903504 -0.099570386 0.011819526
000160 90 72 e2 bc 40 ca 4f bb 29 85 d6 bd 42 21 bc 3d
       -0.027642518 -0.0031706244 -0.10474617 0.09186031
000170 d4 d1 f2 bd eb 00 12 3e d7 5b 23 be 1f 5a 1d 3d
       -0.11856428 0.14258163 -0.15953003 0.038416024
000180 45 86 0c be c6 53 c9 bd f5 e8 61 3c 01 b2 7a bd
       -0.13723095 -0.09830432 0.013788451 -0.061204914
000190 12 e5 f2 bd c8 40 87 bc 3a 7b 02 be 73 51 d7 bd
       -0.11860098 -0.016510382 -0.1274232 -0.10513582
0001a0 ce fa d5 3d f1 f7 8e bc 80 7a 4c bd f2 3b 07 3e
       0.10448228 -0.017452212 -0.049921513 0.13206461
0001b0 9c 0d 7c 3c b5 e9 02 3e e0 e7 95 3d 00 cb 6d 3c
       0.015384104 0.12784465 0.07319617 0.014513731
0001c0 6b 68 85 bd ba 1c cd bd 11 bc 08 3e fb 0c ce 3c
       -0.06514057 -0.10015245 0.13352992 0.025152674
0001d0 95 53 1a 3e be 60 9f 3d 4e 2d a9 bc e1 ce 26 be
       0.15070947 0.07782124 -0.020651486 -0.16289856
0001e0 c2 00 92 3d 34 cb 47 bd 1f 85 f0 3b 41 b3 bf bd
       0.07129051 -0.048777774 0.007340088 -0.09360362
0001f0 4e 57 e3 3d 1f f8 10 3e 1c b7 d6 bd d8 66 8e bd
       0.111006364 0.1415715 -0.10484144 -0.0695321
000200 ca c0 06 be 3a 3f af 3d 3b 29 03 be 9e f8 0b be
       -0.1315948 0.085569814 -0.12808697 -0.13669059
000210 1e 54 04 be 78 ff 11 be 17 d6 0b 3e eb e0 9b bd
       -0.12922713 -0.1425761 0.13655888 -0.07611259
000220 c2 cc df 3d 50 60 48 bd d6 7f 5a bd c8 58 46 bd
       0.10927726 -0.048919976 -0.05334457 -0.048424512
000230 0e d6 12 be fc d1 4f 3d 3b 9f 91 bd 44 be 58 3d
       -0.14339468 0.050737366 -0.07110449 0.052915826
000240 8a 3d 1a be 68 84 e2 3c 5f 06 13 3e 28 92 5e bd
       -0.15062538 0.027651027 0.14357899 -0.054338604
000250 c4 58 1a 3d 9f b5 32 be 86 df 93 bd d3 ee 15 3e
       0.03768231 -0.17452095 -0.07220368 0.14641885
000260 9e 9a 8f 3d 30 a5 84 3d 9a 1f 9d 3d 50 d8 13 bd
       0.07011913 0.064768195 0.07672043 -0.036094964
000270 14 ad 99 bd f3 5a 2a 3e 5c c2 84 bd 50 fc 66 bc
       -0.07503715 0.16636257 -0.064823836 -0.014098242
000280 5d 30 09 be e1 c1 0a 3e ae 8e 6c bd 57 fa 86 bd
       -0.13397355 0.13550521 -0.057753257 -0.06590717
000290 6a 2e e1 bd d4 88 28 3d 46 2a 0c be d6 cb 0d 3e
       -0.10995181 0.041146114 -0.13688001 0.13847288
0002a0 df 13 05 3e 55 c4 09 be 84 18 26 be ec 9c 04 3d
       0.12995861 -0.13453801 -0.1622029 0.032376215
0002b0 82 44 d7 bd c3 96 41 be 41 00 c7 3d bc 16 36 bd
       -0.10511114 -0.18905167 0.09716845 -0.044455275
0002c0 23 8e ba 3c 78 e1 9a 3c 7e f5 fd bd 26 e1 cd bd
       0.022772854 0.01890634 -0.124003395 -0.10052709
0002d0 e0 bb 7b 3d 07 d5 1f be 68 e0 c6 bc de a5 f0 bc
       0.06145847 -0.15608607 -0.024276927 -0.029375967
0002e0 c4 ba c8 bd 8d e9 32 3e 9a 69 20 be 89 2a 1b be
       -0.09801248 0.17471905 -0.15665284 -0.15152945
0002f0 a0 de 02 be c6 4e cd 3d 52 17 1a be d6 c5 db 3d
       -0.12780237 0.100247905 -0.15047958 0.107310936
000300 cf 99 26 3e 6d e5 29 3e a5 6c 1f 3e fb fe 9e 3c
       0.16269611 0.16591425 0.15568788 0.019408694
000310 c8 6d bc bd 84 52 31 3d 6a 0f 95 3d cc 68 73 3e
       -0.092006266 0.043291584 0.072783306 0.23770446
000320 82 a3 1e be 22 ed ff 3d c7 ff 25 3d 80 62 8c 3e
       -0.15492061 0.12496401 0.04052713 0.274189
000330 77 5d 30 3c 61 98 15 bd 19 b0 92 3e 01 2b 31 be
       0.010764471 -0.036522273 0.28649977 -0.17301561
000340 12 9a 1b 3a 32 50 19 3e fe 15 69 bd 08 cf 6d 3e
       0.0005935739 0.14971998 -0.05690574 0.23223507
000350 ba c4 dd 3d de 5e f5 bc ec 98 11 bd 96 71 6f 3e
       0.10828538 -0.029952463 -0.03554623 0.23383173
000360 ac ef 12 bd ba a0 95 3d 12 1d 87 bd c1 64 d8 bd
       -0.0358731 0.07306047 -0.065973416 -0.10566092
000370 68 c4 fb bd bb 2b 3d be 32 75 5c bd aa e9 b9 bd
       -0.12293321 -0.18473713 -0.053822704 -0.09077771
000380 7d 88 39 3d 80 36 c9 3a c5 40 03 be 17 ee 17 be
       0.04529618 0.0015351325 -0.12817676 -0.14836918
000390 3a c8 00 bd 32 82 82 3d d0 69 2a 3c 0e c0 8a 3e
       -0.03144095 0.06372489 0.010401204 0.2709965
0003a0 10 6c c2 bd 9f c5 06 be 88 b6 18 bd cd 91 a0 3d
       -0.094932675 -0.13161324 -0.03728345 0.07840309
0003b0 7f 2d 07 be 31 a5 c2 3d 90 a3 76 3e f8 dc 32 be
       -0.13200949 0.09504164 0.24085832 -0.17467105
0003c0 a5 8c b3 3d 09 65 f6 3d ab ca 59 3d 9b 44 cf bd
       0.0876706 0.1203099 0.053171795 -0.10120507
0003d0 2a 24 e4 3d a8 11 ef bd ad 80 9d bd aa 66 38 3e
       0.1113971 -0.116732895 -0.076905586 0.18007913
0003e0 80 f4 1b bd 06 54 fc 3d 64 f7 83 bd 02 8f 22 be
       -0.03807497 0.12320714 -0.064436704 -0.15874866
0003f0 af ea 1e be 5e ed b0 3b 2a 10 0d be ee 32 12 3e
       -0.15519212 0.00539939 -0.13775697 0.1427724

fc2.bias f4 [32]
000000 2c 58 a0 3d 3c d2 40 bd fa 43 97 3a 37 2a be bd
       0.078293175 -0.047075495 0.0011540644 -0.092853956
000010 3e eb 6c bd d7 d0 4e bd 43 34 d0 ba f1 55 da 3b
       -0.057841532 -0.050492134 -0.0015884716 0.006663077
000020 4b 1a 66 3d c2 6e d4 3d ba a4 26 3e 81 7f 61 3c
       0.05617742 0.10372688 0.16273776 0.013763309
000030 07 f8 82 bd 05 6a 5e 3d 8b be f2 3d c8 e6 20 be
       -0.06394964 0.054300327 0.118527494 -0.15713036
000040 74 51 49 bc d9 f2 b6 3d fd 8d 01 be 53 0d 01 3e
       -0.012287486 0.08933038 -0.1265182 0.12602739
000050 e3 5d f4 bd 56 34 58 3d e3 07 4e 3d 32 49 0e 3d
       -0.1193197 0.052784286 0.05030049 0.034737773
000060 f1 90 f9 bd c4 97 39 3d 4a c4 01 be 3e 40 b6 bd
       -0.121858485 0.04531075 -0.12672535 -0.08898972
000070 72 d5 6d 3d 28 c5 11 be f3 68 14 3e c3 99 83 3d
       0.058064885 -0.14235365 0.1449316 0.06425812

fc3.weight f4 [1, 32]
000000 70 f2 22 3e 8f d2 cd bd f7 83 23 3d 10 70 eb 3d
       0.15912795 -0.100499265 0.039920773 0.114959836
000010 76 dc 85 3d a9 28 f5 bc e2 ce 90 3e 15 d9 41 3e
       0.0653619 -0.029926615 0.2828284 0.18930466
000020 13 1e f9 3c 66 08 e8 bd c8 c3 25 be d8 94 30 3e
       0.030409848 -0.11329727 -0.16187966 0.1724428
000030 99 ec e8 bc 15 a0 a8 bd 95 aa 5c bd 82 79 be bd
       -0.028433131 -0.08233658 -0.053873617 -0.093005195
000040 19 0f 84 3d 45 61 0e 3d be 07 d5 3c 23 d9 a3 bd
       0.06448192 0.034760732 0.026004668 -0.080004
000050 1e 8b 4a 3d 42 b7 0d 3e 23 2c 15 3e 3f bd 04 3e
       0.04944908 0.13839439 0.14567618 0.12962817
000060 f4 cd 5e 3d be d1 7f 3d 86 26 6a bd fc 25 fc bd
       0.05439563 0.062455885 -0.057165645 -0.123119324
000070 8a 57 d3 3d 02 39 ba 3b 2e 06 6a bd e5 1f 60 ba
       0.10319431 0.0056830654 -0.0571348 -0.00085496745
