checkpoints/StockPrediction_epoch_6.pt (torch, 255962 bytes, 27 tensors)

lstm.weight_ih_l0 f4 [256, 1]
000000 ef 4c a6 3c 10 bd f5 3c f9 01 a6 bd 72 82 22 3d
       0.020300357 0.029997379 -0.08105845 0.039675184
000010 de 61 3e bd 13 f0 12 bb dd 7e d9 bd 68 eb 0a bb
       -0.046480052 -0.0022420927 -0.106199004 -0.0021197442
000020 58 9b 3a 3d b7 10 6f bc 16 51 34 3d b5 ab 59 bd
       0.045558304 -0.0145913875 0.044022642 -0.05314227
000030 de 2b b9 3d 63 53 7c bd 6f 7b 9a ba f7 a7 b3 bd
       0.0904157 -0.06160296 -0.0011786054 -0.08772271
000040 86 a9 1d 3d 0a 37 29 bd a5 aa aa bd df 7d 21 bd
       0.03849175 -0.041312255 -0.08333329 -0.03942668
000050 6c 83 00 be 49 9b ae bd d9 bd fd bd 1f 81 81 3d
       -0.12550133 -0.08525712 -0.12389726 0.06323456
000060 da 27 99 bd f4 93 08 be 1a 63 e6 bd 8c 06 0c be
       -0.07478304 -0.1333769 -0.11249371 -0.13674372
000070 e4 ff 85 bd 51 1a 29 be ad 46 1f 3d 41 36 2f be
       -0.06542948 -0.16513945 0.03888576 -0.1711054
000080 3d 58 51 3d bc 25 55 3c 36 f1 c9 bd 8b 36 cc 3d
       0.05110954 0.013009485 -0.098604605 0.09971341
000090 42 fe 07 bd 86 a9 fe 3d 00 98 90 bc f2 3d e3 bd
       -0.033201464 0.12434678 -0.017650604 -0.110957995
0000a0 ef 76 16 bd 53 23 de bd 99 f9 06 3e b8 a1 57 3d
       -0.036734518 -0.10846581 0.13181151 0.05264446
0000b0 85 8b 1a bc 31 27 00 be 2d 7d 1a 3b 89 05 69 bd
       -0.009432678 -0.1251495 0.0023573146 -0.056890044
0000c0 34 b1 66 bc 25 fd 1b be 0b a2 12 be 18 b4 fe bd
       -0.014080334 -0.15233286 -0.14319627 -0.12436694
0000d0 7b 4a 17 be 12 b0 fe 3c 06 3c fe bc 24 3b 0e 3e
       -0.14774506 0.031089816 -0.03103448 0.13889748
0000e0 2a 3a eb bc 3e 99 92 bd 2c 38 a0 3c ac 92 d0 bd
       -0.028714258 -0.07158135 0.019558035 -0.101842254
0000f0 fc 07 8f bd c1 ab 29 be 8a d6 6b 3e 26 13 c9 bd
       -0.06983945 -0.16569425 0.23031059 -0.098181054
000100 a8 d9 13 bd 9a 9b ce bd 3c 0e 58 3d d9 46 18 be
       -0.036096245 -0.100882724 0.05274795 -0.14870776
000110 85 2c ab bd 01 92 d1 bd d1 74 8f 3d 83 b5 09 bd
       -0.08358101 -0.10232926 0.07004703 -0.03362037
000120 00 c9 69 3d 86 c4 d4 bc c1 54 3c be 01 30 31 be
       0.057076454 -0.025972616 -0.18391706 -0.17303468
000130 58 e8 a1 bd 49 13 dd bc d8 66 a0 bc e8 33 10 3d
       -0.07905644 -0.026986735 -0.01958029 0.03520575
000140 10 77 f8 bd bb 7c 13 be 9a 22 53 3d b5 6d f9 bd
       -0.12132084 -0.1440305 0.05154667 -0.12179128
000150 de f4 20 3c b1 f0 c7 bd 06 62 25 39 17 c1 e6 bd
       0.009824006 -0.09762705 0.00015772143 -0.11267298
000160 f8 71 28 bd 2f 80 0b bd 42 95 51 bd 11 49 c1 bd
       -0.041124314 -0.034057792 -0.051167734 -0.094377644
000170 c3 d5 1b bb 12 8a 41 3d 3d 2f 27 be c4 30 05 be
       -0.0023778535 0.047250815 -0.16326614 -0.13006884
000180 18 9b 82 3d 1c 8c 27 bd ce 7b d6 bd ce 5d c8 bd
       0.06377238 -0.040905103 -0.104728326 -0.09783517
000190 60 72 00 be 13 a5 dc 3d 95 04 2f bd d2 92 22 be
       -0.1254363 0.10773673 -0.04272898 -0.1587632
0001a0 c4 e7 85 bd f5 23 21 be 4b e9 09 39 77 0f 03 be
       -0.065383464 -0.15736373 0.00013152247 -0.12798868
0001b0 21 46 42 be 53 47 18 be 9f 8c 62 3d 36 0e 6b bd
       -0.18972065 -0.14870958 0.055309888 -0.0573866
0001c0 6d ec 1a bd 47 2c 45 be 9d d9 c1 bd 74 11 e8 bd
       -0.03782313 -0.19255172 -0.094653346 -0.11331454
0001d0 8d 28 d1 bc 20 44 37 be 2b 42 e9 bd f1 0d 93 3d
       -0.025532031 -0.17897081 -0.11389574 0.071803935
0001e0 4b 7a 89 bd c2 51 eb bd 57 e4 b1 bd 2c cf b8 bd
       -0.06712779 -0.114902034 -0.086861305 -0.0902389
0001f0 0a 6f 26 be 03 dd 1b be f9 83 52 3e 2d 86 17 be
       -0.16253296 -0.15221028 0.20558156 -0.14797278
000200 9b 01 41 3e 11 77 c7 bd 07 6e 89 3d 7c 48 e9 3d
       0.18848269 -0.09739507 0.06710439 0.113907784
000210 c4 e2 17 be 44 50 19 3e 92 f9 07 3c d4 a8 f1 bd
       -0.14832598 0.14972025 0.008299248 -0.117997795
000220 f1 5c 35 be f5 b4 28 be fd ee d9 3d fa a4 d3 bd
       -0.17711236 -0.1647528 0.106412865 -0.10334201
000230 32 fb 4f 3d bb 8f 01 bd e3 a5 13 3d 0a c4 28 be
       0.050776668 -0.031631213 0.036046874 -0.16481033
000240 2b d6 9f bd ab b2 b8 3d bf 9a 2d 3d 2b 1e 20 3d
       -0.07804521 0.09018453 0.042383906 0.03909127
000250 17 14 3d 3e b1 11 35 be 1a 62 ca 3d a0 75 c7 bd
       0.18464695 -0.1768253 0.09881993 -0.09739232
000260 f7 d4 07 3c 21 c3 30 be de b3 3a 3d ad 56 23 be
       0.008290521 -0.17261936 0.04558169 -0.15951033
000270 72 be ce 3a 15 e9 f0 3d b5 ed f1 3d e0 09 11 be
       0.001577331 0.11763207 0.11812917 -0.14163923
000280 e5 c6 23 3e c1 03 17 3d a0 99 b6 3d e7 75 03 be
       0.15993841 0.036868814 0.089160204 -0.12837945
000290 56 e5 17 bc be e6 b4 bd 25 8f ba bd c6 a7 3f 3e
       -0.009270987 -0.08833073 -0.09109334 0.18716344
0002a0 0e 49 c8 3d 64 1c f5 ba 0b cd e0 bd d6 16 7d bd
       0.09779559 -0.0018700478 -0.10976609 -0.061789356
0002b0 dd 98 25 ba 09 bf ca bd b5 b2 14 be e1 ad 1d 3d
       -0.0006317029 -0.09899718 -0.14521296 0.038495902
0002c0 4d 1f 2f be 41 08 f0 3d 0d 50 02 3e 76 49 45 be
       -0.17101784 0.11720324 0.1272585 -0.19266304
0002d0 92 15 cf 3d dc af 0c 3e f4 6d 57 bd e7 f2 e5 bd
       0.10111536 0.1373896 -0.052595094 -0.112279706
0002e0 34 a6 f6 3a d8 b3 0e 3e 24 80 d1 bc c1 61 0a bd
       0.0018817843 0.13935792 -0.025573798 -0.03378463
0002f0 a4 8f e6 bd 22 e3 7c bd 7d bb e5 bd 18 08 ed bd
       -0.11257866 -0.06174005 -0.11217401 -0.115738094
000300 72 30 2f 3b 57 9a f7 3c 0b 26 88 bd 7b e8 d4 bd
       0.0026731757 0.030224962 -0.06647881 -0.10395905
000310 cf 00 7f bc 5b ec e7 bc be da 4b bc 63 2a 36 bd
       -0.015564158 -0.028310945 -0.012442289 -0.044474017
000320 99 9e 3c be d4 1d 28 3d 0d 1a 1e 3d ee 51 fd bc
       -0.18419875 0.04104407 0.038599063 -0.030922856
000330 32 67 dc bb 96 ad 24 be 4a d1 0e be 0f 9a 3e be
       -0.006726169 -0.16081843 -0.13947025 -0.18613456
000340 36 c0 d2 bd db 83 aa bc fa bf 68 3d c2 f7 8a bc
       -0.102905676 -0.020814827 0.056823708 -0.016963843
000350 61 34 3f be 73 94 19 be ab 98 c7 bd 49 ed d3 3d
       -0.18672325 -0.14998035 -0.09745916 0.10347993
000360 5c f8 f9 3c 8c ee ea bd 9a ce 00 bd 92 23 ed bd
       0.030513935 -0.114712805 -0.03144703 -0.1157905
000370 d4 d0 27 be 42 94 13 3d bf 68 09 be ea 25 bf bd
       -0.16388255 0.03603006 -0.13418864 -0.093334034
000380 8c f1 2a be 15 54 9b 3d 62 2e 04 3d 06 df 8e 3d
       -0.16693705 0.07584397 0.032270797 0.06976132
000390 7c f1 0f be dd 61 a4 bd 26 f7 07 be c4 af 5f 3c
       -0.14056963 -0.080264784 -0.13277873 0.013652746
0003a0 09 7a 92 bc 61 12 cb 3c aa 15 24 3e 68 2f 03 bd
       -0.017880457 0.024789037 0.16023889 -0.032027632
0003b0 53 12 b1 bd ed 1b 2d be 46 32 38 be e0 a7 4d be
       -0.08646073 -0.16905184 -0.17987928 -0.2008357
0003c0 33 27 f2 bc 24 af 12 be 41 5a 33 bd f5 28 1d be
       -0.029559707 -0.14324623 -0.043787245 -0.15347655
0003d0 f9 77 97 bd c7 c8 24 be ce 35 23 be 7d 7c 0f 3e
       -0.0739593 -0.16092215 -0.15938494 0.14012332
0003e0 5e c7 d9 bd 24 e6 17 3b f1 a7 f8 bd c1 aa d5 bd
       -0.106337294 0.0023177946 -0.12141407 -0.10432959
0003f0 1b 75 d3 bd 79 b4 13 be 48 26 3a 3e 97 af 2f be
       -0.103250705 -0.14424314 0.18178666 -0.17156826

lstm.weight_hh_l0 f4 [256, 64]
000000 14 33 be 3c 11 c2 38 bd b9 ce 89 3d 54 2b 03 3c
       0.023217715 -0.04510695 0.06728882 0.008005936
000010 91 93 0b 3e e1 c1 20 be 03 27 80 3d 50 88 7c bc
       0.13630511 -0.15698959 0.06257441 -0.015413359
000020 a2 22 c4 3d 00 67 4d 3e 2e 5d 6b bd c5 70 3e 3d
       0.09576918 0.20058823 -0.05746191 0.046494264
000030 f5 7a 71 bd 1d 14 10 be e2 b1 b2 3d 31 1f 8f bd
       -0.05895515 -0.14070173 0.08725335 -0.06988371
000040 65 9c f1 3d 5a 42 60 3d 7d 91 e1 3d 46 ff 94 39
       0.11797408 0.054750778 0.11014078 0.00028418953
000050 de c7 1b be 73 ed ac 3d a1 1c ed 3c fc 10 c5 bd
       -0.15212962 0.08443727 0.028944315 -0.0962238
000060 f1 c5 27 bc 10 79 da bc 4f b9 c6 3c 15 e4 5a bc
       -0.010240064 -0.026669055 0.024258284 -0.013360043
000070 20 54 5e bc 7e 06 88 bd 7c a0 2b be 31 77 1c 3e
       -0.013569862 -0.06641863 -0.16760439 0.15279843
000080 d7 7c 4f 3d 87 39 30 bd 69 1f 57 bd ec 46 6f 3c
       0.050656166 -0.043023612 -0.05252019 0.014604311
000090 4d 8c b9 bd 6c 3e 96 bd 55 2f b5 3d 2e 35 fa bd
       -0.090599634 -0.07336125 0.088469185 -0.122171745
0000a0 85 3d 00 be 4b a4 3b bd 38 27 80 3c 7a 90 a6 bb
       -0.12523468 -0.04581098 0.015643701 -0.005083141
0000b0 5a f7 29 3d ae c8 94 3c 55 c9 53 ba a4 a7 c9 bd
       0.04149566 0.018162098 -0.0008079012 -0.09846428
0000c0 f3 4f 67 bd a7 8c 76 3d f8 e9 bf bd 4d 90 a0 3d
       -0.05647273 0.06019273 -0.09370798 0.07840023
0000d0 ff 80 b0 bd 39 f0 21 bd de 2a 1d 3e 83 96 c0 3d
       -0.08618354 -0.039535735 0.15348384 0.09403708
0000e0 8f af a0 bd 9f 39 5a 3b d1 5e 1f 3e 30 52 80 3d
       -0.07845985 0.0033298505 0.15563513 0.06265676
0000f0 09 d4 06 3e 0b 4a 2a 3e c0 9b 71 37 ab 29 42 3d
       0.13166822 0.16629808 1.4400983e-05 0.04740302
000100 b2 34 0a be f6 ef 92 3c 54 d1 cc 3d 56 99 69 3c
       -0.13496664 0.017936688 0.10000864 0.01425775
000110 13 20 0c bd 93 8a 1f be 9c a0 f1 bd b4 73 9f bd
       -0.034210276 -0.15580206 -0.11798212 -0.077857405
000120 e0 78 3f bd ef 9a 30 3d 50 17 32 3d 28 72 8e 3d
       -0.046746135 0.043116506 0.043479264 0.06955367
000130 2a cd 01 be b1 ce 0f be a8 9e c5 3d 9a 62 1d bd
       -0.1267592 -0.1404369 0.09649402 -0.038424112
000140 cf 48 d3 3c 85 cf a2 3c a7 38 59 bd f3 0e 7b 3c
       0.025791554 0.019874344 -0.053032544 0.015323388
000150 53 29 7a bd 22 e2 dc 3c 5d 3f d9 bd 57 ce cb bd
       -0.061074566 0.026963297 -0.10607789 -0.099514656
000160 14 16 a3 bd 20 43 90 bc f5 99 23 3e 1e 5d 40 bc
       -0.079631954 -0.017610133 0.15976699 -0.011740951
000170 e4 44 2e bd c1 7d 8b 3b 5d 3f 7d bc ae d4 f3 3d
       -0.042546168 0.0042569344 -0.0154570015 0.119058
000180 84 87 2e 3d 50 1f 34 3d cf d8 25 be ef 7b 98 3d
       0.042609707 0.043975174 -0.16195987 0.074455135
000190 fc 65 c3 3d 5f ab fd 3c e0 1e 0b bd 70 6c 85 3d
       0.09540936 0.030965505 -0.03396499 0.065148234
0001a0 1f 97 bf bd 8f d4 e1 bd f4 fd 8e bd 4b 70 30 3d
       -0.09354996 -0.110268705 -0.069820315 0.04307584
0001b0 cf 8f c6 3d 41 23 97 3d 7b d9 8b 3d c6 2d 0b be
       0.09695398 0.07379771 0.068285905 -0.1359168
0001c0 f9 ff 8f bd ef c4 33 bd 81 79 94 3d 6c 7d f3 3d
       -0.07031245 -0.043888982 0.072497375 0.11889157
0001d0 b7 47 e0 bd fd 38 87 bd a5 7b 79 bd b4 c0 19 bd
       -0.109511785 -0.066026665 -0.060908932 -0.03753729
0001e0 45 dd 5a 3d 12 f2 a4 3c c4 8a 13 3e f2 8b b0 bd
       0.053433675 0.02013496 0.14408404 -0.086204425
0001f0 c0 81 08 3e e0 3f 30 bd 43 44 54 3d 5a ee 06 3e
       0.13330746 -0.043029666 0.051822912 0.13176861
000200 d6 8d e4 bc a7 b9 10 3e e0 ca 89 bd 19 dc a3 bd
       -0.027899664 0.14133321 -0.067281485 -0.08000965
000210 8d 23 c5 3d 71 cf 63 bd 4f 31 3e bd 8d 75 b9 bc
       0.096259214 -0.055617753 -0.046433743 -0.02263906
000220 48 86 ed 3d 06 d1 7c 3d 31 e9 81 3c 05 48 23 bd
       0.11597878 0.061722778 0.015858265 -0.039863605
000230 ea f9 cb bd 7a ac 7c bc a8 ef 7a 3d 5d b3 c0 bc
       -0.09959777 -0.015421981 0.06126371 -0.023523027
000240 a4 b8 2f bc 8a 69 76 3d 0e 39 2b 3d fb 22 26 3d
       -0.010725174 0.060159244 0.04180246 0.040560704
000250 2b 56 7b bd 94 d1 9f bd 71 72 14 be 18 a9 af bd
       -0.061361473 -0.07803646 -0.14496781 -0.08577174
000260 65 dc 0e be 1a a3 8d 3d 5d 2c de bb 52 e4 a1 bc
       -0.13951261 0.06915875 -0.006780191 -0.019762192
000270 e0 75 17 3e da f8 24 ba ae 3f 6b 3d 7d fc fa bc
       0.1479106 -0.0006293185 0.057433777 -0.030637974
000280 96 2c a3 bd 7c be 2b 3d fd 6a 05 be c4 15 6c bd
       -0.079674885 0.041929707 -0.13029094 -0.057637945
000290 9d 97 0a 3d e9 bc 8a bc fd 46 9a bd 7f 67 28 3d
       0.033835996 -0.016935783 -0.07533071 0.041114327
0002a0 b8 ec 8f 3d 93 46 cb bb b8 f8 e4 bc ec 8d c0 bd
       0.070275724 -0.0062034815 -0.02795063 -0.094020694
0002b0 eb 5f 8f bc 18 38 79 3d 76 81 af 3d 25 44 2e bd
       -0.017501792 0.06084451 0.085696146 -0.042545456
0002c0 d4 c1 ac bc 13 3e 25 3d 9d a9 f6 bd e6 03 de 3d
       -0.021088518 0.0403424 -0.1204407 0.10840587
0002d0 e9 53 c7 bd 32 fb e6 bc 8c f3 b7 3c 52 66 43 3d
       -0.097328015 -0.028195951 0.022455 0.047705002
0002e0 7e 75 b1 bc 8c 85 76 3d 94 d0 c2 3c dc 43 8b 3d
       -0.02166247 0.060185954 0.023781098 0.068000525
0002f0 62 80 1b 3e 16 ba 03 bd de e3 81 bd b2 4d 15 3e
       0.15185693 -0.032159887 -0.0634229 0.1458042
000300 ff 4e 39 3d af 8c 3b bd b6 45 ff 3b ae 1f 35 be
       0.045241352 -0.045788463 0.0077902926 -0.17687866
000310 8b f2 5c bd c8 79 02 bd 62 68 95 bb 3c 62 9f 3d
       -0.053942244 -0.03185442 -0.0045595625 0.077824086
000320 9a c8 a0 3c 09 5b 3e 3e de 42 ea bc 0c 18 a4 bc
       0.019626904 0.18589415 -0.028596338 -0.020030998
000330 f5 ea 31 bd a3 17 87 bc 00 59 af 3d 3e ea fb bc
       -0.043436963 -0.016490763 0.08561897 -0.030751344
000340 28 e7 bf 3d a4 b6 e0 bd 1c 43 c9 bd f1 ff e4 bc
       0.093702614 -0.10972336 -0.09827253 -0.027954074
000350 ec f0 87 3d 2b a4 2a 3e fd 68 82 3d a8 57 b3 3d
       0.06637749 0.16664188 0.06367681 0.087569535
000360 0a 1b e4 3d 91 c0 18 3d 36 e8 bd bc 93 fe eb 3d
       0.1113797 0.03729302 -0.023182016 0.115231656
000370 92 b5 8b bc 56 2f ec bd 1f ae c0 bd b6 5c a6 3d
       -0.017054353 -0.11532466 -0.09408211 0.08123152
000380 d0 37 13 3c b4 3c aa bd be 02 ee bd 4c 3e b2 3d
       0.008985475 -0.083123595 -0.11621617 0.087032884
000390 bb fe 39 bd 20 a2 2b bd d0 25 e2 3d c4 77 a0 bd
       -0.045408946 -0.04190266 0.110423684 -0.078353435
0003a0 27 2f 80 3d f4 57 9b 3d 53 7a 90 3d fd 18 b2 3d
       0.062589936 0.07585135 0.070545815 0.086961724
0003b0 ab e7 9c 3d 9b 73 5a 3d a5 a3 23 3d 00 46 3a bd
       0.07661375 0.053332906 0.039950985 -0.045476913
0003c0 81 27 c7 3d b3 15 84 3d 81 80 9f bd 54 f3 92 ba
       0.09724332 0.06449451 -0.07788182 -0.0011211433
0003d0 21 23 91 bd 12 e1 e9 bd d7 6f 76 3d f4 06 d5 3d
       -0.070867784 -0.11419882 0.060165253 0.10401717
0003e0 45 f7 0b 3e 9d 1a ab 3b 40 41 3b bd fb c6 dd bc
       0.13668545 0.0052216784 -0.045716524 -0.02707242
0003f0 fb 33 da 3c 52 1d e3 3c af 01 57 bb 31 78 b0 bd
       0.026636114 0.027723942 -0.00328074 -0.08616675

lstm.bias_ih_l0 f4 [256]
000000 8e 41 10 3d de d9 d0 bc c9 3c 32 bd f3 99 47 bb
       0.035218768 -0.025494512 -0.043515 -0.003045675
000010 f1 02 78 3d 40 8a 7b bd 7d 6f ed 3d fa ea 30 bd
       0.06054968 -0.061411142 0.1159353 -0.04319284
000020 85 01 8b 3d 83 22 32 3e 07 81 05 bd 15 25 46 bd
       0.06787399 0.17395978 -0.032593753 -0.048375208
000030 9e 46 a5 bd aa b3 ba bc 84 14 83 bd 22 22 b4 bd
       -0.0807011 -0.022790749 -0.064003974 -0.08795573
000040 25 18 45 bd c4 01 16 bd 0b de d3 3d f3 8e b1 3b
       -0.04811873 -0.036622778 0.10345086 0.005418652
000050 23 8a 48 3d f8 32 01 3c e4 a6 33 3d 5b b3 9a 3d
       0.048959862 0.007885687 0.04386033 0.075537406
000060 b7 2f 8a b9 62 0e 4e 3c b6 5e 09 3d 70 97 11 3e
       -0.00026356961 0.012576671 0.03353759 0.14217925
000070 3d 76 5d bd 1c 58 0f 3e 04 18 cf 3b 86 4b e6 3d
       -0.05406784 0.13998455 0.0063200016 0.11244874
000080 5a 68 e2 3d 2f 66 db bc 48 2b b8 3c 82 77 ab 3d
       0.1105506 -0.026782123 0.022481576 0.08372404
000090 88 d8 6f bc 6a 52 8d 3d 5b a7 e3 3d e9 64 71 3c
       -0.014639027 0.06900485 0.11115905 0.0147335315
0000a0 b7 a8 19 bc b0 5c fc 3d cb 95 14 3e d2 56 05 3e
       -0.009378604 0.12322366 0.14510266 0.130214
0000b0 1d ce be bd a5 23 db 3d 52 a8 a9 3d 3c 8e 5f bd
       -0.09316657 0.10700158 0.08284058 -0.054579005
0000c0 14 52 e6 3d c3 40 09 bd 5b 23 66 3d fc bb 24 3d
       0.11246124 -0.033509027 0.05618606 0.04021834
0000d0 55 80 88 3d 2d 01 2a bd 08 34 f2 3b 77 1d f5 bc
       0.066651024 -0.041505028 0.0073914565 -0.029921276
0000e0 51 46 9d 3d 47 b0 84 bd 95 b3 04 3d 9f 2c c8 3c
       0.076794274 -0.06478935 0.032397825 0.02443534
0000f0 c8 65 cb 3c 18 68 49 bc 0e dd 8b 3d b3 8a 0a 3d
       0.024828807 -0.012292884 0.06829272 0.03382368
000100 5e 35 1a bd 41 85 4b 3a d7 b8 09 bc ad b3 ce bc
       -0.03764855 0.0007763692 -0.008405886 -0.02523216
000110 7d 53 ee ba 92 dd ce bb a9 1d 8a bd 90 7d 83 bd
       -0.001818284 -0.0063130343 -0.067439385 -0.064204335
000120 6e c1 3c bd 5b 4a d5 3b ce 5d f0 3d 7a e5 b9 3c
       -0.046082906 0.006509108 0.11736642 0.02269243
000130 a7 da aa bd b5 94 7a bd 61 b1 1f 3d 04 1a 17 3e
       -0.08342486 -0.061176974 0.03898752 0.14756018
000140 80 57 c5 bd 62 05 da 3d 4b 71 d7 3d a6 7f 67 3d
       -0.0963583 0.10645558 0.10519656 0.05651822
000150 c4 aa cf 3d 53 4b b3 3d 58 c7 a0 bd d9 59 20 bd
       0.10139993 0.08754601 -0.07850522 -0.039148185
000160 b9 57 55 bd 1f 0e 2f bd b8 ed cf 3c 19 46 6a 3d
       -0.052085612 -0.042738076 0.025381908 0.057195757
000170 03 88 1b 3d 3b 36 c1 3d 19 17 1c bd 77 dc 06 3e
       0.037971508 0.09434172 -0.038107965 0.13170038
000180 37 86 d3 bc 31 ed 95 3d d1 4f 10 3e 87 28 ea bd
       -0.025820835 0.07320631 0.14092948 -0.11433511
000190 e0 82 ef bd 6c 62 0c 3e 59 b6 b4 3d 34 74 e6 3c
       -0.11694884 0.1370942 0.088238426 0.028131582
0001a0 5f a1 7e 3d e2 ca 49 3d c5 44 8f 3a 06 28 9e 3d
       0.062165614 0.04926575 0.0010930529 0.077224776
0001b0 68 dc 8e 3d 46 93 bc bd 62 4c 3c bc 71 f0 2e bd
       0.06975633 -0.09207778 -0.01149282 -0.04270977
0001c0 3b 59 b0 3d b1 9f ad bd fc 3c f1 bd 1e ee 9d bd
       0.08610769 -0.08477724 -0.1177921 -0.07711433
0001d0 2e dd 7a bc 75 fe 73 bd 67 8e 69 3b c9 cd 49 bc
       -0.015311522 -0.05956884 0.0035637857 -0.012317129
0001e0 40 c8 c2 3d 2b 3b 18 3e bb dc 95 3d 47 8a 86 bd
       0.09510851 0.14866321 0.073174916 -0.06569343
0001f0 7c 34 a6 3d 61 6e 9c bd d5 9d 24 3c fb dd d6 ba
       0.08115479 -0.076382406 0.010047396 -0.001639306
000200 8c e0 e6 bd 4a 35 0a 3e b7 22 fa 3d 3e 2f 4d 3d
       -0.11273298 0.1349689 0.122136526 0.05009388
000210 4b 90 a7 3c 54 d9 07 3e 34 cf 6a bd 44 5b 40 3d
       0.020454546 0.13266498 -0.05732651 0.046962038
000220 30 28 39 bd 02 52 a9 bd 46 a5 d9 bd 51 b0 b3 3d
       -0.04520434 -0.08267595 -0.106272265 0.08773864
000230 74 c8 85 bd 3e 37 ae bd 6e ec 07 3e 58 93 93 bd
       -0.06532374 -0.0850663 0.13273785 -0.07205838
000240 96 07 81 3c 35 a1 ce bd 65 95 6c bd 68 0b 13 3e
       0.015750688 -0.100893416 -0.05775966 0.1435982
000250 a6 66 7a 3d 2a f3 3c 3c 52 c2 9e bd 74 77 1d 3d
       0.06113305 0.011532584 -0.077519074 0.038443998
000260 41 4c a9 3d e1 0d f6 3c 04 3c 70 bd 63 ce f3 3a
       0.082664974 0.030035915 -0.058650985 0.0018600937
000270 68 96 b1 3d 5a 73 12 3d 1c f1 d6 3d f4 c6 e0 3d
       0.08671266 0.03575454 0.10495207 0.10975447
000280 39 59 c5 3d 6a 47 68 bd 43 c5 82 bc 1a 6a 24 bd
       0.096361585 -0.05670873 -0.015963202 -0.04014025
000290 10 f3 08 bd 10 9d 79 3c f3 29 7b 3d d0 c2 96 bd
       -0.033434927 0.0152352005 0.061319303 -0.07361376
0002a0 34 9d 50 bd ed 29 f4 bd 46 0b 24 bd cf c7 a0 3d
       -0.05093117 -0.11922059 -0.040049814 0.078506105
0002b0 f0 1a 0e 3e 1d 95 6e 3c 11 dd a6 3d e6 e3 0c be
       0.13877463 0.014561919 0.08147634 -0.13758811
0002c0 75 ae 11 bc a5 82 43 bd 57 66 ea bc 3f d1 fc 3d
       -0.008891691 -0.047732014 -0.028613253 0.12344598
0002d0 c4 56 98 3d 1f d4 e4 bd 48 3f b8 bd 0d d0 c8 bd
       0.07438424 -0.111732714 -0.08996445 -0.098053075
0002e0 57 db 7f 3d 5c a2 62 3d aa d7 a6 3d 0f 91 9c 3d
       0.06246504 0.05533062 0.081466034 0.07644855
0002f0 a7 75 94 bd 89 bd ee 3c a6 05 f0 bd aa 5c 34 bd
       -0.07249003 0.029143112 -0.11719827 -0.044033684
000300 74 6e 25 3d b2 14 c1 3c cb 31 9f bd c9 b9 2a 3d
       0.04038854 0.023569439 -0.07773169 0.041681085
000310 4f 66 6f 3d ba 4a 11 3e c1 01 ee bc 49 5c fb 3d
       0.05844718 0.14188662 -0.02905357 0.12273461
000320 10 71 1d 3c 7e 3d 2e bd b6 94 08 3e 46 3a 3e 3c
       0.009609476 -0.042539112 0.13337979 0.011610573
000330 7c 05 39 bd c2 76 79 3c 68 19 04 3e 83 44 48 bc
       -0.045171246 0.015226068 0.12900317 -0.012223366
000340 00 d5 34 bc 74 07 bf 3c 18 28 ae bd df bb a2 3d
       -0.011037111 0.023318984 -0.08503741 0.0794599
000350 89 6d 18 3e 3b b9 c8 3d 39 07 dc 3a 47 a4 34 bc
       0.14885534 0.09800955 0.001678682 -0.011025495
000360 db 87 0f be cc b5 6e bd c8 fa c2 ba 95 0a d1 3d
       -0.14016668 -0.058278844 -0.0014875764 0.102070965
000370 b0 6f 17 3e 9c 5b 9c 3c 4a 06 dd 3c ef bd ef 3d
       0.14788699 0.019086652 0.026980538 0.11706149
000380 e4 a9 6a bc 29 2d ed bd 66 62 c9 3d 0f c7 6c bd
       -0.014322732 -0.11580879 0.09833221 -0.057807025
000390 69 3c a9 bd a9 87 1e 3d f4 d6 bd bd 4c 64 3f bd
       -0.082634754 0.038703594 -0.09269515 -0.04672651
0003a0 3c 31 d7 bc c6 e2 d7 3c 90 01 a0 3d 5c e7 13 bd
       -0.026268594 0.026353251 0.07812798 -0.036109313
0003b0 5c da be bd 28 af 3c bc 3a fe 0d 3e 93 1d 38 3b
       -0.093189925 -0.01151637 0.13866511 0.00280938
0003c0 8f 4a 4d bd c5 5c 9a bb 07 b5 d3 3d 27 d7 74 3d
       -0.050119933 -0.004710766 0.103372626 0.059775498
0003d0 12 eb 4f 3c 9b b1 21 3e 37 76 5d 3d e8 36 6b 3d
       0.0126903225 0.15790407 0.054067817 0.05742541
0003e0 2f d7 04 3e 56 8e 01 3d 96 56 92 3b 07 59 9c 3d
       0.12972711 0.031629883 0.0044658883 0.07634168
0003f0 eb 1f 9a 3d 2a 46 5f bd 15 da 02 3e 14 c4 ea bc
       0.07525619 -0.054510273 0.12778504 -0.02865795

lstm.bias_hh_l0 f4 [256]
000000 cf 7d 9b bd 96 b8 11 3e b1 5c 8d bd ca 32 39 bc
       -0.075923555 0.1423057 -0.06902445 -0.011303613
000010 31 38 bd bc a7 91 d7 3c 72 a5 45 bc 4c 36 02 3e
       -0.023098083 0.02631457 -0.012063371 0.12716025
000020 d0 61 01 3e d0 57 7c bd c1 16 bf bd e5 74 b2 bd
       0.12634969 -0.061607182 -0.09330512 -0.08713702
000030 54 7a b4 3d ac 0a 6d 3c ac 2f 49 bd 73 8a 41 bd
       0.08812395 0.014467876 -0.04911773 -0.047251176
000040 2d f5 04 3d 86 7a 2e 3d 7f f6 88 3d d9 b4 02 3e
       0.03246038 0.042597316 0.066876404 0.127643
000050 bc 06 15 3e fd 5c 14 bd b3 8f 91 3c 6f 05 82 bd
       0.1455335 -0.036221493 0.017768716 -0.063486926
000060 9f a3 89 bd 75 42 01 3d 20 ae be 3d 27 9c 02 bd
       -0.06720661 0.03155752 0.093105555 -0.0318872
000070 41 19 29 bd 3b 1f 81 bc 6a a1 af 3d 82 7e db 3c
       -0.04128385 -0.015761962 0.08575709 0.026793722
000080 40 f9 db 3d b4 17 13 be eb 52 85 3d ca e5 bb 3d
       0.107409 -0.14364511 0.06509956 0.09174688
000090 e6 d7 a6 3d 44 e5 97 bd e1 27 bc bd a1 48 29 3d
       0.08146648 -0.07416776 -0.09187294 0.04132903
0000a0 5c 59 10 3d 3d 57 ce 3d a3 fb 09 3e 9d 53 0a 3b
       0.03524147 0.10075233 0.13474898 0.0021106966
0000b0 9b e0 43 bc 5d 22 be 3d f8 a2 74 bd 62 6d 02 bd
       -0.011955406 0.09283898 -0.05972573 -0.031842597
0000c0 97 3e 3d 3d fb 3b 4e 3c d8 67 86 3d b4 89 9b 3b
       0.04620227 0.012587543 0.065627754 0.00474664
0000d0 62 fb 25 3d d6 19 91 3d 8d fc aa 3c 37 86 0d bb
       0.04052294 0.07085006 0.020872379 -0.002159489
0000e0 77 65 b1 3d a1 56 d5 3d 59 7b 95 3b 38 c3 d4 bd
       0.08661931 0.10416914 0.0045618233 -0.103887975
0000f0 12 0e 59 bc b8 f0 e4 3d 1c 4a e7 3d 53 bd 89 bc
       -0.0132479835 0.11178726 0.11293432 -0.01681391
000100 6a fa cb 3d 45 c3 a3 3c fd 3b 3e 3c 93 6c 5e bc
       0.09959872 0.019990573 0.011610982 -0.013575691
000110 f7 d4 a4 ba 68 95 d1 3b f4 87 0e 3d 71 8f a7 bd
       -0.0012575676 0.0063959844 0.034797624 -0.08181656
000120 5c 06 e5 3c ee 1c 83 bd 42 42 ca bd 13 39 b1 bd
       0.027957134 -0.06402002 -0.09875919 -0.08653464
000130 3a 17 15 bd 87 8d 6b 3d 22 b7 fb 3c da c9 90 3d
       -0.036399104 0.057508018 0.030726973 0.0706975
000140 b7 32 19 bd e0 ef 94 bd d1 3b 09 bd fc 51 86 bd
       -0.03740188 -0.07272315 -0.03350431 -0.06558606
000150 b6 18 c0 3c 2c 03 9d 3d dc 7e 45 3d 86 98 d2 bd
       0.023449283 0.076666206 0.048216686 -0.10282998
000160 d0 5d c4 3d f2 d3 0e 3e 6d 92 da bc af ec 9a bd
       0.09588206 0.13948038 -0.02668115 -0.07564675
000170 d6 c7 54 3d 9c a1 5e 3d f1 f4 0b 3b 83 e1 fc bc
       0.05194839 0.05435334 0.0021355713 -0.030869251
000180 b7 17 0d 3d ad 24 d3 bd 94 77 1b bd 95 85 e3 3c
       0.034446444 -0.1030973 -0.037955835 0.027773658
000190 fc 0e 8b 3c 9d 16 c2 3d c3 53 ca 3d b4 0e 25 3d
       0.016974919 0.094769694 0.098792575 0.040297225
0001a0 3a 5a a1 3d 6d ea f5 3d e5 b3 1f bd 20 fd c1 3d
       0.078785375 0.12007604 -0.03898992 0.09472108
0001b0 0e f3 e7 3d 30 86 9d bc d9 2c f7 3d 72 2c d3 bc
       0.11325656 -0.019229025 0.12069101 -0.02577803
0001c0 d7 d5 de bc 1e c4 04 3e 58 0c 43 3d b3 22 c5 3c
       -0.027201576 0.12965438 0.047619194 0.024064397
0001d0 39 a6 91 bd 80 73 dd 3d 9d 5d 72 3d 9c 7c 81 bc
       -0.071117826 0.108130455 0.059171308 -0.015806489
0001e0 84 7a 25 3c 75 66 04 3e 5b ed 9e 3d 52 eb 98 bd
       0.010100011 0.1292971 0.07760116 -0.07466759
0001f0 13 11 ec 3c aa c5 58 bc fb cb 1e 3e 45 74 aa 3d
       0.028816735 -0.013230721 0.155075 0.08322958
000200 32 77 6b bc d8 3a 4b 3b 68 29 50 bd 7e 50 11 bd
       -0.01437168 0.0031010415 -0.050820738 -0.035477154
000210 11 4d bc 3c 38 c0 e1 bd be b4 c9 3b f9 2b 0b 3e
       0.022985967 -0.11022991 0.0061555794 0.13590993
000220 50 64 4f 3d ce ad 26 3a ff 1f 1a bd 12 e8 20 3b
       0.050632775 0.00063582964 -0.03762817 0.0024552387
000230 56 fa a7 bd fa b1 b7 bd b5 e8 57 3d 49 1c 34 3d
       -0.08202045 -0.08969493 0.05271216 0.043972287
000240 32 4b 96 3d 8a ce 67 bd 03 c8 4f 3d 63 16 1f bd
       0.07338561 -0.056593455 0.050727855 -0.03883971
000250 26 3f c9 bd 56 cc 2a bd 3f 3b cd bd 02 ec 07 bd
       -0.09826498 -0.041698776 -0.10021066 -0.03318406
000260 f3 d2 7a bc 01 82 ae 3d e9 99 b2 3d 59 96 b3 3c
       -0.015309083 0.0852089 0.08720762 0.021922277
000270 cd a6 97 3d 08 ce 19 3d 22 c0 00 be d9 1e 78 bd
       0.074048616 0.037550002 -0.12573293 -0.060576294
000280 ef 52 8d bd f5 0b 2d bd aa c4 81 3c 66 40 5b 3d
       -0.06900584 -0.04224773 0.015840847 0.053528212
000290 e5 29 c2 3d 4d 9a 95 bd 8e d9 0f 3c 56 bc a3 3d
       0.09480647 -0.07304821 0.008779896 0.079949066
0002a0 d6 97 58 3c 71 65 01 be 72 cc 34 bd 1f 9a 5f 3d
       0.013219794 -0.12636353 -0.044140287 0.05459034
0002b0 80 28 3d 3d af 3a fa 3d 03 cc d5 3d 42 97 b1 bd
       0.046181202 0.12218224 0.10439303 -0.08671428
0002c0 02 fd b5 3d 04 49 0b be 99 16 2c bd 3a 40 6f 3d
       0.08886148 -0.13602072 -0.04201374 0.05841086
0002d0 fe e3 00 39 9e 96 cd 3d 6a 8b c8 3d a1 6b 87 bd
       0.00012291965 0.100384936 0.09792216 -0.066123255
0002e0 43 eb 0e 3e fe db bf bd f6 0e 24 3d 84 7c a1 3c
       0.13956933 -0.09368132 0.04005333 0.019712694
0002f0 21 82 d7 3d aa 49 10 3e 09 21 0d ba 06 29 20 bd
       0.10522867 0.140906 -0.0005383646 -0.039101623
000300 a1 0a 0f 3e 63 0b f7 3d 26 b2 ac 3c cc 6e 08 3e
       0.13968898 0.12062719 0.021081042 0.13323516
000310 da 87 95 3c 12 ed 9a 3c d3 8b 31 3d 7b eb 1d 3d
       0.018253256 0.018911872 0.043346237 0.03855465
000320 02 76 19 3b 53 5b 8a 3d e5 1e c8 3c a4 31 37 bd
       0.0023416285 0.067557 0.024428794 -0.044725075
000330 55 9e dc bd 68 9d 9e 3d a4 74 04 bd 63 1d 35 3d
       -0.10772387 0.077448666 -0.0323378 0.04421748
000340 c2 b9 07 3e ba b4 dd 3d 4c ae 87 3d af 38 c7 3d
       0.13254455 0.108254865 0.06625041 0.097276084
000350 65 55 03 3e 82 0d fe bc 00 9c 17 3e 77 5d a2 bd
       0.12825544 -0.0310123 0.14805603 -0.07927983
000360 af 0c ca bd 9b 55 33 bc 51 ab 1e 3e 83 6e d2 3d
       -0.098657005 -0.010945703 0.1549504 0.10274985
000370 9c 81 88 3d 35 73 cd 3d cf ad a4 bd a9 94 b3 bd
       0.06665346 0.100317396 -0.08040964 -0.08768589
000380 36 3a 50 3d ec 87 84 bd 95 ed b2 3d 31 64 bd bd
       0.050836764 -0.064712375 0.087367214 -0.092476256
000390 4d 75 ff 3d df 43 92 bd b8 e8 5d 3d 4a d4 ee 3d
       0.12473545 -0.07141852 0.054177016 0.11661585
0003a0 f8 e1 c7 bc b0 33 17 3e 9e 31 d0 3d 84 85 29 bd
       -0.024399742 0.14765811 0.10165714 -0.041387096
0003b0 b2 5a f7 bc 3b bb 01 3e 1d 7e 09 bc bd 68 23 3d
       -0.030194614 0.12669079 -0.008391884 0.039894808
0003c0 c5 97 c9 3d fc 9d cd 3d 11 09 93 bd 82 26 09 3e
       0.09843401 0.10039899 -0.07179464 0.13393596
0003d0 22 83 8b 3d ba 5c 9b 3d ad 7c 8a bc 57 11 c2 3d
       0.06812121 0.075860456 -0.016905153 0.094759636
0003e0 ab 3f 13 bc 5d 4c 08 3e 9f 81 b9 3d 21 b3 88 3d
       -0.008987348 0.1331038 0.090579264 0.06674791
0003f0 e3 d8 98 3c a8 55 ea 3d 24 64 13 3e 49 d6 52 3d
       0.018658107 0.11442119 0.1439367 0.05147389

fc1.weight f4 [32, 64]
000000 98 29 0e bd 09 b4 62 bd ca 48 b3 bc 47 09 27 3d
       -0.034707636 -0.055347476 -0.021885294 0.040780332
000010 ae 17 83 bd 37 f7 aa bd 77 e5 4a 3d 90 22 17 bd
       -0.06401001 -0.08347934 0.04953524 -0.036898196
000020 1c 68 8c bd b6 29 d9 3c 8a 46 09 3d 8b 92 ad bd
       -0.06855795 0.026509147 0.033514537 -0.084752165
000030 24 70 16 3d 26 47 fe bd be d2 a8 3d 1f 90 cd 3d
       0.03672804 -0.12415914 0.08243321 0.100372545
000040 30 84 82 3d 54 11 d2 3d 38 c7 0b 3c 7d ae 81 bc
       0.06372869 0.10257211 0.008531384 -0.015830273
000050 54 1b f0 3b b5 04 92 3d 70 05 a4 bd b9 ed d2 bd
       0.0073274765 0.07129804 -0.080088496 -0.10299248
000060 3b 9f 65 bd b9 eb a1 3d 5f 28 a8 3d 03 1f 00 bd
       -0.056060057 0.07906289 0.08210825 -0.031279575
000070 ed 28 09 3e 7e c7 10 be db ac 38 bd a3 61 69 3d
       0.13394518 -0.141386 -0.045086723 0.05697788
000080 ac 9f e5 bd c1 31 f7 3d a2 3b d8 bd 29 e5 ae 3d
       -0.112120956 0.12070037 -0.10558249 0.085398026
000090 97 5b 46 3d 64 9d 36 bd cb a1 f0 3d 19 89 38 bd
       0.04842719 -0.044583693 0.117496096 -0.04505262
0000a0 5e dc d3 bb df b5 c0 3d 6f 1e e7 bd 25 2d fb 3d
       -0.006465479 0.09409689 -0.112851016 0.1226447
0000b0 1e ac 06 bd 98 7b 9c bd 8f 13 ba 3d 74 9f 7c bd
       -0.032878987 -0.07640761 0.09085762 -0.061675504
0000c0 10 0e 98 bd b6 ae b0 bd b2 19 9b 3d 56 fe a3 3d
       -0.07424557 -0.086270735 0.0757326 0.08007495
0000d0 3a 43 4e bd 81 bc 1a 3d 81 e0 81 3d 18 e1 2d bd
       -0.05035708 0.037777428 0.06341649 -0.042450994
0000e0 3c db 15 3d 5e 16 78 3d f0 ae 71 3c 67 9e 0d bd
       0.03658603 0.060568206 0.014751181 -0.034574892
0000f0 20 61 1e 3e 5a 3b 24 bc 28 b4 51 3e de c0 22 3e
       0.15466738 -0.010023916 0.2047888 0.15893885
000100 40 ca ea 3d ee 93 9f 3c 16 95 a6 3c ab b0 3b 3d
       0.114643574 0.019479718 0.020334762 0.04582278
000110 92 a3 03 be 0c 49 11 bd 7d 35 64 bd d9 27 03 bd
       -0.12855366 -0.035470054 -0.055715073 -0.032020424
000120 ce e3 9b bd a2 b9 e3 bc 27 f9 91 bd 09 f9 d5 bd
       -0.0761181 -0.027798478 -0.071276 -0.1044789
000130 e1 7d 7f 3d 6b e1 0a 3e b0 5c 84 bd 7a e9 c4 bd
       0.062375907 0.13562553 -0.06462991 -0.096148446
000140 f7 7c 64 bd f6 06 09 bd 79 f7 0a be 50 c0 c4 3d
       -0.05578324 -0.033453904 -0.13570966 0.09606993
000150 b1 93 c9 3d cf 5d a2 3d 8d cb 50 bd 22 41 8c bd
       0.09842623 0.07928049 -0.05097537 -0.068483606
000160 a5 dd 07 3e cd 99 b6 bd 1a 00 f3 bd 24 42 f1 bd
       0.13268144 -0.08916054 -0.11865254 -0.117801934
000170 9e 69 c8 3c 43 d8 3b bb 33 59 80 bd 39 58 be 3d
       0.024464425 -0.0028662838 -0.062670134 0.09294171
000180 1b c4 63 bd 1b ab ad bb 06 69 9b 3d 33 ff 98 3d
       -0.055606943 -0.0052999384 0.07588391 0.074705504
000190 0a 03 ba 3d be 36 f2 bc 6e 94 4d 3d 7f 4b 71 3b
       0.09082611 -0.029567119 0.05019038 0.003681868
0001a0 f3 fd f6 3c ca bb 74 bd 00 d8 7d 3d 37 d2 6f 3c
       0.03015039 -0.059749402 0.06197357 0.0146375215
0001b0 78 19 3b 3c de c8 bd bc a6 4d 17 3d eb 60 db bd
       0.011419646 -0.02316707 0.036939286 -0.10711845
0001c0 dc 0f b5 3d 7f 8d e4 3d cb 21 a6 3d ce 20 94 bc
       0.088409156 0.11159801 0.08111914 -0.018082049
0001d0 74 cb d2 bd 82 0b a5 bc 8d 6c e9 bd c1 d9 97 bd
       -0.10292712 -0.020147089 -0.113976575 -0.0741458
0001e0 59 fa ab 3d 7f 0d 58 ba 95 0c e3 3d 98 76 57 bd
       0.083973594 -0.0008241757 0.11086384 -0.052603334
0001f0 c0 d6 92 bd c3 d1 e8 bd 1a 08 0d 3d 8b aa 05 3d
       -0.071698666 -0.11368134 0.034431554 0.032633346
000200 fd 1b 0a 3c 68 a0 24 3e 81 46 dd 3d 1d 7f 2d be
       0.0084295245 0.16076815 0.10804463 -0.16943021
000210 78 81 4b 3d 95 5a 78 3d 58 cb 3f 3d 92 7a d0 3d
       0.049684018 0.06063326 0.046824783 0.101796284
000220 c1 9a 8c bb e7 97 bb bd 74 2f 90 3d b8 66 6d 3c
       -0.004290909 -0.091598324 0.07040301 0.014489822
000230 7d 95 3a 3d 95 41 ad bd 46 56 4c b7 c2 57 ce 3d
       0.04555272 -0.084597744 -1.2179435e-05 0.10075332
000240 ca 5e 2a 3e 33 3e a2 bd a9 6a 95 3d 52 d8 c5 3d
       0.16637722 -0.0792202 0.072957344 0.096604005
000250 e8 85 97 bd 2e 12 a9 3d 03 a4 15 bc e4 45 e5 3d
       -0.073985875 0.082554206 -0.009133342 0.11194971
000260 42 ba 3a bd 1e 20 1a 3e 75 36 2e 3d 5a 3e d0 3d
       -0.045587786 0.15051314 0.042532403 0.101681426
000270 67 c6 4c bd 5a 2d 48 3d 77 d8 4d 3d 7f 6c ad 3d
       -0.0499939 0.048871376 0.050255265 0.084679596
000280 7a fe 4e bd 12 a8 62 3b a9 e5 13 be 9c 1c 79 bd
       -0.050535657 0.003458504 -0.14443077 -0.0608183
000290 3c a8 05 3e ad 2a a3 bd dd c6 2d 3c 2d 11 08 be
       0.13052458 -0.07967124 0.010606495 -0.13287802
0002a0 a5 c9 2d be bb 93 d2 bd 6e 07 92 3c d5 23 55 bd
       -0.16971453 -0.102820836 0.017825808 -0.052036125
0002b0 bb cd 34 bd bd bc 44 bd 51 af 3e 3d 26 0c ac bd
       -0.044141512 -0.048031557 0.046553914 -0.08400755
0002c0 b0 da 13 3e ad fe 30 be a1 78 19 be 52 b7 6c 3c
       0.14438891 -0.17284651 -0.14987423 0.014448004
0002d0 19 30 a0 3d 55 f8 76 3d 2a 0a 02 3d 26 d0 08 bc
       0.07821674 0.06029542 0.031747974 -0.008350408
0002e0 28 e2 74 3d 69 d7 44 bd 15 81 7f 3d 2a a7 4f bd
       0.059785992 -0.048056994 0.06237896 -0.05069653
0002f0 3c 52 49 3d 96 7e 9d 3d b1 e5 be 3d ce 78 35 bd
       0.04915069 0.0769016 0.09321154 -0.04430466
000300 1e 97 a1 bd e5 19 f0 3d 32 77 e7 3d 04 bd 2d 3c
       -0.078901514 0.11723689 0.113020316 0.010604147
000310 95 19 cd 3b 45 e6 82 bc ae f4 af bd f1 c3 24 3e
       0.006259153 -0.015978942 -0.08591591 0.1609037
000320 5c 16 00 3e 3e a0 cf bd 29 63 50 3c a9 e8 36 3e
       0.1250853 -0.10137986 0.012718954 0.1786219
000330 f4 14 56 3c b0 61 1d be 51 4f 04 3e ab be 84 3d
       0.013066519 -0.15369296 0.12920882 0.064816795
000340 9c fb 83 3c 9f c4 ec 3b 2b 37 dd 3d 0a a5 de 3d
       0.016111188 0.0072255875 0.10801538 0.108713225
000350 6a eb 1a be 14 2a e5 3d 1f 19 05 be 80 ac eb bd
       -0.15128866 0.111896664 -0.12997864 -0.11507511
000360 1c f4 26 bd 19 da f5 3d 8c b3 1a 3e 9f 60 b3 3d
       -0.040760145 0.120044895 0.15107554 0.087586634
000370 88 a0 07 3e 8a 19 19 be f2 23 f1 bd c2 e1 92 bc
       0.13244832 -0.14951149 -0.11774434 -0.017929915
000380 39 62 1e be 2e 77 d5 bd 03 67 0d be 26 5e 96 bd
       -0.15467156 -0.10423122 -0.13808827 -0.07342176
000390 7e 3c 59 3d 41 6f fd bc 7f 93 10 3d d6 d4 9e bd
       0.053036205 -0.030936839 0.035296913 -0.07755439
0003a0 65 4d 41 bd ec 16 29 be b1 a8 b0 bd 29 0f 80 bd
       -0.04719295 -0.1651265 -0.08625925 -0.062528916
0003b0 1e 35 13 3e c6 e1 67 3d d7 aa 6c bd b3 86 cc bd
       0.14375731 0.0566118 -0.057780113 -0.09986629
0003c0 f2 47 4d 3d 2f cf 0a be 57 8b 8e 3d 1e 74 11 3e
       0.05011744 -0.13555597 0.06960171 0.14204451
0003d0 58 fe 9c bc b2 49 9a bd 6e 47 00 3e ad 8e 05 3d
       -0.01916425 -0.075335875 0.12527248 0.03260677
0003e0 96 2a 58 3d 26 8d 1e bd 6b b0 5f bd 8f 09 4b 3d
       0.052774988 -0.03870883 -0.054611605 0.049569663
0003f0 82 84 d4 3d 60 b6 05 3e df 05 9d 3c 2c 15 08 3e
       0.10376836 0.13057852 0.019167839 0.13289326

fc1.bias f4 [32]
000000 37 56 dd 3d 9a 90 de bd 5a 58 d6 3d 59 84 bd 3d
       0.1080746 -0.10867424 0.104660705 0.09253759
000010 e4 ba 1f 3d a7 58 4a bd be 55 85 bd 07 98 b1 bc
       0.038996592 -0.04940095 -0.06510495 -0.021678938
000020 2a e9 2d bd 0a 5d c8 3d fd d5 c4 bd 38 33 d0 3d
       -0.04245869 0.09783371 -0.096111275 0.10166019
000030 a3 b4 4f bd d3 96 6e 3d e5 75 48 3d 68 2e 9c bc
       -0.050709378 0.058249306 0.048940558 -0.019065097
000040 83 0a e1 3b 84 b8 b7 bd 04 58 83 3d 8f ec b5 3d
       0.006867708 -0.089707404 0.06413272 0.088830106
000050 20 35 bf bd 05 b0 a5 3d a9 ff ff bd 5f 6c 0d 3e
       -0.09336305 0.08090214 -0.12499935 0.13810872
000060 94 13 69 bd 7a 2f f3 bd 12 c6 c9 3d c8 25 b8 3d
       -0.056903437 -0.1187429 0.09852232 0.08991581
000070 e3 41 22 3d fc 82 81 3d 60 99 8d bd 5a 37 ed 3d
       0.039613616 0.063238114 -0.069140196 0.11582823

fc2.weight f4 [32, 32]
000000 62 83 1a be f8 f4 46 bd fe ed b6 bd 30 01 d3 bd
       -0.15089181 -0.048573464 -0.08932112 -0.10302961
000010 c9 3d 05 3e 66 c4 06 3e ca 14 ba 3d d2 74 2b 3e
       0.1301185 0.13160858 0.090859964 0.16743782
000020 3d 09 df bd 57 6e 68 bd d0 1e 89 3a cd 12 9b 3b
       -0.10890434 -0.056745853 0.0010461453 0.004732466
000030 56 ea e6 3d f2 88 31 3e b5 36 8a 3e c8 b6 14 be
       0.11275165 0.17337397 0.26994863 -0.1452285
000040 8b e1 20 3e d5 f8 ea 3d 41 2a a3 bb dd 86 cf ba
       0.15711038 0.11473242 -0.0049794023 -0.0015833039
000050 b0 ca 00 bd d9 13 a7 bd ce 23 9c bd 35 39 89 3e
       -0.031443298 -0.081580825 -0.07624017 0.26801458
000060 02 c4 e6 bd 6c c6 0e 3d 42 54 16 3d ec 6c e3 3d
       -0.11267854 0.0348572 0.03670145 0.111047596
000070 4e 5b cf bc 3b 96 05 3e 73 26 31 be 94 39 00 be
       -0.025312092 0.1304559 -0.17299823 -0.12521964
000080 6c 4f 1d be 20 d5 a6 bb 42 e5 df bd 2e a2 f1 3d
       -0.15362328 -0.0050913244 -0.10932399 0.117985114
000090 49 1c ac bd 20 3b 76 3c e9 08 19 3e f2 66 32 be
       -0.084038325 0.015028745 0.14944805 -0.17422083
0000a0 de 57 95 3d 08 32 1a be 06 70 af 3d ac bb 3d bd
       0.0729215 -0.15058148 0.08566289 -0.046321556
0000b0 48 52 1b be 18 a2 ee 3c 70 7c 53 3c 10 e6 7b 3d
       -0.15168107 0.029130027 0.012908086 0.0614987
0000c0 06 18 d9 3d 70 7e 95 bc 9a e4 a7 bd 67 ea 30 3e
       0.10600285 -0.018248767 -0.08197899 0.17276917
0000d0 ec 9a 5f bd 8b e0 1a 3e 06 6b f1 3d c0 87 31 be
       -0.054591104 0.15124719 0.11787991 -0.17336941
0000e0 c8 ad 51 bd b0 18 3b 3c 6e 10 11 be 48 8d f7 3c
       -0.05119112 0.01141946 -0.14166424 0.030218735
0000f0 bb a5 95 bd 74 ca b9 bd df bb 06 3e 32 a7 9b 3d
       -0.07307001 -0.09071818 0.13157605 0.07600249
000100 28 01 22 3e b0 1e 14 bd 2f be 8e bd f0 9b 09 be
       0.15820754 -0.03616208 -0.069698684 -0.13438392
000110 82 ae d5 3b 8b 06 0e 3e 50 80 9e bc 73 b5 35 3e
       0.006521047 0.13869683 -0.019348294 0.17744999
000120 06 6c e7 3d 53 8b 3e bd 68 ae cd 3c b5 c1 1d 3e
       0.11299901 -0.04651959 0.025107577 0.15405925
000130 d5 98 4a 3e 0f 28 30 3e da f0 d8 bc 28 ed f5 3c
       0.19784863 0.17202781 -0.026482034 0.030020311
000140 17 1e 15 3e 4f 7d 20 3e e7 dd 31 be 7b 83 ec 3d
       0.1456226 0.15672801 -0.17369805 0.115485154
000150 77 46 a7 bd 0a 9c de bd 8f eb cb bd 5a 61 45 3c
       -0.08167737 -0.10869606 -0.099570386 0.012047136
000160 90 72 e2 bc 40 ca 4f bb c5 47 d5 bd fe 6e bc 3d
       -0.027642518 -0.0031706244 -0.104140796 0.092008576
000170 d4 d1 f2 bd eb 00 12 3e d7 5b 23 be 77 44 1e 3d
       -0.11856428 0.14258163 -0.15953003 0.038639512
000180 45 86 0c be c6 53 c9 bd f5 e8 61 3c 01 b2 7a bd
       -0.13723095 -0.09830432 0.013788451 -0.061204914
000190 12 e5 f2 bd c8 40 87 bc 3a 7b 02 be 73 51 d7 bd
       -0.11860098 -0.016510382 -0.1274232 -0.10513582
0001a0 ce fa d5 3d f1 f7 8e bc 80 7a 4c bd f2 3b 07 3e
       0.10448228 -0.017452212 -0.049921513 0.13206461
0001b0 9c 0d 7c 3c b5 e9 02 3e e0 e7 95 3d 00 cb 6d 3c
       0.015384104 0.12784465 0.07319617 0.014513731
0001c0 6b 68 85 bd ba 1c cd bd 11 bc 08 3e fb 0c ce 3c
       -0.06514057 -0.10015245 0.13352992 0.025152674
0001d0 95 53 1a 3e be 60 9f 3d 4e 2d a9 bc e1 ce 26 be
       0.15070947 0.07782124 -0.020651486 -0.16289856
0001e0 c2 00 92 3d 34 cb 47 bd 1f 85 f0 3b 41 b3 bf bd
       0.07129051 -0.048777774 0.007340088 -0.09360362
0001f0 4e 57 e3 3d 1f f8 10 3e 1c b7 d6 bd d8 66 8e bd
       0.111006364 0.1415715 -0.10484144 -0.0695321
000200 ca c0 06 be 3a 3f af 3d 3b 29 03 be 9e f8 0b be
       -0.1315948 0.085569814 -0.12808697 -0.13669059
000210 1e 54 04 be 78 ff 11 be 17 d6 0b 3e eb e0 9b bd
       -0.12922713 -0.1425761 0.13655888 -0.07611259
000220 c2 cc df 3d 50 60 48 bd d6 7f 5a bd c8 58 46 bd
       0.10927726 -0.048919976 -0.05334457 -0.048424512
000230 0e d6 12 be fc d1 4f 3d 3b 9f 91 bd 44 be 58 3d
       -0.14339468 0.050737366 -0.07110449 0.052915826
000240 8a 3d 1a be 68 84 e2 3c 5f 06 13 3e 28 92 5e bd
       -0.15062538 0.027651027 0.14357899 -0.054338604
000250 c4 58 1a 3d 9f b5 32 be 86 df 93 bd d3 ee 15 3e
       0.03768231 -0.17452095 -0.07220368 0.14641885
000260 9e 9a 8f 3d 30 a5 84 3d 9a 1f 9d 3d 50 d8 13 bd
       0.07011913 0.064768195 0.07672043 -0.036094964
000270 14 ad 99 bd f3 5a 2a 3e 5c c2 84 bd 50 fc 66 bc
       -0.07503715 0.16636257 -0.064823836 -0.014098242
000280 5d 30 09 be e1 c1 0a 3e ae 8e 6c bd 57 fa 86 bd
       -0.13397355 0.13550521 -0.057753257 -0.06590717
000290 6a 2e e1 bd d4 88 28 3d 46 2a 0c be d6 cb 0d 3e
       -0.10995181 0.041146114 -0.13688001 0.13847288
0002a0 df 13 05 3e 55 c4 09 be 84 18 26 be ec 9c 04 3d
       0.12995861 -0.13453801 -0.1622029 0.032376215
0002b0 82 44 d7 bd c3 96 41 be 41 00 c7 3d bc 16 36 bd
       -0.10511114 -0.18905167 0.09716845 -0.044455275
0002c0 23 8e ba 3c 78 e1 9a 3c 7e f5 fd bd 26 e1 cd bd
       0.022772854 0.01890634 -0.124003395 -0.10052709
0002d0 e0 bb 7b 3d 07 d5 1f be 68 e0 c6 bc de a5 f0 bc
       0.06145847 -0.15608607 -0.024276927 -0.029375967
0002e0 c4 ba c8 bd 8d e9 32 3e 9a 69 20 be 89 2a 1b be
       -0.09801248 0.17471905 -0.15665284 -0.15152945
0002f0 a0 de 02 be c6 4e cd 3d 52 17 1a be d6 c5 db 3d
       -0.12780237 0.100247905 -0.15047958 0.107310936
000300 2c 16 26 3e 6d e5 29 3e fb 0e 1f 3e 53 08 9c 3c
       0.16219395 0.16591425 0.15533058 0.019046938
000310 c8 6d bc bd 84 52 31 3d 6a 0f 95 3d 82 f4 7a 3e
       -0.092006266 0.043291584 0.072783306 0.24507335
000320 82 a3 1e be 81 b9 fe 3d 8e 9b 25 3d de 44 8a 3e
       -0.15492061 0.12437726 0.04043155 0.27005666
000330 77 5d 30 3c 48 8f 16 bd ac 81 92 3e 01 2b 31 be
       0.010764471 -0.036757737 0.28614557 -0.17301561
000340 90 96 33 ba 3d 30 19 3e e4 e5 6d bd fb 2f 6a 3e
       -0.00068507437 0.14959808 -0.05808057 0.22869866
000350 ba c4 dd 3d 09 57 f8 bc ec 98 11 bd c4 b3 6b 3e
       0.10828538 -0.03031494 -0.03554623 0.23017794
000360 ac ef 12 bd ba a0 95 3d b1 f1 87 bd 7b 8a da bd
       -0.0358731 0.07306047 -0.06637896 -0.10670944
000370 5a f8 fb bd 12 92 3d be 32 75 5c bd 30 73 ba bd
       -0.12303229 -0.18512753 -0.053822704 -0.091040015
000380 96 87 35 3d 80 36 c9 3a ff 21 04 be 14 88 19 be
       0.044318758 0.0015351325 -0.12903593 -0.14993316
000390 3a c8 00 bd 32 82 82 3d d0 69 2a 3c 86 83 8e 3e
       -0.03144095 0.06372489 0.010401204 0.2783472
0003a0 10 6c c2 bd 3b 14 0c be 88 b6 18 bd 1f a8 9e 3d
       -0.094932675 -0.13679592 -0.03728345 0.0774691
0003b0 7f 2d 07 be 10 93 c2 3d 10 c1 75 3e f8 dc 32 be
       -0.13200949 0.09500706 0.23999429 -0.17467105
0003c0 e8 c1 b2 3d 77 2e 4b 3d bd 2d 56 3d 36 8f cf bd
       0.08728391 0.04960486 0.052289713 -0.10134737
0003d0 2a 24 e4 3d e9 9a f0 bd ad 80 9d bd 69 42 36 3e
       0.1113971 -0.11748297 -0.076905586 0.17798771
0003e0 80 f4 1b bd 06 54 fc 3d 74 b4 86 bd 9d fc 23 be
       -0.03807497 0.12320714 -0.065773875 -0.16014333
0003f0 a4 35 1f be c2 a8 84 3b 2a 10 0d be d1 12 12 3e
       -0.15547806 0.004048438 -0.13775697 0.1426499

fc2.bias f4 [32]
000000 26 de 9f 3d 3c d2 40 bd 96 a4 a1 3a 37 2a be bd
       0.07806043 -0.047075495 0.0012332376 -0.092853956
000010 3e eb 6c bd d7 d0 4e bd 16 a7 3d bb 79 9d d1 3b
       -0.057841532 -0.050492134 -0.0028938702 0.006396946
000020 43 5d 66 3d a3 fa d3 3d de 76 26 3e 31 3c 5b 3c
       0.056241285 0.103505395 0.16256282 0.01338105
000030 55 47 8f bd 0e b1 5c 3d 41 7f f1 3d c8 e6 20 be
       -0.069960274 0.05387979 0.1179185 -0.15713036
000040 74 51 49 bc b1 39 b7 3d fd 8d 01 be 10 ce 00 3e
       -0.012287486 0.08946551 -0.1265182 0.12578607
000050 e3 5d f4 bd 56 34 58 3d 28 f7 4d 3d 3f f8 0d 3d
       -0.1193197 0.052784286 0.050284535 0.034660574
000060 f1 90 f9 bd a9 49 39 3d 4a c4 01 be 3e 40 b6 bd
       -0.121858485 0.045236263 -0.12672535 -0.08898972
000070 43 c0 6d 3d 28 c5 11 be 85 ef 13 3e 65 9b 83 3d
       0.058044683 -0.14235365 0.14446838 0.064261235

fc3.weight f4 [1, 32]
000000 70 69 22 3e 8f d2 cd bd bf 82 23 3d 10 70 eb 3d
       0.15860534 -0.100499265 0.03991961 0.114959836
000010 76 dc 85 3d a9 28 f5 bc be 51 90 3e ab 7c 42 3e
       0.0653619 -0.029926615 0.28187364 0.1899287
000020 8a ab f8 3c 50 e9 e6 bd 3b 4a 25 be 84 b3 30 3e
       0.030355234 -0.112749696 -0.16141598 0.1725598
000030 18 1e e1 bc 23 a6 a7 bd 05 d1 5a bd 82 79 be bd
       -0.02748017 -0.08185985 -0.053421993 -0.093005195
000040 19 0f 84 3d 73 3f 0e 3d be 07 d5 3c 4a cc a2 bd
       0.06448192 0.03472848 0.026004668 -0.07949121
000050 1e 8b 4a 3d 42 b7 0d 3e 3b f7 13 3e 16 9e 04 3e
       0.04944908 0.13839439 0.1444978 0.1295093
000060 f4 cd 5e 3d 03 8e 7f 3d 86 26 6a bd fc 25 fc bd
       0.05439563 0.062391292 -0.057165645 -0.123119324
000070 f0 89 d1 3d 02 39 ba 3b db 55 68 bd 21 ec 60 ba
       0.102313876 0.0056830654 -0.056722503 -0.0008580108
