checkpoints/StockPrediction_epoch_7.pt (torch, 255962 bytes, 27 tensors)

lstm.weight_ih_l0 f4 [256, 1]
00000000: 7169 a83c b5ac f43c 5264 a6bd 8b0a 233d
00000010: 50c2 39bd 245c c2ba bd5f dabd d644 20bb
00000020: b995 3c3d 2c41 2ebc 0e16 353d 445f 59bd
00000030: e6db ba3d 01bd 7dbd 21b4 8aba ae53 b3bd
00000040: f6fd 1c3d cd4f 2abd 79fa a8bd e6a2 22bd
00000050: 4755 00be 8c96 adbd f296 febd e875 863d
00000060: 4c44 99bd aa7d 08be b801 e7bd 3df7 0bbe
00000070: d80d 87bd 3931 28be 5300 203d 39bd 2ebe
00000080: 1076 513d 1e8c 5a3c f7b5 c9bd 2ffe d03d
00000090: 9dc0 08bd 0e30 033e 342a 93bc 7a4f e2bd
000000a0: 6bdc 16bd cf3b dfbd 4f00 0a3e 8d5c 553d
000000b0: ace0 1dbc 624e 00be 3722 153b e365 6bbd
000000c0: 8ce6 65bc c23f 1cbe 3f6b 12be 1713 ffbd
000000d0: d0ec 16be d7a5 fd3c 819e ffbc c2ad 113e
000000e0: d509 edbc a900 92bd 8ead 9d3c 4174 d0bd
000000f0: 76a3 8ebd 4cc6 29be 2fb7 6f3e 933d c9bd
00000100: 1117 15bd 4a04 d0bd 71ef 553d 1c68 18be
00000110: 2943 a9bd 5180 d0bd a3b2 8d3d ec69 0cbd
00000120: 49fa 693d b4af acbc 3db4 3cbe 0b8d 31be
00000130: ba13 a0bd c9af e2bc 515c 9fbc 00b7 0f3d
00000140: e784 f9bd 6e5d 14be 2b55 543d d8a4 fabd
00000150: 69ef 1b3c 66b5 c7bd b7cc 26ba 11b3 dfbd
00000160: bd70 2abd 2f40 0dbd 417a 54bd bd43 c2bd
00000170: 22f2 55bb 48aa 443d 9c5c 27be 3a48 05be
00000180: f966 823d 18d8 24bd e0e8 d6bd 5041 c4bd
00000190: f60a 01be ed08 e93d c5ac 31bd c673 22be
000001a0: ecd5 86bd d91e 22be 3b7b 9f3b eb2d 04be
000001b0: fed2 42be 57eb 18be d8ef 5f3d 47d9 6fbd
000001c0: 112e 1cbd 56d2 45be 423e c2bd 7645 e9bd
000001d0: 60e1 cfbc 2cd1 37be c377 eabd 2d95 9d3d
000001e0: 9389 8abd 0596 ebbd 0590 b3bd 8fbf b8bd
000001f0: 33bc 26be 4156 1cbe 5115 583e 4bb1 17be
00000200: 9435 423e 5af9 c9bd 7f38 883d fead eb3d
00000210: c406 19be 8831 1a3e 12c2 123c b6b4 f3bd
00000220: e954 36be e8a3 29be 7b26 dc3d 7e9c d5bd
00000230: bba2 483d f4d1 ffbc 7fbe 143d c72f 29be
00000240: e9cf a1bd ae9e bb3d 6fb2 2f3d 2e47 1d3d
00000250: 1f2d 3e3e b0bb 35be 55b0 cb3d 93e5 c9bd
00000260: d86a 183c 7671 31be 4ab0 383d ad89 24be
00000270: b1e5 693a 7ac4 f23d 3778 f33d f90d 12be
00000280: 269e 243e 4b85 123d 8936 b83d 11c3 04be
00000290: f3bb 25bc 5a1c b7bd 52d2 bbbd 4449 403e
000002a0: c82c cb3d 526b 79ba 0a0b e3bd 6fec 80bd
000002b0: d830 5aba d29b ccbd 9c88 15be 8f19 233d
000002c0: 46ca 2fbe 616d f13d b4b0 033e a02a 46be
000002d0: f25b d13d aab2 0d3e 153c 5cbd 7d09 e9bd
000002e0: 93b5 d33a f4d6 0f3e 1452 d7bc aa12 07bd
000002f0: 19c7 e7bd e3ec 7dbd 65ac e9bd 8b42 efbd
00000300: 2aab 343b 6031 f43c d3ae 88bd c087 d4bd
00000310: 3921 69bc 8046 ddbc 244b 54bc 387b 38bd
00000320: 8045 3cbe 7584 403d c7d4 1d3d 164c febc
00000330: 4980 b6bb 1d31 25be adb4 0ebe 8c8c 3ebe
00000340: 9576 d3bd 0bb0 aebc 2889 6a3d 3f91 8dbc
00000350: b547 3fbe def8 18be 9fca c8bd ab61 d93d
00000360: bd46 f73c c163 ebbd b79f 02bd 94aa edbd
00000370: 687e 28be bbbc 143d 0155 09be 73b9 bebd
00000380: 23bc 2abe 806d 9c3d 7ce0 033d 90e5 943d
00000390: 6c5d 10be 9243 98bd a18e 08be 55f2 603c
000003a0: 3038 95bc 8131 c53c fbf0 283e 553e 06bd
000003b0: 79d5 b1bd 0779 2dbe 7177 38be 306a 4ebe
000003c0: d090 f3bc 7835 13be 17b7 32bd f499 1dbe
000003d0: 8e87 96bd 880d 25be 6398 23be 16d5 143e
000003e0: 4b8f dabd 1ecb 1a3b 2c8e f9bd 2e67 d5bd
000003f0: 2e73 d3bd 3201 14be 4492 403e 9f94 2fbe
0.02055809 0.02986751 -0.08124603 0.039804976 -0.045351326 -0.0014828485 -0.10662792 -0.0024455092
0.046041224 -0.010635655 0.044210486 -0.053069368 0.091239735 -0.061947826 -0.0010582247 -0.08756195
0.038328134 -0.04158001 -0.08250899 -0.039706133 -0.1253253 -0.0847598 -0.12431134 0.065654576
-0.0748373 -0.13329187 -0.11279625 -0.13668533 -0.06594437 -0.16425027 0.03906281 -0.1706437
0.051137984 0.013339071 -0.0984916 0.10204732 -0.033386815 0.128113 -0.01796446 -0.11050315
-0.0368313 -0.109000795 0.1347668 0.052090216 -0.0096360855 -0.125299 0.002275599 -0.057470214
-0.014032017 -0.15258697 -0.14298724 -0.12454813 -0.14738774 0.030962868 -0.03120351 0.1422644
-0.028935352 -0.07129032 0.019247796 -0.10178424 -0.069647714 -0.1657955 0.23409723 -0.098261975
-0.03639895 -0.10157068 0.052230302 -0.14883465 -0.08264763 -0.101807244 0.06918838 -0.034280702
0.057123456 -0.021079876 -0.1842813 -0.1733896 -0.078162625 -0.027671712 -0.0194532 0.03508663
-0.12183552 -0.14488766 0.051839035 -0.12238473 0.009517529 -0.09751396 -0.00063629023 -0.10922826
-0.04161142 -0.03448504 -0.051874403 -0.09485576 -0.0032645543 0.048013955 -0.16343921 -0.13015833
0.06367297 -0.040245146 -0.10493636 -0.0958277 -0.12601838 0.113786556 -0.043377656 -0.15864477
-0.06583771 -0.1583208 0.004866985 -0.12908141 -0.190258 -0.14933525 0.054672092 -0.05855682
-0.03812987 -0.19318518 -0.09484531 -0.11390202 -0.025376022 -0.17950886 -0.11448624 0.07694469
-0.067645214 -0.11503223 -0.08767704 -0.09020912 -0.1628273 -0.15267278 0.21101882 -0.14813726
0.18965751 -0.09862013 0.06651401 0.11507796 -0.14943987 0.15057957 0.008957403 -0.11899702
-0.17805828 -0.16566432 0.10749527 -0.10430239 0.048983317 -0.031228043 0.036314484 -0.16522132
-0.07900984 0.09161125 0.042894777 0.03839796 0.185719 -0.17747378 0.09945742 -0.09858241
0.009302817 -0.17328438 0.045089997 -0.16068144 0.00089224713 0.11853881 0.118881635 -0.14263143
0.16075954 0.03577165 0.08994777 -0.12965037 -0.010115611 -0.089409545 -0.09170975 0.18777949
0.09920651 -0.0009514588 -0.1108609 -0.06295096 -0.00083233183 -0.09990658 -0.14602894 0.039819296
-0.17167005 0.117884405 0.12860376 -0.19352198 0.10222615 0.13837686 -0.053768236 -0.11378763
0.0016152136 0.14046842 -0.026284255 -0.032976784 -0.11317272 -0.06199349 -0.11409835 -0.11682614
0.0027567842 0.0298087 -0.0667397 -0.10377455 -0.014229112 -0.027011156 -0.012957368 -0.045039386
-0.18385887 0.04700132 0.038533 -0.03104214 -0.005569492 -0.16132016 -0.1393611 -0.18608302
-0.10325352 -0.021324178 0.05725971 -0.017281173 -0.18679698 -0.14938685 -0.09804272 0.10614332
0.030185098 -0.11493636 -0.031890597 -0.11604801 -0.1645447 0.0363128 -0.13411333 -0.093127154
-0.16673331 0.07638073 0.032196507 0.07270348 -0.14098138 -0.07434763 -0.13335659 0.013729651
-0.018215269 0.024071457 0.16498177 -0.03277429 -0.08683295 -0.169407 -0.18014313 -0.20157695
-0.029732138 -0.14375865 -0.04363164 -0.1539076 -0.07350074 -0.16118443 -0.159761 0.14534411
-0.10671862 0.0023619602 -0.1218532 -0.104200706 -0.10324703 -0.14453581 0.18805796 -0.17146538

lstm.weight_hh_l0 f4 [256, 64]
00000000: cbd6 c03c 5969 39bd 434d 8a3d 5999 083c
00000010: 5aec 0a3e bee8 1fbe 9086 7f3d fd94 7ebc
00000020: 3c5d c33d 25d2 493e aa43 6abd 5130 3d3d
00000030: 2870 71bd 670c 10be 55e9 b23d adc6 8fbd
00000040: 8d37 f13d 4af2 603d 8cfb e13d f9a4 d839
00000050: 0b89 1bbe 091a ac3d 2517 ed3c c164 c7bd
00000060: a798 28bc ef4b dcbc 5d37 c63c b51a 5fbc
00000070: 8751 5ebc faf4 86bd 3c49 2bbe 7429 1c3e
00000080: cbb8 513d 27e1 30bd 1eb0 55bd b563 523c
00000090: badf b9bd cace 9abd 21b2 b43d 778e f9bd
000000a0: 1207 00be 6c7f 3bbd 040c 523c 43b5 a7bb
000000b0: f9e2 293d d8c6 933c ce99 80ba 0c9c c9bd
000000c0: 5fdc 68bd 08e4 763d 662a bfbd 8742 a03d
000000d0: 49a4 afbd dee5 20bd cffc 1c3e b914 bb3d
000000e0: f3c0 a0bd 7eb8 6d3b 1757 1f3e 9bbb 7e3d
000000f0: 0e8d 063e 2b25 2a3e 7a12 82bb e182 403d
00000100: 2df9 09be 8a90 913c 34dc cc3d 631e 6e3c
00000110: 9bdc 0dbd 77fd 1ebe 50c0 f1bd b9b9 9fbd
00000120: d193 40bd 4255 273d f8fb 323d f6ec 8d3d
00000130: 2912 02be b6b2 0fbe 0f9a c53d 8b69 1ebd
00000140: b1b4 d13c 342e a43c 2c3e 59bd e2ab 7a3c
00000150: 0168 79bd 8984 da3c 3d26 d9bd 11c8 ccbd
00000160: ce3a a2bd b8b7 91bc 8a73 233e d794 43bc
00000170: 2ea2 2ebd aef9 973b 31e3 78bc a75e f33d
00000180: 1516 303d 59f7 323d 7388 25be 9f7a 963d
00000190: fdf5 c23d bf53 f33c bbdb 0bbd f5df 853d
000001a0: 2f27 bfbd 519f e1bd f0e6 92bd 3a01 303d
000001b0: aa62 c63d 7be4 963d 2d89 8b3d 001b 0bbe
000001c0: cf91 90bd ec61 33bd bffe 943d 6839 f33d
000001d0: 2493 dfbd a0ce 86bd 5e55 7abd dae4 20bd
000001e0: 9b66 5a3d a1fc a63c 3173 133e 04cf b0bd
000001f0: 6d44 083e 4ad8 30bd 8266 473d de90 063e
00000200: 5323 e5bc 76c0 103e e0d8 89bd c41b a4bd
00000210: d1a9 c53d 5081 65bd 5af1 3dbd 845a b9bc
00000220: 58d1 ed3d 00b4 833d 597e 813c 3708 23bd
00000230: 36aa cabd 6bcf 7cbc 0786 7a3d 94af bfbc
00000240: ded1 2ebc 9242 763d a121 2b3d 5707 263d
00000250: fecc 7bbd 1691 9fbd 1370 14be 5b5d afbd
00000260: edf2 0fbe 55c3 8d3d f5c7 dcbb 36d5 a0bc
00000270: 6d73 173e 2c08 55ba e7d0 6a3d 7f3c fabc
00000280: 4e87 a3bd b719 2f3d a684 05be 33ec 69bd
00000290: 7dbb 0a3d fdc0 84bc ec13 9abd 46e8 273d
000002a0: f0c6 8f3d 9d64 cabb 6ca6 cebc a78e c0bd
000002b0: 0eb9 8fbc e06b 793d da93 af3d 613a 2ebd
000002c0: baeb abbc 8d1f 253d 7c0d f7bd e21d de3d
000002d0: b6b8 c7bd b003 e8bc 5a98 b83c a15d 4a3d
000002e0: cc1b b2bc 4c12 763d bbcf c23c 661c 8a3d
000002f0: 2692 1b3e 30aa 03bd 7810 71bd 5b84 153e
00000300: 4286 3a3d 9b7c 3cbd ec6f fc3b 48cb 34be
00000310: 10d5 5ebd 6e28 00bd f205 93bb 6ef4 9e3d
00000320: 482c 9e3c 9192 3c3e 7bfc e7bc 0f90 a6bc
00000330: 8332 32bd a99d 85bc 8018 af3d 044f febc
00000340: fe5c bf3d 443b e0bd b37e c9bd c6e4 e5bc
00000350: ca78 883d e855 2a3e 8db4 823d 76ec b23d
00000360: 9eb9 e43d 2bc6 173d dbaa bfbc e26f eb3d
00000370: a40b 8dbc 0c55 ebbd bb10 c0bd d2cb a53d
00000380: 6d81 1a3c 0c9f aabd 2052 edbd ff45 b03d
00000390: a004 3bbd 4ead 2fbd da91 e13d 1deb 9fbd
000003a0: 82bb 803d 51b2 9b3d 3ad6 8d3d 3aba b13d
000003b0: 138f 9c3d 49ac 593d 89b4 223d f9a4 39bd
000003c0: b46d c63d 6872 843d 78d4 9ebd a74c aeba
000003d0: 8f66 90bd 274b e9bd 385c 753d 675f d23d
000003e0: 40c6 0b3e 8e13 b53b b7f4 3bbd e74b e0bc
000003f0: 50f4 d73c b84c e13c ba2c a7bb c335 b1bd
0.023539921 -0.045266483 0.06753018 0.008337342 0.13566723 -0.15616128 0.06238419 -0.015538451
0.095392674 0.1970907 -0.057193436 0.046188656 -0.05894485 -0.14067231 0.08735911 -0.07020316
0.117781736 0.054918565 0.11034307 0.00041321645 -0.15188996 0.08403403 0.0289417 -0.09736014
-0.010290301 -0.026891677 0.024196321 -0.013617207 -0.013569242 -0.06589694 -0.16727155 0.15250188
0.051201623 -0.043183472 -0.05216991 0.012841155 -0.090758756 -0.07558973 0.08823038 -0.12185376
-0.12502697 -0.045775816 0.012820248 -0.0051180436 0.041476224 0.018039152 -0.0009811462 -0.09844217
-0.056850787 0.06027606 -0.09334259 0.07825189 -0.08576257 -0.03928172 0.15330814 0.09134812
-0.07849302 0.0036273296 0.15560566 0.062190633 0.13139746 0.16615741 -0.0039694877 0.046999816
-0.1347396 0.017769117 0.10002938 0.014533612 -0.034634214 -0.15526377 -0.11804259 -0.07799096
-0.04701597 0.040852793 0.043697327 0.06929962 -0.1270224 -0.14033017 0.09648525 -0.038674872
0.025598856 0.020041563 -0.053037807 0.015299769 -0.0608902 0.026674526 -0.106029965 -0.09999097
-0.07921372 -0.0177878 0.15962043 -0.011937342 -0.042635135 0.0046379184 -0.015190885 0.11883288
0.04298981 0.04369292 -0.16165332 0.07347607 0.09519575 0.02970302 -0.0341451 0.06536857
-0.093336456 -0.11016715 -0.07172954 0.04296992 0.096867874 0.07367798 0.068132736 -0.13584518
-0.07059061 -0.043794557 0.072751515 0.11876184 -0.10916737 -0.06582379 -0.06111657 -0.03928075
0.05332051 0.020384135 0.14399411 -0.08633235 0.13307352 -0.04317502 0.048681743 0.131412
-0.027970945 0.14135918 -0.06730819 -0.080131084 0.096515305 -0.056031525 -0.04637275 -0.022626169
0.11612195 0.06430817 0.015807318 -0.039802756 -0.098957464 -0.015430312 0.061162975 -0.023399152
-0.010670153 0.06012208 0.041780118 0.040534344 -0.061474793 -0.07791345 -0.14495878 -0.08562728
-0.14057513 0.06922022 -0.006737704 -0.019632917 0.14790125 -0.0008126523 0.05732813 -0.030546425
-0.07984792 0.042749133 -0.13038883 -0.057110023 0.03387021 -0.016205305 -0.07523331 0.040992998
0.07020366 -0.006176545 -0.02522584 -0.09402209 -0.017544296 0.060893893 0.08573122 -0.042536143
-0.020986427 0.040313292 -0.12063119 0.108455434 -0.09752028 -0.02832207 0.022533584 0.049405698
-0.02174177 0.060076043 0.023780694 0.06743698 0.1519247 -0.032144725 -0.058853596 0.14601271
0.045538194 -0.04601727 0.007703772 -0.1765567 -0.05440241 -0.031288557 -0.0044867927 0.07761465
0.019308224 0.18415286 -0.028318634 -0.020332364 -0.043505203 -0.01631053 0.08549595 -0.031043537
0.09343909 -0.10948804 -0.09838619 -0.02806319 0.06663664 0.16634333 0.063820936 0.087365076
0.11168216 0.037054222 -0.0233969 0.11495949 -0.017217465 -0.11490831 -0.09378191 0.08095516
0.009430272 -0.08331117 -0.1158793 0.08607101 -0.045658708 -0.042889886 0.11014147 -0.07808516
0.06285764 0.076023705 0.06925626 0.08678098 0.07644477 0.05314282 0.039722953 -0.045323346
0.09688893 0.06467134 -0.07755369 -0.0013297991 -0.070508115 -0.11391287 0.0599024 0.10272103
0.13649845 0.0055260127 -0.045887675 -0.027379943 0.026361614 0.027502403 -0.0051017674 -0.08652832

lstm.bias_ih_l0 f4 [256]
00000000: bdf1 0f3d a3aa d1bc 5d82 34bd be5f 4bbb
00000010: a3f9 763d ecef 7cbd dabc eb3d c84f 31bd
00000020: 8689 8a3d bab1 303e c95f 06bd 8515 47bd
00000030: 60b5 a7bd 09a9 bcbc 866b 84bd 1907 b5bd
00000040: f885 45bd f486 16bd badd d13d 5216 9b3b
00000050: 4aec 483d fd1d eb3b ad50 323d 7f20 983d
00000060: 4584 e8ba 9d38 4b3c 9689 083d d9a3 113e
00000070: 563c 5fbd a8b2 0e3e 851f c43b 2de4 e53d
00000080: c8b6 e13d 9a6b e2bc cdfa b43c 17d0 aa3d
00000090: 1ecb 75bc 1d40 8a3d 356f e33d 9cec 6c3c
000000a0: a484 18bc 61a8 fb3d a726 133e dfd1 043e
000000b0: 013f c0bd 7195 da3d b64d a93d baa0 61bd
000000c0: 3f8f e53d 9c61 09bd 6057 663d fc4d 243d
000000d0: 33ff 873d e6f7 29bd a889 f43b af4a ffbc
000000e0: f417 9c3d c0e5 84bd 1d3f 023d f87e c43c
000000f0: f0bb c73c df8d 50bc 99e9 883d 872a 093d
00000100: 0644 1bbd 8fd3 0f3a bfb9 15bc 20d9 d0bc
00000110: df0f 25bb 1a05 e5bb 330e 8cbd 8cd5 83bd
00000120: f5e4 3ebd a1e5 8b3b 869e ef3d 2143 b73c
00000130: f154 adbd ae01 7bbd 3129 1d3d bc81 163e
00000140: 9290 c5bd b9a9 d93d a576 d53d d9d7 643d
00000150: 3469 cf3d 1244 b13d 0b47 a1bd 88a8 27bd
00000160: c710 5abd 4205 30bd 2be9 ce3c 479b 693d
00000170: 7bea 193d e00b bf3d da03 1ebd fd71 063e
00000180: fdc0 d8bc 0dad 933d c5d6 0f3e 7679 ebbd
00000190: 956f f0bd 542a 0a3e 9a6b b43d f682 e13c
000001a0: 7443 7e3d ecd1 483d 46b0 39ba 5ea7 9c3d
000001b0: 3199 8d3d 2728 bdbd df15 3fbc 01b6 30bd
000001c0: 7e7b af3d c986 adbd 6a85 f1bd 6a32 9ebd
000001d0: d9de 81bc bfd3 74bd f10f 673b 9dd8 66bc
000001e0: b2b6 c13d b4e9 173e b782 943d b33a 87bd
000001f0: 4031 a53d c8fd 9cbd 0a9f 093c 6b4d 14bb
00000200: 405e e6bd 1b91 093e 909a f63d 94bd 4d3d
00000210: 9089 a83c eab3 073e 6926 64bd 505d 3e3d
00000220: 149c 38bd 508f a7bd d772 d8bd d5dd b23d
00000230: ed51 84bd e329 adbd 49fc 063e b7c7 93bd
00000240: e2a4 773c a056 cebd 53ac 74bd dc5b 113e
00000250: dbc9 7a3d 27af 413c 715b 9dbd c0fc 213d
00000260: 4938 a93d 2986 f63c 2864 72bd 4590 f03a
00000270: aede af3d 2e01 123d 8842 d73d 3f9e e03d
00000280: ed90 c53d 7dcc 63bd 7d2e 84bc f414 22bd
00000290: e560 0cbd 581a 823c e994 7a3d 19b3 96bd
000002a0: e6f1 4ebd c126 f3bd 4fd0 20bd a0cb 9d3d
000002b0: b04b 0d3e 3dd1 613c e654 a63d 2ac9 0bbe
000002c0: f216 10bc 3470 43bd a766 e8bc 9f1d fc3d
000002d0: 2c4b 983d 5fce e4bd 0b82 b8bd bd3a c7bd
000002e0: 50a1 7d3d da4a 623d 0b2d a43d 5e24 9c3d
000002f0: fd77 94bd 1da6 ea3c 12f8 edbd 1492 32bd
00000300: b95f 253d 9fbe c03c 170d a0bd 97b8 2a3d
00000310: d44d 6e3d 0dfe 103e 55be f2bc 6941 fb3d
00000320: 4131 1b3c 6910 34bd 0d65 083e 9611 3c3c
00000330: f9e0 3dbd d735 753c 0e9c 033e 5532 4dbc
00000340: 4b60 36bc 224d be3c db86 afbd 22a5 a13d
00000350: 8c80 183e 2fb0 c73d 7704 b83a 14b8 46bc
00000360: 2fd4 10be b23f 6fbd e8a3 dfba 111c d13d
00000370: a5f7 163e 8178 993c 77f9 da3c 6f81 ef3d
00000380: c4b4 6ebc 9b00 efbd fadd c83d 90e6 6dbd
00000390: 56cf a9bd 3096 193d 4214 bebd aff2 3fbd
000003a0: 1f74 d6bc 0efb d53c 2405 9d3d b385 15bd
000003b0: e341 c0bd ab78 40bc ffc8 0d3e e081 1a3b
000003c0: dc32 4ebd a27f 9abb 10dc d33d d27c 743d
000003d0: 58ee 4c3c 52b8 213e d029 5d3d 9df5 653d
000003e0: 6b39 043e 9a65 013d 3f9f 803b 8f67 9b3d
000003f0: 7f6e 993d 28d0 60bd f960 013e b836 edbc
0.03514265 -0.025594061 -0.044069637 -0.0031032409 0.060296666 -0.061752245 0.1151063 -0.043288976
0.06764512 0.17255297 -0.03280619 -0.048604507 -0.081888914 -0.023029821 -0.06465821 -0.088392444
-0.048223466 -0.036749795 0.10247369 0.0047328854 0.049053468 0.0071752057 0.04353397 0.07428073
-0.0017739615 0.012403634 0.033334337 0.14222659 -0.0545009 0.1393534 0.0059852027 0.11225162
0.11021191 -0.027639199 0.022092247 0.08340471 -0.01500204 0.0675051 0.111051954 0.014460709
-0.009308968 0.12287975 0.14370213 0.12970684 -0.09387017 0.10673035 0.08266775 -0.05508492
0.11208963 -0.033540353 0.05623567 0.040113434 0.06640472 -0.04149618 0.007462699 -0.031163542
0.07621756 -0.06489134 0.03179847 0.023986325 0.024381608 -0.012729137 0.0668518 0.033487823
-0.03790667 0.0005486542 -0.009138524 -0.025494158 -0.0025186462 -0.0069891335 -0.06838646 -0.06437215
-0.04660507 0.0042693173 0.11700158 0.022370877 -0.08463467 -0.0612809 0.03836936 0.14697927
-0.09646715 0.10628075 0.1042302 0.05586991 0.10127488 0.086555615 -0.078748785 -0.04093221
-0.053238656 -0.042973764 0.025257668 0.05703285 0.037577134 0.09328437 -0.038577892 0.1312942
-0.026459211 0.07210741 0.14046772 -0.11497776 -0.117400326 0.1349271 0.08809586 0.027528267
0.062076047 0.049028322 -0.0007083457 0.0764911 0.069139846 -0.09236174 -0.011662929 -0.043142322
0.08568476 -0.08472974 -0.11793025 -0.077244595 -0.015853332 -0.05977225 0.0035257305 -0.014089731
0.094586745 0.14835244 0.072514944 -0.06602993 0.08066034 -0.076655924 0.008399734 -0.0022629153
-0.112484455 0.1343426 0.12041199 0.050229624 0.020573407 0.13252226 -0.055700693 0.04647571
-0.045070723 -0.081816316 -0.10568779 0.08733717 -0.064609386 -0.08455255 0.13182177 -0.07215827
0.015114995 -0.10075116 -0.059734654 0.14195198 0.06122766 0.011821545 -0.07683457 0.03954768
0.08262689 0.03009327 -0.059177548 0.0018353543 0.08587395 0.035645656 0.10510737 0.10967683
0.09646783 -0.055614937 -0.016135449 -0.039570764 -0.034272093 0.015881702 0.061177168 -0.07358379
-0.05052366 -0.11872626 -0.03926116 0.07704854 0.13798404 0.013782796 0.08121662 -0.13650957
-0.008794533 -0.047714427 -0.028369261 0.12310337 0.07436213 -0.11172175 -0.09009179 -0.09728
0.061921418 0.055247165 0.08016404 0.07624124 -0.072494484 0.028643662 -0.11619581 -0.043596342
0.04037449 0.023528395 -0.07814997 0.041679945 0.05817969 0.14159413 -0.029631773 0.12268335
0.009472192 -0.043960962 0.13319798 0.011478802 -0.04635713 0.01496645 0.12852499 -0.012524207
-0.0111313565 0.02323014 -0.085706435 0.07892825 0.14892787 0.09750401 0.0014039417 -0.012128849
-0.14143442 -0.058410354 -0.0017062398 0.10210431 0.14742906 0.018734219 0.026730282 0.116946094
-0.014569465 -0.11670037 0.09807964 -0.05808121 -0.08291499 0.037496746 -0.092812076 -0.0468623
-0.026178418 0.026120689 0.07666996 -0.03650446 -0.09387567 -0.0117475195 0.13846205 0.0023575947
-0.050341472 -0.004714922 0.10344708 0.05968935 0.012507997 0.15792969 0.053994954 0.05614244
0.12912528 0.031591035 0.0039252336 0.075881116 0.074917786 -0.054886013 0.12634648 -0.028956756

lstm.bias_hh_l0 f4 [256]
00000000: b6a5 9bbd 859e 113e 6d7f 8ebd 3724 3abc
00000010: d14a bfbc 2cc6 d43c af3a 53bc 131d 023e
00000020: d325 013e 700d 81bd 2d86 bfbd 1ced b2bd
00000030: 920b b23d ee1f 693c a5dd 4bbd 5354 43bd
00000040: 5a87 043d 56f5 2d3d 2ef6 863d 0e01 023e
00000050: 451f 153e ee45 17bd 44e3 8e3c 4b98 84bd
00000060: 7ebb 8cbd 098d 003d 8743 be3d 616a 02bd
00000070: 5adf 2abd f64a 86bc e8f1 ae3d 24e1 d93c
00000080: ae47 db3d 64f8 13be c986 843d 5f3e bb3d
00000090: 8e19 a63d 91f7 9abd 0760 bcbd 912a 283d
000000a0: 60a2 103d eea2 cd3d 7f8c 083e 612c d23a
000000b0: f067 4fbc 2994 bd3d 1f58 75bd e07f 04bd
000000c0: edb8 3b3d 95b8 4d3c da81 863d b919 983b
000000d0: 14f9 243d 821e 913d ea91 ab3c 16f0 5ebb
000000e0: 1a37 b03d 2821 d53d 7fd7 813b 94ae d5bd
000000f0: c861 60bc fc0b e43d a756 e43d b37d 8cbc
00000100: 1773 cb3d b5e5 a13c 153b 323c 8cb7 62bc
00000110: a550 00bb e06d bb3b e5a6 0a3d 6de7 a7bd
00000120: 54bf e03c 39b3 87bd 8a01 cbbd b0e1 b1bd
00000130: d70b 1abd 8e20 6b3d c7a6 f63c 5d99 8f3d
00000140: e0a4 19bd 894b 95bd 2131 0dbd eaa5 87bd
00000150: 7f12 bf3c ebfb 9a3d 717f 443d db3f d6bd
00000160: 4d01 c23d 2796 0e3e fb96 dbbc 1b42 9bbd
00000170: 4e2a 533d df4c 5a3d 7352 da3a 9e1a 00bd
00000180: 557a 0a3d d164 d5bd 9f5b 1dbd cf41 de3c
00000190: 465c 873c 65a6 bd3d 0409 ca3d 1496 223d
000001a0: 482b a13d f96d f53d ca14 27bd 787c c03d
000001b0: d7af e63d b4d9 9fbc b3d3 f63d 9fb7 d6bc
000001c0: ad4c e2bc 95d0 043e 757b 423d 7d11 c43c
000001d0: 4bc2 92bd de08 dd3d ac35 723d 0d02 90bc
000001e0: 0dee 1c3c fe14 043e 5793 9d3d be9b 99bd
000001f0: 1c04 e83c ad40 5dbc 011c 1d3e 4f2d a93d
00000200: 9664 67bc 802e 223b c139 57bd 28c2 10bd
00000210: 5646 bd3c 1a0b e2bd e9fa fe3b 81ac 0a3e
00000220: 6cf0 4f3d 3404 c43a 17bb 17bd 7f98 063b
00000230: cf83 a6bd 9fa4 b6bd 6328 543d a2b3 333d
00000240: effd 943d 7f39 67bd 15b1 473d 7dd4 25bd
00000250: 910d c9bd 589d 29bd 5ed4 cbbd b666 03bd
00000260: a272 7bbc 16a0 ae3d da85 b13d 7d62 b33c
00000270: 13ef 953d dc5b 193d 6197 00be 2d70 78bd
00000280: 3b1b 8dbd 0891 28bd 6e5b 803c 8c95 5d3d
00000290: fc72 c03d 5f47 94bd 7e85 0d3c 0dcc a33d
000002a0: 0f45 5f3c e1e3 00be 7b91 31bd c7a1 593d
000002b0: 5feb 393d 38a2 f83d d843 d53d b061 afbd
000002c0: f52f b63d 7044 0bbe cb16 2bbd 05d9 6d3d
000002d0: 3482 d338 5e9c cd3d a748 c83d 51d6 85bd
000002e0: c45c 0e3e c507 c0bd c4b9 1e3d c4c9 9f3c
000002f0: cb7f d73d bac6 0f3e ae4e f339 705e 1ebd
00000300: ef06 0f3e e2f5 f63d f344 a93c 856e 083e
00000310: ee56 933c 8187 983c 872d 2f3d c6b5 1d3d
00000320: c776 103b e571 873d aba1 c63c d2bb 37bd
00000330: 0f0c dfbd 4515 9e3d 076a 06bd f0e1 333d
00000340: 10a1 073e 2086 dd3d 894f 863d f221 c63d
00000350: 6868 033e bf18 01bd fc53 173e eb9f a4bd
00000360: 43a5 ccbd 127d 35bc 0772 1e3e ff7f d23d
00000370: 8691 873d 67ba cc3d 0631 a5bd 29d1 b3bd
00000380: 7b37 4f3d 5e5b 86bd 2969 b23d eef3 bdbd
00000390: 60e2 fe3d 9dbc 94bd 2c6e 5d3d 138d ee3d
000003a0: db24 c7bc b7f6 163e 3235 cd3d db23 2bbd
000003b0: b0f8 fcbc a07e 013e 8cd2 0cbc 058f 213d
000003c0: a123 c93d cf9b cd3d 08e2 92bd e90f 093e
000003d0: 8823 8b3d 126a 9b3d 8215 8bbc b470 bf3d
000003e0: bf1b 1dbc 2b42 083e 2866 b83d a9c1 873d
000003f0: 2713 963c b190 e93d 08eb 113e f89c 513d
-0.07599966 0.14220627 -0.06957898 -0.011361173 -0.023351105 0.025973402 -0.012892409 0.12706403
0.12612085 -0.06301391 -0.09351764 -0.08736631 0.08693613 0.014228804 -0.049771924 -0.04768784
0.032355644 0.0424703 0.06589924 0.12695715 0.1456271 -0.036931925 0.017442353 -0.0647436
-0.06871699 0.0313845 0.092902236 -0.031839732 -0.04171691 -0.016393166 0.08542234 0.026596613
0.10707031 -0.14450222 0.06471021 0.09142756 0.08110343 -0.07566751 -0.09198003 0.04105622
0.035311103 0.10040842 0.13334845 0.0016034954 -0.012659058 0.09256775 -0.059898492 -0.032348514
0.045830656 0.012556215 0.06567736 0.0046417383 0.040276602 0.07085897 0.0209436 -0.0034017614
0.0860426 0.10406715 0.0039624567 -0.10433689 -0.013695188 0.11135098 0.1114934 -0.017149782
0.09934061 0.019762853 0.010878344 -0.013837706 -0.0019579318 0.005719885 0.03385057 -0.08198438
0.027434982 -0.06625981 -0.09912403 -0.086856246 -0.037608948 0.057404093 0.030108823 0.070116736
-0.037510753 -0.07289798 -0.03447068 -0.066234425 0.02332425 0.07567581 0.0479731 -0.10461398
0.09472904 0.13924466 -0.026805392 -0.07580968 0.051554017 0.053295966 0.0016656652 -0.031275384
0.03380807 -0.1041962 -0.038417455 0.02713099 0.016523492 0.09260253 0.09865001 0.039693907
0.07869583 0.11983866 -0.04079131 0.093987405 0.112640075 -0.019512989 0.12052097 -0.026210604
-0.027624452 0.12970193 0.04748102 0.02393412 -0.07165965 0.10792707 0.059133217 -0.017579103
0.00957824 0.12898633 0.076941185 -0.075004086 0.028322272 -0.013504189 0.15342714 0.08260595
-0.014123103 0.0024746954 -0.052545313 -0.03534141 0.023104828 -0.11037274 0.0077813757 0.13542368
0.050766394 0.0014954866 -0.037043657 0.0020537672 -0.08130609 -0.08918118 0.05179633 0.043872483
0.072749965 -0.056451317 0.048752863 -0.040485848 -0.09817041 -0.04140982 -0.09952615 -0.032080375
-0.015347155 0.08526628 0.08668108 0.021897549 0.073209904 0.03744112 -0.12557746 -0.060653854
-0.068899594 -0.041153938 0.015668597 0.054097697 0.093969315 -0.072401755 0.008637784 0.07997904
0.013627305 -0.12586929 -0.04335163 0.0531328 0.045390483 0.12140316 0.10413331 -0.08563554
0.08895866 -0.13600326 -0.041769784 0.058068294 0.00010085516 0.1003959 0.09779482 -0.06535018
0.13902575 -0.09376482 0.03875138 0.019505389 0.105224214 0.14040652 0.00046407193 -0.03866428
0.13967489 0.12058617 0.02066276 0.1332341 0.017985787 0.0186193 0.042768028 0.03850343
0.0022043453 0.066135205 0.024247011 -0.044856854 -0.10890972 0.077189006 -0.03281596 0.043916643
0.13245034 0.10816598 0.06558139 0.09674443 0.12832797 -0.03151774 0.14778131 -0.080383144
-0.09992459 -0.011077182 0.15473185 0.102783196 0.06619553 0.09996491 -0.08065991 -0.087801285
0.05059002 -0.06560396 0.08711464 -0.092750415 0.12445521 -0.07262538 0.054060146 0.116480015
-0.024309566 0.14742552 0.10019912 -0.04178224 -0.030880302 0.1264596 -0.00859512 0.039443035
0.09821249 0.10039484 -0.07172018 0.13384975 0.067938864 0.07588591 -0.01697803 0.09347668
-0.009589135 0.13306491 0.0900386 0.066287346 0.01831968 0.11404551 0.14249814 0.051175088

fc1.weight f4 [32, 64]
00000000: e517 0ebd 8791 62bd 3b1c b2bc 891f 273d
00000010: b73f 83bd 90d5 aabd b476 4a3d a8f2 16bd
00000020: a574 8cbd ddf2 d23c 7c45 093d b199 adbd
00000030: f961 163d f478 febd 510d a93d 6985 cd3d
00000040: 2090 823d 7303 d23d 3ba8 0c3c 2de9 80bc
00000050: 10c4 ef3b aaf1 913d 5e2f a4bd 6751 d3bd
00000060: 2def 65bd 80f0 a13d c847 a83d c50b 00bd
00000070: b53b 093e 4cad 10be ef9a 38bd 5356 693d
00000080: fb7b e5bd d618 f73d 6325 d8bd a41d ae3d
00000090: 6672 463d b751 39bd 0ec2 f03d 417f 38bd
000000a0: b7ca d3bb 6e8d c03d c4d8 e8bd 874c fb3d
000000b0: 3e7f 06bd 2e59 9cbd b924 ba3d 3dfa 7cbd
000000c0: 8f27 98bd 54d5 b0bd b308 9b3d 8d16 a43d
000000d0: 1b2b 4ebd 59a5 1a3d a8eb 813d a723 31bd
000000e0: e424 163d 2323 783d dbaf 723c 5646 0ebd
000000f0: cf59 1e3e 64c0 23bc 8b7f 4f3e c3c1 223e
00000100: 40ca ea3d ee93 9f3c 1695 a63c abb0 3b3d
00000110: 92a3 03be 0c49 11bd 7d35 64bd d927 03bd
00000120: cee3 9bbd a2b9 e3bc 27f9 91bd 09f9 d5bd
00000130: e17d 7f3d 6be1 0a3e b05c 84bd 7ae9 c4bd
00000140: f77c 64bd f606 09bd 79f7 0abe 50c0 c43d
00000150: b193 c93d cf5d a23d 8dcb 50bd 2241 8cbd
00000160: a5dd 073e cd99 b6bd 1a00 f3bd 2442 f1bd
00000170: 9e69 c83c 43d8 3bbb 3359 80bd 3958 be3d
00000180: 1bc4 63bd 1bab adbb 0669 9b3d 33ff 983d
00000190: 0a03 ba3d be36 f2bc 6e94 4d3d 7f4b 713b
000001a0: f3fd f63c cabb 74bd 00d8 7d3d 37d2 6f3c
000001b0: 7819 3b3c dec8 bdbc a64d 173d eb60 dbbd
000001c0: dc0f b53d 7f8d e43d cb21 a63d ce20 94bc
000001d0: 74cb d2bd 820b a5bc 8d6c e9bd c1d9 97bd
000001e0: 59fa ab3d 7f0d 58ba 950c e33d 9876 57bd
000001f0: c0d6 92bd c3d1 e8bd 1a08 0d3d 8baa 053d
00000200: 2d8b 083c e6c6 243e 60cb dd3d dc8f 2dbe
00000210: 3193 4b3d 7af6 773d 87af 3e3d 6ddb d03d
00000220: e03b 8abb 7163 bebd 4bf8 8f3d 3893 6e3c
00000230: 5cde 383d 45aa adbd ec3c 7c39 ef79 ce3d
00000240: 2f84 2a3e 828a a2bd 8aaf 953d 3943 c63d
00000250: c1d0 97bd dd1a a93d d979 19bc 6fab e43d
00000260: 5dc6 3bbd a33f 1a3e f2c0 2e3d 2b95 d03d
00000270: c40a 4cbd d04e 483d b29c 4d3d 7b9a ad3d
00000280: 0728 4fbd 7f38 443b c0eb 13be 8998 7bbd
00000290: 3cc0 053e e3d4 a4bd eb47 323c 8328 08be
000002a0: b7e0 2dbe e2f8 d2bd 99cd 853c ce6c 54bd
000002b0: bd30 34bd 9ae2 43bd f55f 3f3d 0f83 acbd
000002c0: a4e9 133e 2d3b 31be 5dbb 19be 89de 6f3c
000002d0: 8a1b a03d 7445 763d 4075 023d 4db0 16bc
000002e0: 25a1 753d 4d24 45bd fe1b 803d 86de 4fbd
000002f0: 857f 493d 3aca 9d3d a4cf b93d 6332 35bd
00000300: 7bea a1bd 9b84 f03d f6fa e73d 3fb1 2b3c
00000310: 272b d03b 1d20 85bc 2f94 b0bd 4902 253e
00000320: 063c 003e c538 d0bd 1ae2 4d3c 330c 373e
00000330: e2db 523c bd91 1dbe af97 043e d202 853d
00000340: 4884 853c fb9c e73b 0780 dd3d 3b16 df3d
00000350: 691b 1bbe 7457 e53d 7e58 05be c131 ecbd
00000360: f74c 27bd de30 f63d edd2 1a3e fbd1 b33d
00000370: 2ad2 073e 9225 19be 3260 f1bd 47a6 91bc
00000380: 9686 1ebe 42d2 d5bd 467a 0dbe 8e98 96bd
00000390: cfc1 593d 5603 01bd 03dd 113d 1129 9fbd
000003a0: 3cd8 41bd 7b45 29be ea5b b1bd c747 7fbd
000003b0: 3065 133e 6cd5 683d 5ae4 6bbd 54fa ccbd
000003c0: aec6 4d3d 6613 0bbe 6a15 8e3d 58aa 113e
000003d0: 8ebf 9dbc 50d3 9abd 9c67 003e fa4b 043d
000003e0: 2b14 593d eb01 1fbd fdea 5ebd e058 4b3d
000003f0: edb5 d43d 34e2 053e 7ece 963c d033 083e
-0.034690756 -0.055314567 -0.021741977 0.04080156 -0.06408637 -0.08341515 0.04942961 -0.03685251
-0.06858186 0.025750572 0.03351353 -0.0847658 0.036714528 -0.12425414 0.08254493 0.100352116
0.06375146 0.10254564 0.008585031 -0.015736187 0.0073170736 0.07126172 -0.08016847 -0.10318261
-0.0561363 0.079072 0.08216816 -0.031261224 0.13401683 -0.14128608 -0.04506963 0.05696709
-0.11205288 0.12065284 -0.10554006 0.08501747 0.048448943 -0.045243945 0.11755763 -0.045043234
-0.0064633745 0.094019756 -0.1136947 0.12270456 -0.03283619 -0.07634197 0.090890355 -0.061762083
-0.0742942 -0.08634439 0.075700186 0.08012114 -0.050334077 0.037755344 0.06343776 -0.04324689
0.036656275 0.060580384 0.014812435 -0.034735046 0.15463947 -0.0099946 0.20263498 0.15894227
0.114643574 0.019479718 0.020334762 0.04582278 -0.12855366 -0.035470054 -0.055715073 -0.032020424
-0.0761181 -0.027798478 -0.071276 -0.1044789 0.062375907 0.13562553 -0.06462991 -0.096148446
-0.05578324 -0.033453904 -0.13570966 0.09606993 0.09842623 0.07928049 -0.05097537 -0.068483606
0.13268144 -0.08916054 -0.11865254 -0.117801934 0.024464425 -0.0028662838 -0.062670134 0.09294171
-0.055606943 -0.0052999384 0.07588391 0.074705504 0.09082611 -0.029567119 0.05019038 0.003681868
0.03015039 -0.059749402 0.06197357 0.0146375215 0.011419646 -0.02316707 0.036939286 -0.10711845
0.088409156 0.11159801 0.08111914 -0.018082049 -0.10292712 -0.020147089 -0.113976575 -0.0741458
0.083973594 -0.0008241757 0.11086384 -0.052603334 -0.071698666 -0.11368134 0.034431554 0.032633346
0.008333963 0.16091499 0.10829806 -0.16949409 0.04970092 0.060537793 0.046554115 0.10198102
-0.0042185634 -0.09296311 0.0702978 0.014561467 0.045133933 -0.08479742 0.00024055288 0.10081851
0.16651987 -0.079365745 0.07308872 0.096807905 -0.074128635 0.08257077 -0.00936743 0.11165511
-0.04584347 0.15063338 0.042664476 0.101847015 -0.049814954 0.048903286 0.050198264 0.084767304
-0.050575282 0.00299409 -0.144454 -0.061424766 0.13061613 -0.080484174 0.010881404 -0.13296704
-0.16980253 -0.10301377 0.016333388 -0.051861577 -0.043991793 -0.047823526 0.04672237 -0.08423435
0.14444596 -0.1730773 -0.1501288 0.014640459 0.07817753 0.06012483 0.0318501 -0.009197307
0.059968133 -0.048130322 0.06255339 -0.050749324 0.049193878 0.07704587 0.090728074 -0.044237506
-0.07906052 0.117440425 0.11327164 0.0104792705 0.0063528004 -0.016250664 -0.08622014 0.16114153
0.12522897 -0.10167078 0.012566114 0.17875747 0.012869807 -0.15387626 0.12948488 0.064946786
0.016298428 0.007068274 0.10815435 0.10892912 -0.15147175 0.11198321 -0.13022038 -0.11532927
-0.040844884 0.120210394 0.15119524 0.08780285 0.13263765 -0.14955738 -0.11785926 -0.017779483
-0.15481028 -0.10440494 -0.13816175 -0.07353316 0.053163346 -0.031497322 0.035611164 -0.07771505
-0.047325358 -0.16530411 -0.08660109 -0.06232431 0.14394069 0.05684416 -0.05759082 -0.10008684
0.050238304 -0.13581619 0.06937678 0.14225137 -0.01925638 -0.07559836 0.12539524 0.03229902
0.05299775 -0.03882019 -0.05442332 0.049645305 0.10386262 0.13074571 0.01840901 0.13301015

fc1.bias f4 [32]
00000000: 22bb dd3d 9a90 debd f65e d73d bdf9 bd3d
00000010: e4ba 1f3d a758 4abd be55 85bd 1813 6abc
00000020: 2ae9 2dbd 4765 c83d 89a7 c2bd 3cf0 d03d
00000030: a3b4 4fbd f3ee 6e3d 7f9c 413d 682e 9cbc
00000040: 3a10 e43b 11a2 b6bd 5adf 833d 2ab1 b53d
00000050: 2035 bfbd cc47 a63d a9ff ffbd 8fe9 0c3e
00000060: 9413 69bd 7a2f f3bd 6405 ca3d 4758 b83d
00000070: 7ce4 223d 2c5c 803d 6099 8dbd 57e9 ec3d
0.108267084 -0.10867424 0.10516159 0.092761494 0.038996592 -0.04940095 -0.06510495 -0.014286779
-0.04245869 0.09784942 -0.09504611 0.10202071 -0.050709378 0.05833335 0.047268387 -0.019065097
0.006959942 -0.089176305 0.06439085 0.08871682 -0.09336305 0.08119163 -0.12499935 0.1376097
-0.056903437 -0.1187429 0.098643094 0.090012126 0.03976868 0.062675804 -0.069140196 0.115679435

fc2.weight f4 [32, 32]
00000000: cab8 19be f8f4 46bd 6d5b b6bd 4a70 d2bd
00000010: c93d 053e 66c4 063e ca14 ba3d e8e2 293e
00000020: 3d09 dfbd bd05 65bd 3942 123c aeb5 ab3b
00000030: 56ea e63d d0c8 313e 81a9 8a3e c8b6 14be
00000040: a648 213e f146 053e de6f 99bb 6c84 c6ba
00000050: b0ca 00bd 069e a6bd ce23 9cbd 35d9 8a3e
00000060: 02c4 e6bd 6cc6 0e3d 26b3 173d d73c e43d
00000070: 6932 cebc a33b 063e 7326 31be bb17 00be
00000080: 6c4f 1dbe 20d5 a6bb 42e5 dfbd 2ea2 f13d
00000090: 491c acbd 203b 763c e908 193e f266 32be
000000a0: de57 953d 0832 1abe 0670 af3d acbb 3dbd
000000b0: 4852 1bbe 18a2 ee3c 707c 533c 10e6 7b3d
000000c0: 0618 d93d 707e 95bc 9ae4 a7bd 67ea 303e
000000d0: ec9a 5fbd 8be0 1a3e 066b f13d c087 31be
000000e0: c8ad 51bd b018 3b3c 6e10 11be 488d f73c
000000f0: bba5 95bd 74ca b9bd dfbb 063e 32a7 9b3d
00000100: 3162 213e b01e 14bd 89ba 8fbd 0141 0abe
00000110: 82ae d53b 8b06 0e3e 5080 9ebc 4900 343e
00000120: 066c e73d 1e33 60bd 68ae cd3c de92 1d3e
00000130: d598 4a3e 8377 303e d75d cfbc 28ed f53c
00000140: 299a 153e 1002 1f3e 8735 32be 1c75 ec3d
00000150: 7746 a7bd 2285 dfbd 8feb cbbd 3f19 373c
00000160: 9072 e2bc 40ca 4fbb 36ea d6bd fbc3 bb3d
00000170: d4d1 f2bd eb00 123e d75b 23be 3935 1d3d
00000180: 4586 0cbe c653 c9bd f5e8 613c 01b2 7abd
00000190: 12e5 f2bd c840 87bc 3a7b 02be 7351 d7bd
000001a0: cefa d53d f1f7 8ebc 807a 4cbd f23b 073e
000001b0: 9c0d 7c3c b5e9 023e e0e7 953d 00cb 6d3c
000001c0: 6b68 85bd ba1c cdbd 11bc 083e fb0c ce3c
000001d0: 9553 1a3e be60 9f3d 4e2d a9bc e1ce 26be
000001e0: c200 923d 34cb 47bd 1f85 f03b 41b3 bfbd
000001f0: 4e57 e33d 1ff8 103e 1cb7 d6bd d866 8ebd
00000200: cac0 06be 3a3f af3d 3b29 03be 9ef8 0bbe
00000210: 1e54 04be 78ff 11be 17d6 0b3e ebe0 9bbd
00000220: c2cc df3d 5060 48bd d67f 5abd c858 46bd
00000230: 0ed6 12be fcd1 4f3d 3b9f 91bd 44be 583d
00000240: 8a3d 1abe 6884 e23c 5f06 133e 2892 5ebd
00000250: c458 1a3d 9fb5 32be 86df 93bd d3ee 153e
00000260: 9e9a 8f3d 30a5 843d 9a1f 9d3d 50d8 13bd
00000270: 14ad 99bd f35a 2a3e 5cc2 84bd 50fc 66bc
00000280: 5d30 09be e1c1 0a3e ae8e 6cbd 57fa 86bd
00000290: 6a2e e1bd d488 283d 462a 0cbe d6cb 0d3e
000002a0: df13 053e 55c4 09be 8418 26be ec9c 043d
000002b0: 8244 d7bd c396 41be 4100 c73d bc16 36bd
000002c0: 238e ba3c 78e1 9a3c 7ef5 fdbd 26e1 cdbd
000002d0: e0bb 7b3d 07d5 1fbe 68e0 c6bc dea5 f0bc
000002e0: c4ba c8bd 8de9 323e 9a69 20be 892a 1bbe
000002f0: a0de 02be c64e cd3d 5217 1abe d6c5 db3d
00000300: e3a9 253e 6de5 293e 26ae 1e3e 166a 993c
00000310: c86d bcbd 8452 313d 6a0f 953d ed32 793e
00000320: 82a3 1ebe 47fd fd3d c6f6 213d 38ad 8a3e
00000330: 775d 303c 4762 12bd 83f6 923e 012b 31be
00000340: 7dd2 ad3a b8dc 183e 3d19 70bd 4cb8 6b3e
00000350: bac4 dd3d 7f32 fbbc ec98 11bd d2ba 6c3e
00000360: acef 12bd baa0 953d cea2 88bd 7134 dbbd
00000370: 62a1 fcbd 74c9 3dbe 3275 5cbd a835 bbbd
00000380: 5351 323d 8036 c93a 152c 05be 8373 1bbe
00000390: 3ac8 00bd 3282 823d d069 2a3c d69b 8d3e
000003a0: 106c c2bd ee83 11be 88b6 18bd f196 9e3d
000003b0: 7f2d 07be a76e c33d 78cf 763e f8dc 32be
000003c0: 0629 b43d fd8f b63d 9c85 533d 5393 cfbd
000003d0: 2a24 e43d 34f4 f2bd ad80 9dbd 306c 363e
000003e0: 80f4 1bbd 0654 fc3d abec 8abd 8980 24be
000003f0: 013f 1fbe 03c4 9d3b 2a10 0dbe fe7d 113e
-0.15011898 -0.048573464 -0.08904157 -0.10275324 0.1301185 0.13160858 0.090859964 0.16590464
-0.10890434 -0.055913676 0.0089269215 0.0052401638 0.11275165 0.1736176 0.27082446 -0.1452285
0.1575037 0.13015343 -0.004682525 -0.0015145666 -0.031443298 -0.08135609 -0.07624017 0.2711884
-0.11267854 0.0348572 0.037036084 0.11144417 -0.025170522 0.13108687 -0.17299823 -0.12509052
-0.15362328 -0.0050913244 -0.10932399 0.117985114 -0.084038325 0.015028745 0.14944805 -0.17422083
0.0729215 -0.15058148 0.08566289 -0.046321556 -0.15168107 0.029130027 0.012908086 0.0614987
0.10600285 -0.018248767 -0.08197899 0.17276917 -0.054591104 0.15124719 0.11787991 -0.17336941
-0.05119112 0.01141946 -0.14166424 0.030218735 -0.07307001 -0.09071818 0.13157605 0.07600249
0.15760113 -0.03616208 -0.07018001 -0.1350136 0.006521047 0.13869683 -0.019348294 0.17578234
0.11299901 -0.05473625 0.025107577 0.15388057 0.19784863 0.1723309 -0.025313301 0.030020311
0.14609589 0.1552813 -0.17403232 0.11545774 -0.08167737 -0.10914065 -0.099570386 0.011175453
-0.027642518 -0.0031706244 -0.10493891 0.0916824 -0.11856428 0.14258163 -0.15953003 0.038380835
-0.13723095 -0.09830432 0.013788451 -0.061204914 -0.11860098 -0.016510382 -0.1274232 -0.10513582
0.10448228 -0.017452212 -0.049921513 0.13206461 0.015384104 0.12784465 0.07319617 0.014513731
-0.06514057 -0.10015245 0.13352992 0.025152674 0.15070947 0.07782124 -0.020651486 -0.16289856
0.07129051 -0.048777774 0.007340088 -0.09360362 0.111006364 0.1415715 -0.10484144 -0.0695321
-0.1315948 0.085569814 -0.12808697 -0.13669059 -0.12922713 -0.1425761 0.13655888 -0.07611259
0.10927726 -0.048919976 -0.05334457 -0.048424512 -0.14339468 0.050737366 -0.07110449 0.052915826
-0.15062538 0.027651027 0.14357899 -0.054338604 0.03768231 -0.17452095 -0.07220368 0.14641885
0.07011913 0.064768195 0.07672043 -0.036094964 -0.07503715 0.16636257 -0.064823836 -0.014098242
-0.13397355 0.13550521 -0.057753257 -0.06590717 -0.10995181 0.041146114 -0.13688001 0.13847288
0.12995861 -0.13453801 -0.1622029 0.032376215 -0.10511114 -0.18905167 0.09716845 -0.044455275
0.022772854 0.01890634 -0.124003395 -0.10052709 0.06145847 -0.15608607 -0.024276927 -0.029375967
-0.09801248 0.17471905 -0.15665284 -0.15152945 -0.12780237 0.100247905 -0.15047958 0.107310936
0.16178088 0.16591425 0.1549612 0.018727344 -0.092006266 0.043291584 0.072783306 0.24335833
-0.15492061 0.124018244 0.039541982 0.2708528 0.010764471 -0.035738256 0.287037 -0.17301561
0.0013261583 0.14927948 -0.05861782 0.23019522 0.10828538 -0.030663727 -0.03554623 0.23118141
-0.0358731 0.07306047 -0.066716775 -0.10703362 -0.12335469 -0.1853388 -0.053822704 -0.091410935
0.043534588 0.0015351325 -0.13005097 -0.15180783 -0.03144095 0.06372489 0.010401204 0.27657956
-0.094932675 -0.14210483 -0.03728345 0.077436335 -0.13200949 0.0954259 0.2410258 -0.17467105
0.08796887 0.08914182 0.05164109 -0.10135522 0.1113971 -0.11862984 -0.076905586 0.17814708
-0.03807497 0.12320714 -0.06783422 -0.16064657 -0.15551378 0.004814626 -0.13775697 0.14208218

fc2.bias f4 [32]
00000000: 051c a03d 3cd2 40bd 1b1d 933a 372a bebd
00000010: 3eeb 6cbd d7d0 4ebd c200 40bb 0521 cc3b
00000020: e6f4 653d 3d47 d43d 5fa2 263e 1013 623c
00000030: 07dc 89bd d036 5e3d c37b f23d c8e6 20be
00000040: 7451 49bc b744 b73d fd8d 01be a4f5 003e
00000050: e35d f4bd 5634 583d e7cd 4d3d 8eeb 0d3d
00000060: f190 f9bd 0442 393d 4ac4 01be 3e40 b6bd
00000070: aebf 6d3d 28c5 11be ed16 143e 659b 833d
0.07817844 -0.047075495 0.0011223884 -0.092853956 -0.057841532 -0.050492134 -0.0029297327 0.006229522
0.056141756 0.1036515 0.16272877 0.01379849 -0.0673142 0.054251492 0.11840012 -0.15713036
-0.012287486 0.08948653 -0.1265182 0.12593704 -0.1193197 0.052784286 0.050245192 0.03464847
-0.121858485 0.045228973 -0.12672535 -0.08898972 0.058044128 -0.14235365 0.1446187 0.064261235

fc3.weight f4 [1, 32]
00000000: 98c3 223e 8fd2 cdbd 10c5 243d 1070 eb3d
00000010: 76dc 853d a928 f5bc 2d89 903e 3669 433e
00000020: 3f6d f93c 7f64 e7bd d881 25be 9594 313e
00000030: 70ce e1bc 8614 a8bd efa7 5bbd 8279 bebd
00000040: 190f 843d e010 103d be07 d53c e03f a3bd
00000050: 1e8b 4a3d 42b7 0d3e 2ec5 143e f1a6 043e
00000060: f4cd 5e3d 9a9e 7f3d 8626 6abd fc25 fcbd
00000070: 44d6 d23d 0239 ba3b c72c 69bd 21ec 60ba
0.15894926 -0.100499265 0.040226996 0.114959836 0.0653619 -0.029926615 0.28229657 0.19083104
0.0304476 -0.11298465 -0.16162813 0.17341836 -0.027564257 -0.082070395 -0.05362695 -0.093005195
0.06448192 0.035172343 0.026004668 -0.079711676 0.04944908 0.13839439 0.14528343 0.12954308
0.05439563 0.062407114 -0.057165645 -0.123119324 0.10294774 0.0056830654 -0.05692747 -0.0008580108

exp_avg f4 [256, 1]
00000000: 749c 3fb6 4780 f1b5 5b79 6236 0e20 bdb5
00000010: 4cd6 b335 e753 af35 0cb0 9833 3aef 65b6
00000020: 8448 9eb5 08fb 2c37 5251 25b6 3fd6 44b6
00000030: ce8c 6a35 6f83 84b6 39f1 4535 bc79 32b6
00000040: 6e8e fcb5 2000 6db6 de2b 8634 c7da a935
00000050: 32a5 57b6 a828 d1b4 bb40 aab6 9a8a 4936
00000060: dd30 4735 415f b0b6 7f35 ddb5 5c3c 0eb6
00000070: 023f b2b5 57fa a235 dbcb eeb5 d08a f0b5
00000080: ee9f b1b5 0a78 9534 33a0 fcb5 5601 0736
00000090: 562d 06b5 f746 be36 1eae 0ab6 1216 cab5
000000a0: eb57 cfb5 4b60 64b6 483e ec36 a41f b8b5
000000b0: f455 28b6 f47a 20b6 b446 bcb6 eb37 3db6
000000c0: b4fd 33b6 7211 abb6 c8ad 0eb4 7e69 b3b6
000000d0: 2cf4 d634 22e9 6bb6 4fb1 00b6 ab7d 3c37
000000e0: c741 21b6 1544 0eb6 c826 11b6 cc15 6433
000000f0: ed75 33b6 6030 a2b6 eec2 8037 9d79 54b5
00000100: b046 20b6 4079 f0b5 144b 7b35 753a 17b5
00000110: 2333 8635 589f 9d35 3011 98b4 0ec9 48b6
00000120: 050f 3db5 60fd f736 3842 e3b5 9b7d 14b6
00000130: 9f7a 1735 d83f 3eb6 e5e8 9b34 1ce9 9eb5
00000140: 5a10 c1b5 4307 21b6 4c28 2833 dab6 22b3
00000150: 9c48 1cb6 d2b1 17b5 d2cc 7ab6 61af b035
00000160: d24b da34 e4ec 7cb6 0c8d abb5 0e1e b4b5
00000170: 8542 cdb5 73b5 a935 367b a8b5 9ecb c0b5
00000180: 4950 6ab5 ef10 5834 0819 acb5 4e76 9d35
00000190: 963b 06b5 0cde 8336 a006 aab5 7bbd a3b5
000001a0: e2b3 90b5 167b 72b6 ae3a bf36 cf1b c8b5
000001b0: 80b9 f2b5 d477 07b6 cac8 86b6 7abc 25b6
000001c0: 8059 10b6 f017 89b6 a07f fbb3 783a 7cb6
000001d0: 56a4 7d35 853e 01b6 cf79 bbb5 c386 0837
000001e0: fb23 0cb6 acd9 aeb5 314e e9b5 545b e1b2
000001f0: eb4f 01b6 e70e 71b6 3ccb 5037 9c8a 0db4
00000200: 8b51 5538 6a23 2bb8 da1d 3c38 536c 7138
00000210: 6614 86b8 bc77 9938 68ed ebb6 7505 0cb8
00000220: 64dc a9b8 4394 14b9 ef23 3538 4659 1bb8
00000230: bd54 71b6 8062 9537 bd40 3b37 7ffd a0b8
00000240: 51c7 b2b7 4a42 2c38 416f 8b37 6216 a437
00000250: c43e a038 28e5 f1b8 0bc7 fc37 f4bb 36b8
00000260: b47e 4237 9bba 95b8 fe75 0eb7 0611 5cb8
00000270: a855 d1b6 8c3a 9b38 5810 7438 9a7d 76b8
00000280: 97d7 2c38 cac1 31b6 ac86 a138 2694 26b8
00000290: 20e4 ebb6 163d d6b8 5338 46b8 2ad7 cf38
000002a0: 3a26 e937 3a6a ce37 b6a9 dab8 73bb afb7
000002b0: 1a67 62b7 fee4 d8b7 828a 64b8 8ae7 9037
000002c0: 43fd 39b8 3f16 1a38 7a04 6037 e563 18b8
000002d0: 8ac7 8f38 f449 9b38 95dc 1ab8 64f7 dbb8
000002e0: d82e c8b7 a2cc 8c38 0191 aab7 e776 3ab6
000002f0: 22bc 7eb8 35d1 cdb7 30cd 06b9 b863 44b8
00000300: 7553 0ab6 494c d3b5 6d68 4d36 7abc 09b5
00000310: 4aed a635 9ac6 c535 c0f3 7531 85fb 3db6
00000320: 33d4 8eb5 daca 3337 87ad 0db6 c2e1 1bb6
00000330: 2b97 8735 b0cd 97b6 43b4 0735 f4da fdb5
00000340: d0f4 e7b5 e7e1 5bb6 4ae7 9534 8c1c 9835
00000350: abfe 3eb6 f84a f134 4147 aeb6 61b9 4d36
00000360: 62da 4f35 3429 b6b6 36e1 f5b5 2b14 13b6
00000370: acbf 9bb5 70ea 7035 9551 d6b5 66f5 dab5
00000380: 5a7a 5bb5 eb26 9534 63d6 9bb5 dce2 1936
00000390: 7878 fbb4 4be6 ca36 a810 0db6 be88 c8b5
000003a0: ae5a abb5 827e 83b6 3c1c ff36 24cd d5b5
000003b0: 7619 21b6 976f 23b6 7688 a8b6 e0c0 48b6
000003c0: cd18 24b6 7aaa a2b6 d8ac 7ab3 70ac 9cb6
000003d0: 4a0d 5f35 291e 30b6 a159 16b6 f5d7 2e37
000003e0: c0ee 18b6 34f5 d8b5 c4b7 14b6 a22f 5533
000003f0: 72af 0bb6 8000 9bb6 9392 8637 60bd 3f33
-2.8552286e-06 -1.7993233e-06 3.3747262e-06 -1.4090926e-06 1.3398908e-06 1.3062935e-06 7.110074e-08 -3.4262907e-06
-1.1793022e-06 1.0310447e-05 -2.463425e-06 -2.9330984e-06 8.737669e-07 -3.9492074e-06 7.3739244e-07 -2.6594926e-06
-1.8816916e-06 -3.5315825e-06 2.4991363e-07 1.2655154e-06 -3.2133653e-06 -3.8958865e-07 -5.0739304e-06 3.003201e-06
7.420438e-07 -5.2562978e-06 -1.6481353e-06 -2.1194783e-06 -1.3280371e-06 1.2142799e-06 -1.7791712e-06 -1.7921793e-06
-1.3234073e-06 2.7840753e-07 -1.8822087e-06 2.0117345e-06 -4.998486e-07 5.6707026e-06 -2.0664952e-06 -1.5056596e-06
-1.5448289e-06 -3.4030697e-06 7.0405986e-06 -1.3718277e-06 -2.5083982e-06 -2.3913426e-06 -5.6110675e-06 -2.8195743e-06
-2.6820753e-06 -5.098228e-06 -1.3288002e-07 -5.3468966e-06 4.0038265e-07 -3.515343e-06 -1.9176694e-06 1.1234933e-05
-2.4029157e-06 -2.1199278e-06 -2.1629257e-06 5.310521e-08 -2.674172e-06 -4.833608e-06 1.534956e-05 -7.9153125e-07
-2.3883003e-06 -1.7916682e-06 9.361404e-07 -5.633695e-07 9.998661e-07 1.1743787e-06 -2.8324712e-07 -2.9919352e-06
-7.0429843e-07 7.3906704e-06 -1.693209e-06 -2.212683e-06 5.643032e-07 -2.8349368e-06 2.9040453e-07 -1.1839761e-06
-1.438438e-06 -2.3995096e-06 3.9152198e-08 -3.7884867e-08 -2.3288076e-06 -5.6510646e-07 -3.7372124e-06 1.3164064e-06
4.066083e-07 -3.7688815e-06 -1.2781543e-06 -1.3419792e-06 -1.529305e-06 1.264429e-06 -1.2552835e-06 -1.4364375e-06
-8.7288623e-07 2.0122728e-07 -1.2822284e-06 1.1731843e-06 -5.00056e-07 3.929954e-06 -1.2667915e-06 -1.2199592e-06
-1.0781189e-06 -3.6132456e-06 5.699075e-06 -1.4909255e-06 -1.8084393e-06 -2.0186317e-06 -4.016886e-06 -2.4696624e-06
-2.1509768e-06 -4.085705e-06 -1.1711313e-07 -3.758496e-06 9.4488985e-07 -1.925889e-06 -1.3968037e-06 8.137608e-06
-2.088257e-06 -1.3027361e-06 -1.738261e-06 -2.6234979e-08 -1.9269016e-06 -3.5920473e-06 1.2445085e-05 -1.3182074e-07
5.08591e-05 -4.080256e-05 4.4850494e-05 5.7559762e-05 -6.3934174e-05 7.317911e-05 -7.0311835e-06 -3.3383683e-05
-8.099599e-05 -0.00014169612 4.318723e-05 -3.7038022e-05 -3.5961123e-06 1.7808052e-05 1.1161142e-05 -7.676612e-05
-2.1312067e-05 4.1069732e-05 1.6621898e-05 1.9560746e-05 7.6410855e-05 -0.00011534459 3.0133428e-05 -4.3567226e-05
1.15928015e-05 -7.1396316e-05 -8.491332e-06 -5.246794e-05 -6.238657e-06 7.401881e-05 5.8189355e-05 -5.8767946e-05
4.120878e-05 -2.6487855e-06 7.702163e-05 -3.9715458e-05 -7.030103e-06 -0.00010215693 -4.7259335e-05 9.9106066e-05
2.7793565e-05 2.460658e-05 -0.00010426661 -2.0948914e-05 -1.3494655e-05 -2.585584e-05 -5.448843e-05 1.7273956e-05
-4.4343305e-05 3.673718e-05 1.3352483e-05 -3.6332658e-05 6.8559384e-05 7.404751e-05 -3.6921894e-05 -0.00010488814
-2.3863671e-05 6.713836e-05 -2.0333102e-05 -2.778537e-06 -6.073353e-05 -2.4535324e-05 -0.00012855674 -4.6822912e-05
-2.061218e-06 -1.5742927e-06 3.0608164e-06 -5.1310747e-07 1.2437024e-06 1.4735444e-06 3.5790748e-09 -2.8309598e-06
-1.0641583e-06 1.07164615e-05 -2.1111643e-06 -2.3228208e-06 1.010228e-06 -4.524096e-06 5.0553734e-07 -1.8913693e-06
-1.7282091e-06 -3.2765035e-06 2.7921698e-07 1.1333191e-06 -2.8460443e-06 4.4944295e-07 -5.193899e-06 3.0655285e-06
7.74313e-07 -5.4288193e-06 -1.8319467e-06 -2.1916446e-06 -1.1604184e-06 8.974812e-07 -1.5967986e-06 -1.6313686e-06
-8.17619e-07 2.778173e-07 -1.1610795e-06 2.2930826e-06 -4.6840046e-07 6.0468788e-06 -2.1020332e-06 -1.4940958e-06
-1.2766884e-06 -3.9188317e-06 7.602879e-06 -1.592944e-06 -2.400569e-06 -2.4353847e-06 -5.0226763e-06 -2.991459e-06
-2.445234e-06 -4.8478223e-06 -5.836486e-08 -4.6692367e-06 8.309331e-07 -2.62436e-06 -2.2403913e-06 1.042149e-05
-2.2788736e-06 -1.6164618e-06 -2.2160684e-06 4.963625e-08 -2.0814737e-06 -4.619418e-06 1.6042299e-05 4.464289e-08
