checkpoints/StockPrediction_epoch_9.pt (torch, 255962 bytes, 27 tensors)

lstm.weight_ih_l0 f4 [256, 1]
0.020570436 0.029189778 -0.0814221 0.039405156 -0.04423238 -0.0010398988 -0.10736182 -0.0034692732
0.046138253 -0.005075646 0.044033144 -0.053373728 0.09253755 -0.0632708 -0.00089591905 -0.087932125
0.03754606 -0.04265536 -0.08006676 -0.040111184 -0.12592676 -0.08435968 -0.1255101 0.070160404
-0.07541801 -0.1336983 -0.11407603 -0.13730651 -0.06747427 -0.16342923 0.038702797 -0.17033952
0.051010106 0.01372186 -0.09900559 0.10704752 -0.0339841 0.1334936 -0.01881565 -0.110330716
-0.037788387 -0.110646896 0.138381 0.050523367 -0.010387133 -0.12625515 0.0016778815 -0.059142303
-0.0144544225 -0.15360655 -0.14278917 -0.12566893 -0.14775749 0.0302677 -0.032598473 0.14579552
-0.029611228 -0.07168724 0.018357225 -0.10206314 -0.06987231 -0.16670366 0.23720801 -0.09900188
-0.03761071 -0.10335377 0.051340546 -0.1498621 -0.08213769 -0.101900205 0.06780627 -0.03605311
0.056265924 -0.0140825305 -0.18574369 -0.17476349 -0.07701296 -0.029720278 -0.019177048 0.034123883
-0.1234296 -0.14716722 0.052902974 -0.12345074 0.007907237 -0.09779484 -0.0025529724 -0.10294898
-0.04293287 -0.035908613 -0.05386511 -0.09652498 -0.005519318 0.04865755 -0.16459802 -0.13100131
0.063083045 -0.039429866 -0.10604301 -0.091800205 -0.12745051 0.12186161 -0.04493459 -0.15920325
-0.06772883 -0.16083029 0.010334417 -0.13167793 -0.19172242 -0.15136169 0.053045623 -0.061378654
-0.03935041 -0.19497682 -0.095516205 -0.11595478 -0.026239065 -0.18110986 -0.11687108 0.082596436
-0.068931855 -0.11633143 -0.08946049 -0.09056868 -0.16402721 -0.15439603 0.21628958 -0.14916666
0.19225824 -0.100969404 0.065908976 0.117497936 -0.15144329 0.1521586 0.010010806 -0.12125505
-0.18029052 -0.16726191 0.109916195 -0.10693523 0.046513103 -0.03011114 0.036716133 -0.16649644
-0.081238076 0.09420746 0.044347417 0.037653964 0.18807371 -0.17916471 0.10080524 -0.10067225
0.009369402 -0.17481136 0.043907378 -0.16329806 -0.00053371704 0.12025524 0.12071933 -0.14479616
0.16291612 0.03389408 0.091872685 -0.1323367 -0.011763443 -0.09100442 -0.09309743 0.18920965
0.102563836 0.0010982436 -0.112160884 -0.065200314 -0.0015182388 -0.102169484 -0.14769357 0.042471863
-0.17322099 0.119706705 0.13168329 -0.19572505 0.10472629 0.1405019 -0.056522887 -0.11567252
0.000941958 0.14307258 -0.027568338 -0.03203685 -0.1146142 -0.06335072 -0.11532967 -0.11933951
0.0025032645 0.028551163 -0.06695985 -0.10405928 -0.01267296 -0.025826555 -0.013811973 -0.046510816
-0.1838309 0.056490082 0.03792187 -0.031699162 -0.0035788896 -0.16279395 -0.13894586 -0.18649893
-0.10415263 -0.022772029 0.059016008 -0.017682575 -0.18762188 -0.14880295 -0.09951258 0.111516505
0.029441044 -0.11576607 -0.03317724 -0.11701239 -0.16627628 0.036678445 -0.13454208 -0.093176946
-0.16663048 0.07715658 0.03143549 0.07903133 -0.14182797 -0.065069854 -0.13476536 0.01350841
-0.019464001 0.022155957 0.17175436 -0.034613367 -0.08788984 -0.17067869 -0.18111326 -0.20345211
-0.03035881 -0.14518322 -0.04356564 -0.1553347 -0.07364488 -0.16218154 -0.16112421 0.15246947
-0.1077461 0.0017659466 -0.12292102 -0.10437909 -0.10375573 -0.14567079 0.19606659 -0.17207702
00000000: 5583 a83c 671f ef3c a1c0 a6bd 4d67 213d
00000010: 032d 35bd 374d 88ba 84e0 dbbd bf5c 63bb
00000020: 77fb 3c3d 9b51 a6bb 195c 343d 699e 5abd
00000030: 5484 bd3d 1f94 81bd 1cdc 6aba c215 b4bd
00000040: e6c9 193d 63b7 2ebd 0bfa a3bd a04b 24bd
00000050: f2f2 00be c5c4 acbd b885 00be 42b0 8f3d
00000060: c274 9abd 35e8 08be b2a0 e9bd 149a 0cbe
00000070: f32f 8abd fe59 27be d386 1e3d 7c6d 2ebe
00000080: f9ef 503d a7d1 603c 71c3 cabd bb3b db3d
00000090: e932 0bbd 8cb2 083e 4723 9abc 12f5 e1bd
000000a0: ffc7 1abd d79a e2bd c0b3 0d3e 97f1 4e3d
000000b0: cb2e 2abc 0849 01be 5cec db3a 333f 72bd
000000c0: 3ed2 6cbc 094b 1dbe 5337 12be 5baf 00be
000000d0: bd4d 17be f8f3 f73c fa85 05bd 6c4b 153e
000000e0: 3f93 f2bc c2d0 92bd e461 963c 7b06 d1bd
000000f0: 3719 8fbd 5db4 2abe a8e6 723e 7fc1 cabd
00000100: b00d 1abd 24ab d3bd 774a 523d 7375 19be
00000110: ce37 a8bd 0eb1 d0bd 04de 8a3d 6dac 13bd
00000120: 1977 663d 6aba 66bc 9833 3ebe 33f5 32be
00000130: f9b8 9dbd f177 f3bc 2f19 9dbc 7cc5 0b3d
00000140: a8c8 fcbd 01b3 16be cab0 583d bed3 fcbd
00000150: 5b8d 013c a948 c8bd c54f 27bb ead6 d2bd
00000160: 61da 2fbd e914 13bd a9a1 5cbd e4ae c5bd
00000170: 65db b4bb 244d 473d 628c 28be 3525 06be
00000180: af31 813d 3681 21bd 142d d9bd bf01 bcbd
00000190: 6382 02be 9492 f93d 550d 38bd 2d06 23be
000001a0: 6ab5 8abd b2b0 24be b051 293c 94d6 06be
000001b0: e252 44be 8ffe 1abe 5e46 593d 2f68 7bbd
000001c0: e52d 21bd 01a8 47be 009e c3bd b379 edbd
000001d0: 4ff3 d6bc dd74 39be 1b5a efbd 5228 a93d
000001e0: 252c 8dbd 2c3f eebd 1037 b7bd 127c b9bd
000001f0: c0f6 27be fe19 1ebe 047b 5d3e 25bf 18be
00000200: 58df 443e 0cc9 cebd 49fb 863d c2a2 f03d
00000210: f313 1bbe 77cf 1b3e 5d04 243c 9154 f8bd
00000220: 149e 38be b546 2bbe be1b e13d dc00 dbbd
00000230: 8684 3e3d a3ab f6bc a863 163d 0b7e 2abe
00000240: 2660 a6bd d7ef c03d a3a5 353d 0b3b 1a3d
00000250: 6596 403e f476 37be fa72 ce3d 412d cebd
00000260: 1f82 193c c001 33be 39d8 333d 9b37 27be
00000270: 25e9 0bba 6148 f63d b23b f73d 7245 14be
00000280: 7cd3 263e 85d4 0a3d bf27 bc3d 4683 07be
00000290: 75bb 40bc 8660 babd dea9 bebd 2dc0 413e
000002a0: fd0c d23d f1f2 8f3a 9bb4 e5bd be87 85bd
000002b0: a4ff c6ba 3c3e d1bd fc3c 17be faf6 2d3d
000002c0: d860 31be ca28 f53d fcd7 063e 266c 48be
000002d0: bd7a d63d bbdf 0f3e 8b84 67bd b7e5 ecbd
000002e0: bbed 763a 9e81 123e ffd6 e1bc 1239 03bd
000002f0: daba eabd 06be 81bd f631 ecbd 4668 f4bd
00000300: cf0d 243b 21e4 e93c 3f22 89bd 081d d5bd
00000310: 3fa2 4fbc 3692 d3bc 9d4b 62bc 2082 3ebd
00000320: 2b3e 3cbe 2562 673d f653 1b3d fbd6 01bd
00000330: ce8b 6abb 75b3 26be d347 0ebe 93f9 3ebe
00000340: f94d d5bd 688c babc c5ba 713d 0cdb 90bc
00000350: f31f 40be cd5f 18be 40cd cbbd c462 e43d
00000360: 582e f13c c316 edbd dce4 07bd 31a4 efbd
00000370: 5444 2abe 233c 163d 66c5 09be 8ed3 bebd
00000380: 2ea1 2abe 4504 9e3d 80c2 003d 2edb a13d
00000390: 5a3b 11be 5843 85bd eeff 09be 6152 5d3c
000003a0: f872 9fbc 6980 b53c 60e0 2f3e bfc6 0dbd
000003b0: 97ff b3bd 65c6 2ebe c175 39be c055 50be
000003c0: 0ab3 f8bc e9aa 14be e271 32bd 0f10 1fbe
000003d0: 20d3 96bd eb12 26be bffd 24be f520 1c3e
000003e0: fda9 dcbd 5677 e73a 04be fbbd b4c4 d5bd
000003f0: e27d d4bd b92a 15be aec5 483e f534 30be

lstm.weight_hh_l0 f4 [256, 64]
0.02381802 -0.045152254 0.06853527 0.00852473 0.1350066 -0.15533473 0.06162342 -0.015375255
0.0950614 0.19173549 -0.057083014 0.045908857 -0.05826042 -0.14106789 0.08790836 -0.07050148
0.11788801 0.054821488 0.11115277 0.0011287502 -0.1518412 0.08346757 0.028543513 -0.09979548
-0.011611872 -0.026990931 0.024539812 -0.013692404 -0.013146461 -0.065353654 -0.16695835 0.15225433
0.05180952 -0.042998143 -0.051910993 0.009377081 -0.09065767 -0.07921396 0.08822399 -0.121531576
-0.12504964 -0.046123583 0.008819322 -0.004777104 0.0417249 0.018170465 -0.00089499424 -0.09878989
-0.057150494 0.060016386 -0.09326628 0.07837131 -0.08540282 -0.039248317 0.15341789 0.08814614
-0.07819049 0.0037624394 0.15592416 0.060796026 0.13119079 0.16622756 -0.008002936 0.046744782
-0.1345099 0.017603097 0.10020817 0.014798398 -0.03506429 -0.15479286 -0.11817151 -0.07809689
-0.04728096 0.038827144 0.043951694 0.06898787 -0.12709683 -0.14025082 0.09647759 -0.03891278
0.025430549 0.020213114 -0.052915987 0.015377989 -0.06077063 0.02635567 -0.10602903 -0.10064515
-0.07923609 -0.017952839 0.15949057 -0.012084262 -0.042688895 0.005039678 -0.0148918405 0.11861142
0.043362647 0.0435195 -0.161306 0.072268136 0.09494597 0.028245118 -0.0343082 0.065566264
-0.09313486 -0.11007201 -0.073443264 0.04286484 0.096733294 0.07359811 0.068000674 -0.1358098
-0.07085562 -0.04377484 0.07290351 0.1186944 -0.10881795 -0.06566365 -0.06128801 -0.040787634
0.053136546 0.020610753 0.14390631 -0.086828135 0.13280743 -0.043317325 0.0461176 0.13110039
-0.028168036 0.14164142 -0.06694263 -0.08042793 0.096941456 -0.05665807 -0.046654437 -0.02234367
0.11641576 0.0651873 0.015535546 -0.03962219 -0.097979516 -0.015805582 0.061395526 -0.023170758
-0.010339831 0.059783116 0.04190883 0.04082173 -0.061816793 -0.07778288 -0.14529692 -0.08596336
-0.1428063 0.06945126 -0.006373365 -0.019250283 0.14820755 -0.0011113351 0.057097394 -0.030327726
-0.08009977 0.043808524 -0.13064004 -0.057699826 0.034100894 -0.015901556 -0.074783996 0.040780444
0.06991619 -0.0065063816 -0.023760647 -0.09371933 -0.017351575 0.061214056 0.08604696 -0.042870563
-0.020727739 0.039967705 -0.12118063 0.108782664 -0.09788637 -0.028711421 0.022872753 0.05101928
-0.02149889 0.059761047 0.024068592 0.066435896 0.15212236 -0.03189329 -0.05505202 0.14643227
0.045820534 -0.046196356 0.0078138085 -0.17632368 -0.05458049 -0.031090418 -0.0044749477 0.07745061
0.019088387 0.18376574 -0.028102629 -0.020684365 -0.04232774 -0.016223049 0.08530926 -0.031308517
0.093280286 -0.109334424 -0.09838217 -0.028048355 0.066768475 0.16601366 0.06390384 0.08710019
0.11088042 0.03684197 -0.023516634 0.11480335 -0.017318271 -0.11462161 -0.0934885 0.0806945
0.009833074 -0.08251472 -0.11557829 0.08509331 -0.0458971 -0.043341797 0.1099109 -0.07784231
0.063057594 0.07613442 0.069293275 0.08664933 0.076181196 0.053028785 0.039581582 -0.04523571
0.09661663 0.064750746 -0.07756337 -0.0014310878 -0.0702719 -0.11371166 0.05973588 0.10322896
0.13624957 0.0057125594 -0.04603091 -0.028891666 0.026076145 0.027279949 -0.0037016363 -0.086728625
00000000: 021e c33c 92f1 38bd 385c 8c3d 4fab 0b3c
00000010: 2c3f 0a3e 1110 1fbe d768 7c3d 7ee8 7bbc
00000020: 8daf c23d 4f56 443e e1cf 69bd ed0a 3c3d
00000030: 7aa2 6ebd 1a74 10be 4c09 b43d 1463 90bd
00000040: 456f f13d 7f8c 603d 10a4 e33d 92f2 933a
00000050: 427c 1bbe 0cf1 aa3d 16d4 e93c 9361 ccbd
00000060: b93f 3ebc 161c ddbc b707 c93c 1b56 60bc
00000070: 4164 57bc 23d8 85bd 21f7 2abe 8fe8 1b3e
00000080: 3836 543d d21e 30bd 9fa0 54bd 54a2 193c
00000090: baaa b9bd ee3a a2bd c7ae b43d 8ce5 f8bd
000000a0: 030d 00be 15ec 3cbd eb7e 103c 4189 9cbb
000000b0: bbe7 2a3d 3ada 943c 0c9e 6aba 5b52 cabd
000000c0: a316 6abd bed3 753d 6402 bfbd 2381 a03d
000000d0: ace7 aebd d8c2 20bd 9419 1d3e f785 b43d
000000e0: 5622 a0bd 4293 763b 95aa 1f3e 4105 793d
000000f0: e156 063e 8f37 2a3e bf1e 03bc 7577 3f3d
00000100: f7bc 09be 5f34 903c f139 cd3d fb74 723c
00000110: 939f 0fbd 0582 1ebe e803 f2bd 43f1 9fbd
00000120: aea9 41bd 3609 1f3d b106 343d 8349 8d3d
00000130: ac25 02be e99d 0fbe 0b96 c53d 0263 1fbd
00000140: ba53 d03c f995 a53c 6fbe 58bd f6f3 7b3c
00000150: a0ea 78bd d9e7 d73c c025 d9bd 0b1f cebd
00000160: 8846 a2bd d511 93bc 7f51 233e 12fd 45bc
00000170: 8dda 2ebd e223 a53b e8fc 73bc 8bea f23d
00000180: 089d 313d 8141 323d 662d 25be 5101 943d
00000190: 0873 c23d 4e62 e73c c186 0cbd 9b47 863d
000001a0: 7dbd bebd 6f6d e1bd 6c69 96bd 0b93 2f3d
000001b0: 1b1c c63d 9bba 963d f043 8b3d b911 0bbe
000001c0: c01c 91bd 3f4d 33bd 6f4e 953d 0d16 f33d
000001d0: f2db debd aa7a 86bd 2309 7bbd ef10 27bd
000001e0: b5a5 593d e2d7 a83c 2d5c 133e f3d2 b1bd
000001f0: acfe 073e 826d 31bd cfe5 3c3d 2e3f 063e
00000200: a7c0 e6bc 730a 113e 3819 89bd 66b7 a4bd
00000210: 3e89 c63d 4b12 68bd b918 3fbd 120a b7bc
00000220: 636b ee3d eb80 853d cd88 7e3c e14a 22bd
00000230: 7ca9 c8bd b57a 81bc e079 7b3d 9ad0 bdbc
00000240: 6568 29bc 24df 743d 98a8 2b3d b034 273d
00000250: 9b33 7dbd a14c 9fbd b7c8 14be 8f0d b0bd
00000260: d13b 12be 763c 8e3d a9d7 d0bb c5b2 9dbc
00000270: b8c3 173e 38aa 91ba f5de 693d da71 f8bc
00000280: 590b a4bd 9170 333d 81c6 05be a756 6cbd
00000290: 61ad 0b3d fb43 82bc 5a28 99bd 6509 273d
000002a0: 3830 8f3d 7c33 d5bb b0a5 c2bc ecef bfbd
000002b0: e424 8ebc 97bb 7a3d 6339 b03d 0b99 2fbd
000002c0: 38cd a9bc 2db5 233d 8d2d f8bd 72c9 de3d
000002d0: a678 c8bd 3734 ebbc a45f bb3c 98f9 503d
000002e0: 711e b0bc 00c8 743d 7f2b c53c 8b0f 883d
000002f0: f7c5 1b3e 8aa2 02bd 3a7e 61bd 57f2 153e
00000300: 50ae 3b3d 6438 3dbd 7d05 003c 328e 34be
00000310: cb8f 5fbd 55b1 febc 95a2 92bb 6d9e 9e3d
00000320: 405f 9c3c 162d 3c3e 7c37 e6bc 4272 a9bc
00000330: da5f 2dbd 33e6 84bc 9fb6 ae3d 5c3d 00bd
00000340: bc09 bf3d baea dfbd 977c c9bd aac5 e5bc
00000350: e9bd 883d 7cff 293e 04e0 823d 9661 b23d
00000360: 4615 e33d 9be7 163d f5a5 c0bc 051e eb3d
00000370: 0cdf 8dbc bcbe eabd e676 bfbd 2843 a53d
00000380: e71a 213c 7afd a8bd 4fb4 ecbd 6745 ae3d
00000390: 99fe 3bbd 2b87 31bd f718 e13d ca6b 9fbd
000003a0: 5724 813d 5dec 9b3d a2e9 8d3d 3475 b13d
000003b0: e304 9c3d b634 593d 4c20 223d 1449 39bd
000003c0: f1de c53d 0a9c 843d 8bd9 9ebd 5793 bbba
000003d0: b7ea 8fbd a9e1 e8bd 9cad 743d b469 d33d
000003e0: 0285 0b3e 6c30 bb3b e88a 3cbd 37ae ecbc
000003f0: a49d d53c 337a df3c 2797 72bb c79e b1bd

lstm.bias_ih_l0 f4 [256]
0.035223257 -0.025827052 -0.04438215 -0.003368188 0.0591667 -0.062942415 0.114530474 -0.04327197
0.06722526 0.1699969 -0.033266038 -0.048699647 -0.08536391 -0.02303762 -0.06500458 -0.088966705
-0.048186462 -0.037336227 0.101420924 0.004424588 0.049167633 0.0064471434 0.04339913 0.07286328
-0.007547306 0.012159138 0.03318236 0.14229004 -0.05462847 0.13777548 0.005428728 0.11205507
0.10999245 -0.029568577 0.021439772 0.08362157 -0.015812118 0.06412708 0.11084235 0.014028767
-0.009051425 0.12236725 0.14039607 0.12932388 -0.09440997 0.10638067 0.082319915 -0.05565998
0.111542314 -0.033365753 0.056232307 0.040109627 0.06572568 -0.041506212 0.007639646 -0.03421362
0.07542977 -0.06516785 0.03151067 0.022466967 0.023692824 -0.0129472455 0.06328319 0.032942213
-0.038398888 -5.794087e-05 -0.009445345 -0.026433617 -0.005068984 -0.009220801 -0.06867475 -0.0645378
-0.047883995 -6.68884e-05 0.11597429 0.022024082 -0.08783218 -0.060917832 0.03846122 0.14596951
-0.096420765 0.105395116 0.10328797 0.05600273 0.100730084 0.08520876 -0.078663036 -0.043036062
-0.057398636 -0.04352532 0.025294408 0.056378238 0.037697397 0.09060947 -0.039521106 0.13042817
-0.02728407 0.06958835 0.13958247 -0.115699425 -0.11839594 0.12993881 0.08757116 0.026372157
0.061771616 0.048716128 -0.0054177055 0.07593692 0.069173805 -0.09280527 -0.012164932 -0.043515228
0.08491146 -0.084460735 -0.11867514 -0.077451915 -0.017428692 -0.060516853 0.003319747 -0.018538391
0.09408188 0.14740683 0.07259203 -0.06718321 0.079829365 -0.07648152 0.0037677723 -0.003491807
-0.112375274 0.13377382 0.11862497 0.04990973 0.0210918 0.13171121 -0.054237638 0.04592778
-0.04497287 -0.08010273 -0.10480727 0.08703976 -0.06380683 -0.084035344 0.13092409 -0.07194022
0.014691677 -0.100483775 -0.06180289 0.14051883 0.061038993 0.012195759 -0.07631635 0.041573428
0.08211482 0.030265044 -0.059799626 0.0018267996 0.08519191 0.03559334 0.10500638 0.11005199
0.09628738 -0.053684395 -0.016552513 -0.038258344 -0.035473704 0.017674211 0.06096751 -0.07380178
-0.050005738 -0.118104056 -0.037137218 0.07571563 0.13734482 0.012721017 0.08105778 -0.13543522
-0.008447464 -0.04785565 -0.027771704 0.12266101 0.074189335 -0.111871734 -0.090149984 -0.09543127
0.061263688 0.055117317 0.07946124 0.07542117 -0.07215888 0.028240677 -0.113554955 -0.04293045
0.040464964 0.023356745 -0.07842161 0.041359987 0.056984458 0.14033325 -0.030031223 0.122707665
0.00913454 -0.046607822 0.1328108 0.011443661 -0.049881026 0.014817946 0.12823705 -0.013045838
-0.011238027 0.022772966 -0.08661243 0.078638226 0.1489681 0.09694263 0.0012603659 -0.0134916315
-0.1464215 -0.058637705 -0.0019584848 0.10212821 0.14711809 0.017738579 0.02620687 0.11680209
-0.014753696 -0.11870034 0.097549066 -0.057768587 -0.08364002 0.034623716 -0.09307808 -0.047120284
-0.026001535 0.025820974 0.07317386 -0.036880404 -0.094476506 -0.01207439 0.13800678 0.0017457728
-0.05075676 -0.0045581246 0.103471175 0.0596439 0.011819907 0.15784115 0.05381619 0.052996654
0.12824962 0.03139217 0.003534057 0.074332245 0.07429714 -0.05515683 0.12277791 -0.029608205
00000000: 4346 103d 4193 d3bc 0fca 35bd d1bc 5cbb
00000010: c858 723d f4e7 80bd f48e ea3d f33d 31bd
00000020: 66ad 893d ab13 2e3e f841 08bd 4879 47bd
00000030: 46d3 aebd 64b9 bcbc 1f21 85bd 2d34 b6bd
00000040: 2b5f 45bd dfed 18bd c6b5 cf3d 22fc 903b
00000050: 0064 493d 8f42 d33b 49c3 313d 5839 953d
00000060: 644f f7bb 1f37 473c 3aea 073d 7bb4 113e
00000070: 1ac2 5fbd 0415 0d3e 79e3 b13b 217d e53d
00000080: b943 e13d cd39 f2bc 76a2 af3c c941 ab3d
00000090: 6a88 81bc 0f55 833d 5001 e33d ead8 653c
000000a0: 6e4c 14bc ae9b fa3d fdc3 0f3e 7b6d 043e
000000b0: 045a c1bd 1cde d93d 5897 a83d b8fb 63bd
000000c0: 4c70 e43d 87aa 08bd d953 663d fe49 243d
000000d0: 2f9b 863d 6b02 2abd ff55 fa3b 9523 0cbd
000000e0: ec7a 9a3d b976 85bd 5511 013d a50c b83c
000000f0: 7417 c23c af20 54bc 9e9a 813d 6aee 063d
00000100: 2748 1dbd 8905 73b8 a6c0 1abc 508b d8bc
00000110: b819 a6bb d812 17bc 59a5 8cbd 652c 84bd
00000120: 0222 44bd 7046 8cb8 ee83 ed3d d96b b43c
00000130: 5ce1 b3bd fa84 79bd 8389 1d3d 0879 153e
00000140: 4078 c5bd 65d9 d73d a588 d33d 1e63 653d
00000150: 934b ce3d ee81 ae3d 161a a1bd 9546 30bd
00000160: d51a 6bbd 9b47 32bd 3836 cf3c deec 663d
00000170: 9668 1a3d 7591 b93d e2e0 21bd f68e 053e
00000180: d882 dfbc 5684 8e3d b5ee 0e3e d2f3 ecbd
00000190: 9279 f2bd ae0e 053e 8258 b33d 6c0a d83c
000001a0: 3c04 7d3d 908a 473d 0287 b1bb d184 9b3d
000001b0: ffaa 8d3d b010 bebd 6c4f 47bc 063d 32bd
000001c0: 0fe6 ad3d c0f9 acbd f40b f3bd 1c9f 9ebd
000001d0: 9ec6 8ebc 85e0 77bd 1d90 593b d3dd 97bc
000001e0: 00ae c03d d1f1 163e 21ab 943d 5a97 89bd
000001f0: 947d a33d 58a2 9cbd bbec 763b cdd6 64bb
00000200: 0225 e6bd 01fc 083e a6f1 f23d 256e 4c3d
00000210: b6c8 ac3c 4edf 063e 4928 5ebd c51e 3c3d
00000220: 7935 38bd e60c a4bd 32a5 d6bd e741 b23d
00000230: 28ad 82bd b91a acbd f710 063e 6555 93bd
00000240: 5cb5 703c 70ca cdbd 0725 7dbd 2be4 0f3e
00000250: 0604 7a3d b9d0 473c bf4b 9cbd e648 2a3d
00000260: d12b a83d 66ee f73c 74f0 74bd 3971 ef3a
00000270: 1979 ae3d 52ca 113d 960d d73d f062 e13d
00000280: 5132 c53d 2be4 5bbd 2399 87bc c8b4 1cbd
00000290: e04c 11bd 82c9 903c 11b9 793d 6325 97bd
000002a0: d1d2 4cbd 8ae0 f1bd 321d 18bd cc10 9b3d
000002b0: 1fa4 0c3e d06b 503c 9f01 a63d 88af 0abe
000002c0: 3b67 0abc 4904 44bd 7c81 e3bc b235 fb3d
000002d0: 94f0 973d 021d e5bd 8ea0 b8bd 7871 c3bd
000002e0: a2ef 7a3d b2c2 613d 93bc a23d 6a76 9a3d
000002f0: 09c8 93bd fe58 e73c 808f e8bd d7d7 2fbd
00000300: 97be 253d a556 bf3c 829b a0bd 1769 293d
00000310: 8968 693d 85b3 0f3e 0a04 f6bc 284e fb3d
00000320: 0aa9 153c d8e7 3ebd 8eff 073e 317e 3b3c
00000330: 0c50 4cbd f8c6 723c 9350 033e 36be 55bc
00000340: b41f 38bc 5f8e ba3c dc61 b1bd 140d a13d
00000350: 188b 183e dc89 c63d dd32 a53a 010c 5dbc
00000360: 85ef 15be 172e 70bd ec59 00bb 9828 d13d
00000370: 20a6 163e 7f50 913c caaf d63c ef35 ef3d
00000380: 7cb9 71bc 2a19 f3bd cec7 c73d c19e 6cbd
00000390: 754b abbd 99d1 0d3d b89f bebd 3301 41bd
000003a0: 2c01 d5bc 8286 d33c 2ddc 953d e80f 17bd
000003b0: e67c c1bd aad3 45bc a651 0d3e 6ad2 e43a
000003c0: 52e6 4fbd 525c 95bb b2e8 d33d 294d 743d
000003d0: 49a8 413c 1ca1 213e 5e6e 5c3d 0513 593d
000003e0: de53 033e 1395 003d a39b 673b 813b 983d
000003f0: 1929 983d 21ec 61bd fc72 fb3d e88c f2bc

lstm.bias_hh_l0 f4 [256]
-0.07591897 0.14197317 -0.06989148 -0.011626122 -0.024481025 0.024783254 -0.013468149 0.12708099
0.12570108 -0.065570034 -0.09397739 -0.08746143 0.083461136 0.014221002 -0.050118342 -0.04826213
0.032392647 0.041883867 0.06484647 0.12664886 0.14574145 -0.037659977 0.017307531 -0.06616105
-0.07449039 0.031139972 0.092750356 -0.031776167 -0.04184448 -0.017971044 0.08486586 0.026400026
0.106850855 -0.1464316 0.06405778 0.091644414 0.08029337 -0.07904553 -0.09218964 0.040624272
0.035568655 0.09989591 0.13004239 0.0012206347 -0.013198927 0.09221807 -0.06024632 -0.03292357
0.045283318 0.012730764 0.06567392 0.004637964 0.039597586 0.07084892 0.021120561 -0.0064518517
0.0852548 0.10379063 0.00367464 -0.10585632 -0.014383961 0.11113293 0.10792479 -0.017695365
0.0988484 0.019156259 0.010571523 -0.014777168 -0.004508269 0.0034882193 0.033562217 -0.08215002
0.026156066 -0.070596024 -0.100151315 -0.087203 -0.04080643 0.05776716 0.030200686 0.06910695
-0.03746429 -0.073783614 -0.035412975 -0.06610155 0.022779515 0.074328944 0.04805875 -0.10671786
0.09056903 0.13869312 -0.02676865 -0.076464385 0.05167428 0.05062113 0.0007224138 -0.032141387
0.032983236 -0.10671526 -0.03930276 0.026409311 0.015527937 0.08761438 0.09812531 0.038537804
0.078391336 0.11952645 -0.04550066 0.09343322 0.112674035 -0.01995654 0.12001897 -0.026583446
-0.02839777 0.12997097 0.046736076 0.023726825 -0.07323499 0.10718254 0.058927234 -0.02202777
0.009073377 0.12804072 0.07701827 -0.07615737 0.027491286 -0.013329715 0.14879535 0.08137707
-0.014013927 0.0019060448 -0.05433234 -0.035661306 0.02362322 -0.111183606 0.009244451 0.13487592
0.050864246 0.003208965 -0.036163054 0.001756351 -0.08050354 -0.08866397 0.050898723 0.04409049
0.0723267 -0.056183953 0.046684626 -0.04191884 -0.098359026 -0.041035596 -0.099007934 -0.030054605
-0.015859153 0.0854381 0.086059004 0.021889001 0.07252787 0.0373888 -0.12567845 -0.06027875
-0.06908005 -0.039223395 0.015251525 0.055410117 0.09276764 -0.07060928 0.008428128 0.07976105
0.0141452355 -0.12524705 -0.04122769 0.05179996 0.044751216 0.12034138 0.10397447 -0.08456122
0.08930583 -0.13614458 -0.041172247 0.057625894 -7.202026e-05 0.100245915 0.09773663 -0.06350145
0.1383681 -0.0938947 0.038048595 0.018685302 0.10555982 0.14000358 0.0031050376 -0.03799839
0.13976511 0.12041454 0.020391136 0.13291408 0.016790593 0.017358446 0.04236857 0.038527653
0.0018667084 0.06348835 0.023860063 -0.044892047 -0.11243358 0.07704052 -0.033103686 0.04339503
0.1323438 0.10770878 0.06467539 0.09645441 0.1283682 -0.03207916 0.14763793 -0.08174588
-0.10491199 -0.011304511 0.15447958 0.10280709 0.06588444 0.098969266 -0.08118333 -0.08794529
0.050405778 -0.06760392 0.08658407 -0.09243775 0.12373019 -0.07549845 0.0537942 0.11622199
-0.024132684 0.1471257 0.096703015 -0.042158186 -0.031481218 0.12613261 -0.009050364 0.038831234
0.09779714 0.100551695 -0.07169609 0.1338043 0.06725079 0.07579752 -0.01715675 0.09033081
-0.010464905 0.13286619 0.089647405 0.064738475 0.01769905 0.113774836 0.13892953 0.050523605
00000000: 687b 9bbd 6a61 113e 4423 8fbd 7d7b 3ebc
00000010: 6e8c c8bc 4006 cb3c 83a9 5cbc 8521 023e
00000020: c9b7 003e 9549 86bd 3877 c0bd fa1e b3bd
00000030: aced aa3d 35ff 683c e448 4dbd 83ae 45bd
00000040: 27ae 043d 6b8e 2b3d 3ace 843d 3db0 013e
00000050: 3f3d 153e 5941 1abd 86c8 8d3c 727f 87bd
00000060: 6b8e 98bd 4119 ff3c e6f3 bd3d ba27 02bd
00000070: 1e65 2bbd 0338 93bc 27ce ad3d de44 d83c
00000080: 9fd4 da3d 2af2 15be ba30 833d 11b0 bb3d
00000090: da70 a43d 9fe2 a1bd eccd bcbd a365 263d
000000a0: 70b0 113d 3a96 cc3d d529 053e b4fd 9f3a
000000b0: 5040 58bc d4dc bc3d d8c4 76bd deda 06bd
000000c0: 007b 393d b294 503c 0c80 863d 10fa 973b
000000d0: 1431 223d 3d19 913d 0705 ad3c 0e6a d3bb
000000e0: 129a ae3d 2f90 d43d 3bd2 703b 33cb d8bd
000000f0: b5aa 6bbc a999 e33d ac07 dd3d dff5 90bc
00000100: 0871 ca3d 96ed 9c3c 2e34 2d3c ef1b 72bc
00000110: 1aba 93bb 9c9a 643b 8978 093d 453e a8bd
00000120: 3f45 d63c a694 90bd 221c cdbd 7d97 b2bd
00000130: a524 27bd 429d 6c3d 6e67 f73c f287 8d3d
00000140: 2874 19bd dd1b 97bd 320d 11bd 4060 87bd
00000150: 1b9c ba3c c639 983d 40d9 443d e58e dabd
00000160: 417c b93d 9205 0e3e ee49 dbbc 5c99 9cbd
00000170: 69a8 533d 1a58 4f3d 5f60 3d3a b0a6 03bd
00000180: 6e19 073d 888d dabd eefb 20bd 5758 d83c
00000190: e368 7e3c 2b6f b33d ecf5 c83d d1d9 1d3d
000001a0: a38b a03d 49ca f43d e65e 3abd eb59 bf3d
000001b0: a5c1 e63d e67b a3bc 81cc f53d 87c5 d9bc
000001c0: 71a2 e8bc 1c17 053e 546e 3f3d c25e c23c
000001d0: 3afc 95bd 8582 db3d af5d 713d 9573 b4bc
000001e0: 80a8 143c 1b1d 033e c1bb 9d3d 65f8 9bbd
000001f0: 6835 e13c e064 5abc cf5d 183e 05a9 a63d
00000200: ac9a 65bc 40d4 f93a 968b 5ebd 9711 12bd
00000210: 7c85 c13c 3bb4 e3bd 0a76 173c ea1c 0a3e
00000220: 0757 503d 804d 523b b61f 14bd 5c35 e63a
00000230: 0adf a4bd 7595 b5bd 2e7b 503d 3b98 343d
00000240: 0520 943d 2521 66bd 6138 3f3d 17b3 2bbd
00000250: 7570 c9bd f114 28bd acc4 cabd 1335 f6bc
00000260: 0eeb 81bc 2cfa ae3d b43f b03d 9050 b33c
00000270: 7e89 943d 0025 193d dab1 00be dae6 76bd
00000280: d779 8dbd b6a8 20bd 88e1 793c b8f5 623d
00000290: f6fc bd3d 999b 90bd 2216 0a3c c359 a33d
000002a0: 6bc1 673c c340 00be 5ede 28bd 322c 543d
000002b0: 0d4d 373d 8b75 f63d 91f0 d43d 6f2e adbd
000002c0: fae5 b63d 7c69 0bbe 3ba4 28bd 2109 6c3d
000002d0: 9509 97b8 bb4d cd3d 242a c83d 0c0d 82bd
000002e0: 5eb0 0d3e dd4b c0bd d8d8 1b3d eb11 993c
000002f0: bf2f d83d 195d 0f3e e37d 4b3b 33a4 1bbd
00000300: 961e 0f3e e69b f63d 500b a73c a11a 083e
00000310: 6d8c 893c 4d33 8e3c aa8a 2d3d 2ccf 1d3d
00000320: 57ac f43a 2e06 823d 2e76 c33c b9e0 37bd
00000330: 9443 e6bd 6cc7 9d3d bb97 07bd fdbe 313d
00000340: 2285 073e 6c96 dc3d 8874 843d e489 c53d
00000350: f472 033e 7065 03bd 662e 173e 626a a7bd
00000360: 19dc d6bd 8e36 39bc e52f 1e3e 868c d23d
00000370: 6cee 863d 66b0 ca3d 7243 a6bd a91c b4bd
00000380: 4a76 4e3d ed73 8abd fd52 b13d 0150 bdbd
00000390: 4166 fd3d ee9e 9abd 4f57 5c3d cb05 ee3d
000003a0: e8b1 c5bc 1fa8 163e 3b0c c63d 10ae 2cbd
000003b0: 73f2 00bd e828 013e fa47 14bc 800d 1f3d
000003c0: de49 c83d 0cee cd3d 66d5 92bd ff03 093e
000003d0: c8ba 893d bb3b 9b3d 508c 8cbc 5cff b83d
000003e0: fe74 2bbc 130e 083e 0f99 b73d 9b95 843d
000003f0: 99fd 903c c802 e93d 8b43 0e3e d7f1 4e3d

fc1.weight f4 [32, 64]
-0.03461515 -0.055271473 -0.02140792 0.04083058 -0.064030975 -0.083412014 0.049229875 -0.036791835
-0.06860763 0.025189413 0.033489622 -0.08487008 0.037149187 -0.124527186 0.08271868 0.100287415
0.06384147 0.10244422 0.008689589 -0.015516841 0.0072485185 0.07110434 -0.08035514 -0.103518024
-0.056514833 0.07905704 0.082384676 -0.031182962 0.13420022 -0.14117123 -0.04500056 0.056892246
-0.111866586 0.12105987 -0.10550021 0.084234856 0.048446864 -0.045854606 0.11763442 -0.04496371
-0.00649691 0.0938061 -0.114327036 0.122847356 -0.032819092 -0.07621422 0.09098233 -0.061960943
-0.074353084 -0.08649503 0.07549184 0.08025853 -0.050343897 0.037744105 0.06357268 -0.043482237
0.036735415 0.060520902 0.014953276 -0.035393413 0.15456058 -0.009929676 0.20298147 0.15898913
0.114643574 0.019479718 0.020334762 0.04582278 -0.12855366 -0.035470054 -0.055715073 -0.032020424
-0.0761181 -0.027798478 -0.071276 -0.1044789 0.062375907 0.13562553 -0.06462991 -0.096148446
-0.05578324 -0.033453904 -0.13570966 0.09606993 0.09842623 0.07928049 -0.05097537 -0.068483606
0.13268144 -0.08916054 -0.11865254 -0.117801934 0.024464425 -0.0028662838 -0.062670134 0.09294171
-0.055606943 -0.0052999384 0.07588391 0.074705504 0.09082611 -0.029567119 0.05019038 0.003681868
0.03015039 -0.059749402 0.06197357 0.0146375215 0.011419646 -0.02316707 0.036939286 -0.10711845
0.088409156 0.11159801 0.08111914 -0.018082049 -0.10292712 -0.020147089 -0.113976575 -0.0741458
0.083973594 -0.0008241757 0.11086384 -0.052603334 -0.071698666 -0.11368134 0.034431554 0.032633346
0.008195117 0.16110103 0.10866531 -0.16957459 0.049808774 0.06033265 0.04621225 0.1022365
-0.0041076974 -0.09383234 0.07017162 0.01460854 0.044493604 -0.08510832 0.00056187366 0.10090804
0.1667247 -0.07957787 0.07322248 0.097105846 -0.07438758 0.08256668 -0.009719983 0.11129912
-0.046031654 0.150803 0.042876154 0.10213257 -0.049546562 0.04895006 0.050140426 0.084883615
-0.05061378 0.0023986578 -0.14447977 -0.06216356 0.13067761 -0.08127906 0.011272434 -0.13309655
-0.16993564 -0.10330105 0.015197191 -0.05163343 -0.043834496 -0.047511507 0.046971954 -0.08457466
0.14455469 -0.1734428 -0.15057364 0.014967784 0.078112766 0.059884466 0.032055464 -0.009995789
0.06014342 -0.048274104 0.06278791 -0.05081764 0.049228553 0.07726762 0.08830755 -0.044119284
-0.079422876 0.11780593 0.11368272 0.010171121 0.006624059 -0.016977161 -0.08662626 0.16157623
0.12557761 -0.10155 0.012302921 0.17903529 0.012525784 -0.15417834 0.12987298 0.065292105
0.016664619 0.006794729 0.10837223 0.10929837 -0.15189092 0.11226082 -0.13061926 -0.11560299
-0.040959515 0.12055795 0.15141322 0.08827718 0.13296574 -0.14976148 -0.11813969 -0.017424587
-0.15520407 -0.104708694 -0.138377 -0.073481046 0.053379834 -0.031836957 0.03618195 -0.07811436
-0.047628824 -0.16557813 -0.08658029 -0.06200379 0.1442079 0.057277266 -0.05724974 -0.100455165
0.050563578 -0.13631429 0.06892099 0.14266968 -0.01953518 -0.07612827 0.12571697 0.032445468
0.05325439 -0.039108716 -0.054128144 0.04980242 0.10409005 0.13107675 0.018300418 0.13337372
00000000: 9ec8 0dbd 5764 62bd aa5f afbc f73d 273d
00000010: ac22 83bd ebd3 aabd 44a5 493d 09b3 16bd
00000020: 2882 8cbd 075a ce3c 6a2c 093d 5dd0 adbd
00000030: bf29 183d 1c08 ffbd 6968 a93d 7d63 cd3d
00000040: 51bf 823d 46ce d13d c75e 0e3c 593a 7ebc
00000050: fb84 ed3b 279f 913d 3c91 a4bd 4201 d4bd
00000060: 197c 67bd a8e8 a13d 4cb9 a83d 6973 ffbc
00000070: c86b 093e 318f 10be 8252 38bd d807 693d
00000080: 4f1a e5bd 3dee f73d 7e10 d8bd 5383 ac3d
00000090: 3870 463d 0ad2 3bbd 51ea f03d de2b 38bd
000000a0: 08e4 d4bb 6a1d c03d 4b24 eabd 6597 fb3d
000000b0: 506d 06bd 3316 9cbd f254 ba3d c2ca 7dbd
000000c0: 6e46 98bd 4e24 b1bd 779b 9a3d 965e a43d
000000d0: 6735 4ebd 9099 1a3d 6532 823d 6e1a 32bd
000000e0: e077 163d c4e4 773d 96fe 743c aff8 10bd
000000f0: 2145 1e3e 14b0 22bc 60da 4f3e 0cce 223e
00000100: 40ca ea3d ee93 9f3c 1695 a63c abb0 3b3d
00000110: 92a3 03be 0c49 11bd 7d35 64bd d927 03bd
00000120: cee3 9bbd a2b9 e3bc 27f9 91bd 09f9 d5bd
00000130: e17d 7f3d 6be1 0a3e b05c 84bd 7ae9 c4bd
00000140: f77c 64bd f606 09bd 79f7 0abe 50c0 c43d
00000150: b193 c93d cf5d a23d 8dcb 50bd 2241 8cbd
00000160: a5dd 073e cd99 b6bd 1a00 f3bd 2442 f1bd
00000170: 9e69 c83c 43d8 3bbb 3359 80bd 3958 be3d
00000180: 1bc4 63bd 1bab adbb 0669 9b3d 33ff 983d
00000190: 0a03 ba3d be36 f2bc 6e94 4d3d 7f4b 713b
000001a0: f3fd f63c cabb 74bd 00d8 7d3d 37d2 6f3c
000001b0: 7819 3b3c dec8 bdbc a64d 173d eb60 dbbd
000001c0: dc0f b53d 7f8d e43d cb21 a63d ce20 94bc
000001d0: 74cb d2bd 820b a5bc 8d6c e9bd c1d9 97bd
000001e0: 59fa ab3d 7f0d 58ba 950c e33d 9876 57bd
000001f0: c0d6 92bd c3d1 e8bd 1a08 0d3d 8baa 053d
00000200: d044 063c abf7 243e eb8b de3d f6a4 2dbe
00000210: 4904 4c3d 5e1f 773d 0e49 3d3d 5f61 d13d
00000220: dd99 86bb 2b2b c0bd 23b6 8f3d a858 6f3c
00000230: ed3e 363d 454d aebd b44a 133a e0a8 ce3d
00000240: e1b9 2a3e b9f9 a2bd abf5 953d 6edf c63d
00000250: 8458 98bd b818 a93d 9040 1fbc cbf0 e33d
00000260: b08b 3cbd 1a6c 1a3e e89e 2f3d e22a d13d
00000270: 56f1 4abd dc7f 483d 0c60 4d3d 76d7 ad3d
00000280: 6550 4fbd cd32 1d3b 81f2 13be 389f 7ebd
00000290: 5ad0 053e a375 a6bd 04b0 383c 764a 08be
000002a0: 9c03 2ebe 808f d3bd a4fd 783c 937d 53bd
000002b0: cd8b 33bd 6d9b 42bd aa65 403d 7b35 adbd
000002c0: 2506 143e fd9a 31be fa2f 1abe 703b 753c
000002d0: 96f9 9f3d 6a49 753d 974c 033d 61c5 23bc
000002e0: f258 763d 11bb 45bd f396 803d 2826 50bd
000002f0: e1a3 493d 7c3e 9e3d 97da b43d 6cb6 34bd
00000300: 76a8 a2bd 3c44 f13d 7cd2 e83d c6a4 263c
00000310: a20e d93b b013 8bbc 1c69 b1bd 3d74 253e
00000320: 6b97 003e 72f9 cfbd 3192 493c 0755 373e
00000330: f238 4d3c ede0 1dbe 6cfd 043e deb7 853d
00000340: 3d84 883c 51a6 de3b 42f2 dd3d d3d7 df3d
00000350: 4b89 1bbe 00e9 e53d 0ec1 05be 43c1 ecbd
00000360: 2ac5 27bd 16e7 f63d 110c 1b3e abca b43d
00000370: 2c28 083e 135b 19be 39f3 f1bd 02be 8ebc
00000380: d1ed 1ebe 8371 d6bd b3b2 0dbe 3b7d 96bd
00000390: d0a4 5a3d 7867 02bd 8633 143d 6cfa 9fbd
000003a0: 7116 43bd 508d 29be 0251 b1bd b0f7 7dbd
000003b0: 3cab 133e 919b 6a3d b47e 6abd 70bb cdbd
000003c0: c11b 4f3d f995 0bbe 7326 8d3d 0018 123e
000003d0: 3e08 a0bc 23e9 9bbd f3bb 003e 8ae5 043d
000003e0: 4621 5a3d 7630 20bd 79b5 5dbd 9ffd 4b3d
000003f0: 2a2d d53d fc38 063e c2ea 953c 1f93 083e

fc1.bias f4 [32]
0.108519755 -0.10867424 0.10583437 0.092994735 0.038996592 -0.04940095 -0.06510495 -0.01505569
-0.04245869 0.09823268 -0.09444403 0.10393006 -0.050709378 0.05817446 0.046657894 -0.019065097
0.0068763397 -0.088019446 0.0649497 0.08872564 -0.09336305 0.08256785 -0.12499935 0.1412994
-0.056903437 -0.1187429 0.0987452 0.09005119 0.04009163 0.06004767 -0.069140196 0.11595869
00000000: 9b3f de3d 9a90 debd b1bf d83d 0674 be3d
00000010: e4ba 1f3d a758 4abd be55 85bd 24ac 76bc
00000020: 2ae9 2dbd 372e c93d df6b c1bd 49d9 d43d
00000030: a3b4 4fbd 5848 6e3d 591c 3f3d 682e 9cbc
00000040: eb52 e13b 8a43 b4bd 5904 853d cab5 b53d
00000050: 2035 bfbd 5519 a93d a9ff ffbd cab0 103e
00000060: 9413 69bd 7a2f f3bd ec3a ca3d c26c b83d
00000070: 1f37 243d 8cf4 753d 6099 8dbd c07b ed3d

fc2.weight f4 [32, 32]
-0.14879175 -0.048573464 -0.0885891 -0.10231456 0.1301185 0.13160858 0.090859964 0.15962662
-0.10890434 -0.054489177 -0.00016333585 0.006037629 0.11275165 0.17354544 0.270332 -0.1452285
0.15759784 0.13707289 -0.0042060604 -0.0014206596 -0.031443298 -0.08102231 -0.07624017 0.27604213
-0.11267854 0.0348572 0.037534475 0.11212017 -0.025146885 0.13158514 -0.17299823 -0.12491907
-0.15362328 -0.0050913244 -0.10932399 0.117985114 -0.084038325 0.015028745 0.14944805 -0.17422083
0.0729215 -0.15058148 0.08566289 -0.046321556 -0.15168107 0.029130027 0.012908086 0.0614987
0.10600285 -0.018248767 -0.08197899 0.17276917 -0.054591104 0.15124719 0.11787991 -0.17336941
-0.05119112 0.01141946 -0.14166424 0.030218735 -0.07307001 -0.09071818 0.13157605 0.07600249
0.15698664 -0.03616208 -0.07069859 -0.13571621 0.006521047 0.13869683 -0.019348294 0.16918996
0.11299901 -0.06215688 0.025107577 0.15330547 0.19784863 0.17218685 -0.026145335 0.030020311
0.14625135 0.13311401 -0.1744898 0.1152901 -0.08167737 -0.10972425 -0.099570386 0.00844247
-0.027642518 -0.0031706244 -0.10600298 0.091319345 -0.11856428 0.14258163 -0.15953003 0.038015597
-0.13723095 -0.09830432 0.013788451 -0.061204914 -0.11860098 -0.016510382 -0.1274232 -0.10513582
0.10448228 -0.017452212 -0.049921513 0.13206461 0.015384104 0.12784465 0.07319617 0.014513731
-0.06514057 -0.10015245 0.13352992 0.025152674 0.15070947 0.07782124 -0.020651486 -0.16289856
0.07129051 -0.048777774 0.007340088 -0.09360362 0.111006364 0.1415715 -0.10484144 -0.0695321
-0.1315948 0.085569814 -0.12808697 -0.13669059 -0.12922713 -0.1425761 0.13655888 -0.07611259
0.10927726 -0.048919976 -0.05334457 -0.048424512 -0.14339468 0.050737366 -0.07110449 0.052915826
-0.15062538 0.027651027 0.14357899 -0.054338604 0.03768231 -0.17452095 -0.07220368 0.14641885
0.07011913 0.064768195 0.07672043 -0.036094964 -0.07503715 0.16636257 -0.064823836 -0.014098242
-0.13397355 0.13550521 -0.057753257 -0.06590717 -0.10995181 0.041146114 -0.13688001 0.13847288
0.12995861 -0.13453801 -0.1622029 0.032376215 -0.10511114 -0.18905167 0.09716845 -0.044455275
0.022772854 0.01890634 -0.124003395 -0.10052709 0.06145847 -0.15608607 -0.024276927 -0.029375967
-0.09801248 0.17471905 -0.15665284 -0.15152945 -0.12780237 0.100247905 -0.15047958 0.107310936
0.1604459 0.16591425 0.1537005 0.017595213 -0.092006266 0.043291584 0.072783306 0.23664857
-0.15492061 0.122858025 0.0370295 0.27620316 0.010764471 -0.036202487 0.28624892 -0.17301561
0.001624927 0.14755778 -0.059698027 0.23222308 0.10828538 -0.0318598 -0.03554623 0.23507942
-0.0358731 0.07306047 -0.067854635 -0.10789462 -0.1247805 -0.18653713 -0.053822704 -0.09261625
0.044306833 0.0015351325 -0.1294567 -0.15080915 -0.03144095 0.06372489 0.010401204 0.26981494
-0.094932675 -0.13672118 -0.03728345 0.07776384 -0.13200949 0.0951222 0.24091394 -0.17467105
0.08800297 0.13350344 0.052044846 -0.101441756 0.1113971 -0.11846982 -0.076905586 0.1791303
-0.03807497 0.12320714 -0.06743225 -0.15962206 -0.15568541 0.005479595 -0.13775697 0.14192386
00000000: dd5c 18be f8f4 46bd 346e b5bd 4c8a d1bd
00000010: c93d 053e 66c4 063e ca14 ba3d 2975 233e
00000020: 3d09 dfbd 0b30 5fbd 2245 2bb9 4ed7 c53b
00000030: 56ea e63d e5b5 313e f568 8a3e c8b6 14be
00000040: 5461 213e d65c 0c3e fed2 89bb 6d35 baba
00000050: b0ca 00bd 06ef a5bd ce23 9cbd 6555 8d3e
00000060: 02c4 e6bd 6cc6 0e3d c0bd 193d 429f e53d
00000070: d700 cebc 41be 063e 7326 31be 92d5 ffbd
00000080: 6c4f 1dbe 20d5 a6bb 42e5 dfbd 2ea2 f13d
00000090: 491c acbd 203b 763c e908 193e f266 32be
000000a0: de57 953d 0832 1abe 0670 af3d acbb 3dbd
000000b0: 4852 1bbe 18a2 ee3c 707c 533c 10e6 7b3d
000000c0: 0618 d93d 707e 95bc 9ae4 a7bd 67ea 303e
000000d0: ec9a 5fbd 8be0 1a3e 066b f13d c087 31be
000000e0: c8ad 51bd b018 3b3c 6e10 11be 488d f73c
000000f0: bba5 95bd 74ca b9bd dfbb 063e 32a7 9b3d
00000100: 1bc1 203e b01e 14bd 6cca 90bd 31f9 0abe
00000110: 82ae d53b 8b06 0e3e 5080 9ebc 2240 2d3e
00000120: 066c e73d 3698 7ebd 68ae cd3c 1cfc 1c3e
00000130: d598 4a3e c051 303e be2e d6bc 28ed f53c
00000140: eac2 153e 0a4f 083e 74ad 32be 371d ec3d
00000150: 7746 a7bd 1cb7 e0bd 8feb cbbd 4952 0a3c
00000160: 9072 e2bc 40ca 4fbb 1718 d9bd a305 bb3d
00000170: d4d1 f2bd eb00 123e d75b 23be 3eb6 1b3d
00000180: 4586 0cbe c653 c9bd f5e8 613c 01b2 7abd
00000190: 12e5 f2bd c840 87bc 3a7b 02be 7351 d7bd
000001a0: cefa d53d f1f7 8ebc 807a 4cbd f23b 073e
000001b0: 9c0d 7c3c b5e9 023e e0e7 953d 00cb 6d3c
000001c0: 6b68 85bd ba1c cdbd 11bc 083e fb0c ce3c
000001d0: 9553 1a3e be60 9f3d 4e2d a9bc e1ce 26be
000001e0: c200 923d 34cb 47bd 1f85 f03b 41b3 bfbd
000001f0: 4e57 e33d 1ff8 103e 1cb7 d6bd d866 8ebd
00000200: cac0 06be 3a3f af3d 3b29 03be 9ef8 0bbe
00000210: 1e54 04be 78ff 11be 17d6 0b3e ebe0 9bbd
00000220: c2cc df3d 5060 48bd d67f 5abd c858 46bd
00000230: 0ed6 12be fcd1 4f3d 3b9f 91bd 44be 583d
00000240: 8a3d 1abe 6884 e23c 5f06 133e 2892 5ebd
00000250: c458 1a3d 9fb5 32be 86df 93bd d3ee 153e
00000260: 9e9a 8f3d 30a5 843d 9a1f 9d3d 50d8 13bd
00000270: 14ad 99bd f35a 2a3e 5cc2 84bd 50fc 66bc
00000280: 5d30 09be e1c1 0a3e ae8e 6cbd 57fa 86bd
00000290: 6a2e e1bd d488 283d 462a 0cbe d6cb 0d3e
000002a0: df13 053e 55c4 09be 8418 26be ec9c 043d
000002b0: 8244 d7bd c396 41be 4100 c73d bc16 36bd
000002c0: 238e ba3c 78e1 9a3c 7ef5 fdbd 26e1 cdbd
000002d0: e0bb 7b3d 07d5 1fbe 68e0 c6bc dea5 f0bc
000002e0: c4ba c8bd 8de9 323e 9a69 20be 892a 1bbe
000002f0: a0de 02be c64e cd3d 5217 1abe d6c5 db3d
00000300: ee4b 243e 6de5 293e aa63 1d3e d623 903c
00000310: c86d bcbd 8452 313d 6a0f 953d 0154 723e
00000320: 82a3 1ebe fd9c fb3d 3fac 173d 806a 8d3e
00000330: 775d 303c 0f49 14bd 388f 923e 012b 31be
00000340: 81fb d43a 6319 173e eb85 74bd e3cb 6d3e
00000350: bac4 dd3d 6c7f 02bd ec98 11bd a9b8 703e
00000360: acef 12bd baa0 953d 5ff7 8abd dbf7 dcbd
00000370: eb8c ffbd 9703 3fbe 3275 5cbd 97ad bdbd
00000380: 157b 353d 8036 c93a 4c90 04be b76d 1abe
00000390: 3ac8 00bd 3282 823d d069 2a3c 2f25 8a3e
000003a0: 106c c2bd a300 0cbe 88b6 18bd a642 9f3d
000003b0: 7f2d 07be 6ecf c23d 25b2 763e f8dc 32be
000003c0: e73a b43d 20b5 083e fa2c 553d b2c0 cfbd
000003d0: 2a24 e43d 4ea0 f2bd ad80 9dbd ef6d 373e
000003e0: 80f4 1bbd 0654 fc3d eb19 8abd f773 23be
000003f0: ff6b 1fbe 2d8e b33b 2a10 0dbe 7d54 113e

fc2.bias f4 [32]
0.07837709 -0.047075495 0.0008945603 -0.092853956 -0.057841532 -0.050492134 -0.0025507817 0.006265811
0.056171805 0.10394279 0.16299902 0.013899088 -0.06322447 0.0544104 0.11873573 -0.15713036
-0.012287486 0.08924502 -0.1265182 0.12631296 -0.1193197 0.052784286 0.050340388 0.03474595
-0.121858485 0.04540831 -0.12672535 -0.08898972 0.058098815 -0.14235365 0.1450476 0.06425812
00000000: 2b84 a03d 3cd2 40bd ed80 6a3a 372a bebd
00000010: 3eeb 6cbd d7d0 4ebd 042b 27bb 6f51 cd3b
00000020: 6814 663d f5df d43d 37e9 263e 00b9 633c
00000030: d57b 81bd 71dd 5e3d b82b f33d c8e6 20be
00000040: 7451 49bc 18c6 b63d fd8d 01be 2f58 013e
00000050: e35d f4bd 5634 583d b931 4e3d c551 0e3d
00000060: f190 f9bd 10fe 393d 4ac4 01be 3e40 b6bd
00000070: 06f9 6d3d 28c5 11be 5c87 143e c399 833d

fc3.weight f4 [1, 32]
0.1592193 -0.100499265 0.040137444 0.114959836 0.0653619 -0.029926615 0.28233743 0.18932515
0.030450977 -0.11353512 -0.1620883 0.1732591 -0.02873088 -0.08254427 -0.054076385 -0.093005195
0.06448192 0.035132818 0.026004668 -0.080235735 0.04944908 0.13839439 0.14566779 0.12964599
0.05439563 0.062456824 -0.057165645 -0.123119324 0.103234164 0.0056830654 -0.057339042 -0.00085496745
00000000: 620a 233e 8fd2 cdbd 2967 243d 1070 eb3d
00000010: 76dc 853d a928 f5bc 888e 903e 74de 413e
00000020: 5474 f93c 1a85 e8bd 7afa 25be d56a 313e
00000030: 065d ebbc f80c a9bd 337f 5dbd 8279 bebd
00000040: 190f 843d 6ee7 0f3d be07 d53c a252 a4bd
00000050: 1e8b 4a3d 42b7 0d3e f029 153e ebc1 043e
00000060: f4cd 5e3d bad2 7f3d 8626 6abd fc25 fcbd
00000070: 6f6c d33d 0239 ba3b 58dc 6abd e51f 60ba

exp_avg f4 [256, 1]
5.4540546e-06 3.3779145e-06 -4.9417376e-06 6.2114327e-06 2.236656e-06 2.1124254e-06 -4.4997597e-07 5.839965e-06
5.5316086e-06 -6.677481e-06 5.250381e-06 5.0770623e-06 5.1624096e-07 6.9775047e-06 -6.290782e-07 7.18979e-06
3.9791967e-06 6.3098505e-06 -8.658451e-07 -2.489267e-06 9.002171e-06 5.0874287e-06 6.9804382e-06 -3.993576e-06
1.3694496e-08 9.618849e-06 3.345218e-06 5.3885005e-06 2.331206e-06 2.1642727e-06 4.7821277e-06 4.2518363e-06
2.8457482e-06 2.0600964e-08 6.68112e-06 -3.004825e-06 1.0636953e-06 -3.94085e-06 3.420943e-06 5.972039e-06
4.574426e-06 6.0634366e-06 -4.4346543e-06 2.3302955e-06 3.4691952e-06 4.044082e-06 9.4383795e-06 3.831715e-06
5.451766e-06 8.4350395e-06 8.0521806e-07 9.7007505e-06 4.520395e-06 7.6273254e-06 6.1018427e-06 -6.4518536e-06
2.8611364e-06 8.033048e-06 2.4993237e-06 2.6732235e-07 5.399622e-06 7.752778e-06 -5.8995392e-06 4.4264616e-06
5.6024637e-06 3.5709725e-06 -1.2723051e-06 4.272131e-06 1.8013402e-06 1.5694835e-06 2.7162912e-08 5.7220723e-06
4.801667e-06 -3.3068375e-06 4.0722944e-06 4.667281e-06 4.8462346e-07 5.4125726e-06 -6.745137e-08 4.6615332e-06
3.2805824e-06 4.688038e-06 -2.899496e-07 -4.4449885e-07 8.2145625e-06 4.698882e-06 5.470054e-06 -1.280911e-06
2.059848e-07 7.888656e-06 2.6670368e-06 4.398088e-06 2.6869056e-06 1.5056214e-06 3.951502e-06 4.3943696e-06
2.6756368e-06 4.3959943e-08 5.1529923e-06 -9.980824e-07 1.1586204e-06 -1.7916922e-06 2.4934832e-06 5.2716405e-06
4.0436316e-06 6.4795568e-06 -2.177535e-06 2.266301e-06 2.6226185e-06 3.9797596e-06 7.336118e-06 3.6431281e-06
4.8733505e-06 7.753191e-06 1.0405654e-06 7.750958e-06 2.7796937e-06 5.50648e-06 4.9454384e-06 -3.5869855e-06
2.613146e-06 6.5423174e-06 1.9402248e-06 3.1109573e-07 4.367408e-06 6.537938e-06 -2.9783787e-06 2.7481024e-06
-6.576347e-05 3.3921628e-05 -5.683904e-05 -6.201143e-05 5.9785554e-05 -6.9042275e-05 1.574736e-05 4.0878745e-05
9.864346e-05 0.00014230997 -4.5639594e-05 5.435336e-05 -9.493797e-06 -2.452733e-05 -9.407501e-06 9.768758e-05
2.1529486e-05 -3.8919883e-05 -2.6599791e-05 -3.6325488e-05 -8.6707776e-05 0.00015528033 -3.0061397e-05 4.5618915e-05
7.2845105e-06 8.7743305e-05 9.275538e-06 6.1015802e-05 2.4663032e-06 -7.9773425e-05 -7.0396025e-05 6.787982e-05
-5.4452375e-05 2.1249934e-07 -9.1193135e-05 4.1966654e-05 6.541332e-06 8.505745e-05 5.1552735e-05 -0.00011759681
-3.6799367e-05 -2.7764841e-05 7.607383e-05 9.84988e-06 1.8707315e-05 2.8624734e-05 5.7795696e-05 -1.15423245e-05
5.4482312e-05 -4.946832e-05 -1.5721058e-05 4.401809e-05 -7.791784e-05 -8.6993605e-05 3.9652597e-05 7.903189e-05
2.5125777e-05 -8.30862e-05 1.071598e-05 1.1676533e-05 7.0933376e-05 4.512925e-05 5.9962364e-05 5.7211575e-05
4.47276e-06 3.5115738e-06 -4.5294364e-06 4.6878476e-06 2.0139914e-06 1.7553242e-06 -3.7129388e-07 5.346675e-06
6.055118e-06 -7.3643305e-06 4.642598e-06 4.541208e-06 5.360036e-07 8.401185e-06 -4.7209966e-07 6.115558e-06
3.9204833e-06 6.2562085e-06 -1.074987e-06 -2.2553772e-06 8.833638e-06 4.040296e-06 7.753206e-06 -4.4303947e-06
5.7202243e-09 1.0489376e-05 3.7360812e-06 5.606715e-06 2.2466402e-06 2.4606563e-06 4.842478e-06 4.3457167e-06
2.389625e-06 1.8070601e-08 5.869116e-06 -3.7460968e-06 1.1379424e-06 -4.414194e-06 3.7211134e-06 6.2042986e-06
4.885366e-06 7.923212e-06 -4.880902e-06 3.0370293e-06 3.5115136e-06 4.3936975e-06 8.877985e-06 4.4654166e-06
5.3954855e-06 8.8868e-06 8.5987114e-07 9.1210595e-06 4.001343e-06 6.438566e-06 7.1683576e-06 -6.4677533e-06
2.8091058e-06 7.5547414e-06 2.6893827e-06 2.3744163e-07 4.7730964e-06 7.742163e-06 -6.8472946e-06 3.4337745e-06
00000000: f901 b736 21b0 6236 34d1 a5b6 cd6b d036
00000010: 7519 1636 31c3 0d36 3a94 f1b4 ebf4 c336
00000020: 289c b936 200f e0b6 6e2c b036 a25b aa36
00000030: cf93 0a35 4f20 ea36 eddd 28b5 d33f f136
00000040: 0a85 8536 34b9 d336 6c6c 68b5 480d 27b6
00000050: 0808 1737 aeb4 aa36 8239 ea36 8e00 86b6
00000060: 0845 6b32 a460 2137 687e 6036 dece b436
00000070: d071 1c36 ec3d 1136 2a76 a036 ffaa 8e36
00000080: 95f9 3e36 00f6 b032 622e e036 80a6 49b6
00000090: 4bc4 8e35 a53b 84b6 5a93 6536 6d63 c836
000000a0: 057e 9936 8674 cb36 64cd 94b6 2c62 1c36
000000b0: 52d0 6836 66b2 8736 8859 1e37 2e92 8036
000000c0: 50ee b636 3884 0d37 2a26 5835 68c0 2237
000000d0: e6ad 9736 3aee ff36 6ebe cc36 007d d8b6
000000e0: f301 4036 aec5 0637 0eba 2736 8184 8f34
000000f0: 662e b536 ee11 0237 a8f4 c5b6 0487 9436
00000100: ccfc bb36 d7a4 6f36 12c4 aab5 5359 8f36
00000110: 94c5 f135 0ba7 d235 e053 e932 3a00 c036
00000120: 011e a136 09eb 5db6 bea4 8836 a39b 9c36
00000130: 1217 0235 a59d b536 c8d9 90b3 446a 9c36
00000140: fa27 5c36 f14d 9d36 5faa 9bb4 75a3 eeb4
00000150: 47d1 0937 17ab 9d36 688b b736 c4eb abb5
00000160: ac2c 5d34 8559 0437 58fb 3236 4a93 9336
00000170: b050 3436 c214 ca35 2597 8436 5973 9336
00000180: 178f 3336 78ce 3c33 dee7 ac36 daf5 85b5
00000190: e581 9b35 137a f0b5 b755 2736 0ce3 b036
000001a0: 88ae 8736 f86a d936 c421 12b6 c116 1836
000001b0: 3e00 3036 e089 8536 c628 f636 777c 7436
000001c0: c385 a336 b413 0237 8ea9 8b35 1c0a 0237
000001d0: c68a 3a36 4ec4 b836 fef0 a536 f1b7 70b6
000001e0: 825d 2f36 1486 db36 cf34 0236 ac04 a734
000001f0: c08b 9236 7660 db36 28e0 47b6 0a6c 3836
00000200: 7eea 89b8 1247 0e38 7466 6eb8 220c 82b8
00000210: 40c2 7a38 caca 90b8 3319 8437 3875 2b38
00000220: cede ce38 0b39 1539 246d 3fb8 7af9 6338
00000230: 8c47 1fb7 0ac0 cdb7 e9d4 1db7 9fdd cc38
00000240: 389a b437 e83d 23b8 9e22 dfb7 325c 18b8
00000250: e2d6 b5b8 bfd2 2239 5c2c fcb7 f056 3f38
00000260: 786d f436 d402 b838 229e 1b37 38eb 7f38
00000270: c482 2536 084c a7b8 94a1 93b8 b35a 8e38
00000280: cb63 64b8 602b 6434 f13e bfb8 5a05 3038
00000290: 9d7d db36 df60 b238 543a 5838 4e9e f6b8
000002a0: 0559 1ab8 8be8 e8b7 d489 9f38 ea40 2537
000002b0: a7ed 9c37 261f f037 a869 7238 e8a5 41b7
000002c0: f083 6438 347c 4fb8 b7e0 83b7 10a0 3838
000002d0: d267 a3b8 5670 b6b8 a750 2638 ecbd a538
000002e0: 32c5 d237 903e aeb8 c9c8 3337 54e6 4337
000002f0: 11c2 9438 2a49 3d38 1980 7b38 76f6 6f38
00000300: b714 9636 61a8 6b36 90fb 97b6 4e4c 9d36
00000310: 1c28 0736 7b98 eb35 3e56 c7b4 9767 b336
00000320: 112d cb36 1e1b f7b6 9dc7 9b36 ae60 9836
00000330: e3e1 0f35 d1f2 0c37 e274 fdb4 3e34 cd36
00000340: b28c 8336 6cec d136 4648 90b5 165b 17b6
00000350: 3034 1437 e191 8736 c413 0237 cda8 94b6
00000360: a08b c431 87fb 2f37 63b9 7a36 5121 bc36
00000370: fcc4 1636 c121 2536 927c a236 6cd1 9136
00000380: 725d 2036 ac39 9b32 53ef c436 7465 7bb6
00000390: 67bb 9835 a31d 94b6 3eb8 7936 852e d036
000003a0: f9ec a336 f0ed 0437 a1c6 a3b6 c4cf 4b36
000003b0: 58a7 6b36 936d 9336 a8f2 1437 a3d5 9536
000003c0: de0a b536 8418 1537 e5d1 6635 a706 1937
000003d0: 4643 8636 dc0a d836 b987 f036 9405 d9b6
000003e0: 1284 3c36 bc7e fd36 3e7b 3436 75f3 7e34
000003f0: 9628 a036 56e4 0137 d0c1 e5b6 cc6f 6636
