checkpoints/StockPrediction_epoch_5.pt (torch, 255962 bytes, 27 tensors)

lstm.weight_ih_l0 f4 [256, 1]
0.020214858 0.030211728 -0.08102956 0.03979871 -0.047027543 -0.002337499 -0.10600712 -0.0017879112
0.045363203 -0.017807761 0.044011112 -0.05313033 0.09019963 -0.061264068 -0.0013732188 -0.08771465
0.03871066 -0.040898938 -0.08440745 -0.03940073 -0.12541573 -0.08556873 -0.1235582 0.060967594
-0.07387519 -0.1332748 -0.11210367 -0.1365854 -0.06504188 -0.16547856 0.03888419 -0.17133714
0.051200505 0.0127317505 -0.09853132 0.097618476 -0.032922268 0.121544205 -0.017221171 -0.111143745
-0.03651027 -0.10797888 0.12984242 0.053086773 -0.009329681 -0.12495188 0.0025686943 -0.056421395
-0.013990913 -0.15203892 -0.14321111 -0.124092914 -0.14778882 0.031420864 -0.03067947 0.13666436
-0.02853236 -0.07162433 0.01973095 -0.10170276 -0.069845036 -0.16557318 0.22835231 -0.0979259
-0.03565094 -0.10019452 0.053054094 -0.14831571 -0.08384405 -0.102130055 0.07053997 -0.032999948
0.057309553 -0.029663363 -0.18341789 -0.17263041 -0.07941465 -0.026361685 -0.019787587 0.03549238
-0.1208023 -0.14309394 0.051007602 -0.1215055 0.010348325 -0.097591825 0.0008045433 -0.115415744
-0.040044203 -0.033471663 -0.050441187 -0.09370644 -0.0016882953 0.047096897 -0.16294283 -0.12976825
0.064006 -0.041471034 -0.10438199 -0.09938874 -0.12479225 0.103550196 -0.04199367 -0.15865079
-0.06481666 -0.15652488 -0.0025872623 -0.12715429 -0.18937235 -0.1480901 0.05602255 -0.056420352
-0.03738719 -0.19191907 -0.09427744 -0.11267442 -0.025346268 -0.17821996 -0.11317103 0.06844151
-0.06671672 -0.11456035 -0.086343035 -0.090116106 -0.16209356 -0.15175962 0.20276636 -0.14763083
0.18741414 -0.09658118 0.06722718 0.113001555 -0.14738014 0.14904428 0.008099762 -0.117243074
-0.17615683 -0.16385384 0.10559267 -0.10247763 0.052130245 -0.031939063 0.03572326 -0.16437538
-0.077403136 0.089008346 0.04125878 0.039173167 0.18374327 -0.1760573 0.09845167 -0.09633694
0.007895174 -0.17193218 0.045951974 -0.15845817 0.0019555343 0.116786815 0.11742665 -0.14080614
0.15910605 0.037946597 0.08841955 -0.12730713 -0.008690987 -0.08756146 -0.09053962 0.1865746
0.096650496 -0.0025585892 -0.1091211 -0.06120372 -0.0005686864 -0.09835237 -0.14455523 0.03770525
-0.17034294 0.11657413 0.12607813 -0.19194071 0.100088686 0.136487 -0.05166294 -0.111209534
0.002057655 0.13833067 -0.02536532 -0.03430723 -0.11204424 -0.061445847 -0.111395776 -0.114614695
0.0027293833 0.030698366 -0.06632741 -0.103849255 -0.016266221 -0.028773127 -0.012102741 -0.043926336
-0.1842794 0.036071744 0.03879387 -0.030725298 -0.0071644178 -0.16034772 -0.13958916 -0.18601306
-0.10252263 -0.020226842 0.056263853 -0.016835475 -0.18646662 -0.15033242 -0.09695852 0.10109646
0.03166103 -0.114366665 -0.03096592 -0.115398005 -0.16335326 0.036090504 -0.1341078 -0.093345426
-0.16695365 0.07540053 0.032522142 0.06715747 -0.14007401 -0.08497684 -0.13210793 0.013763989
-0.01746275 0.025426764 0.15670407 -0.031396747 -0.086192474 -0.16868365 -0.17951384 -0.20021208
-0.029293733 -0.14273626 -0.04374139 -0.15301384 -0.07405412 -0.16044694 -0.15892352 0.1361819
-0.106014736 0.0024515826 -0.12109859 -0.10424738 -0.10308918 -0.14395024 0.177632 -0.1713911
00000000: a199 a53c 967e f73c d3f2 a5bd f903 233d
00000010: f49f 40bd ba30 19bb 431a d9bd 5858 eaba
00000020: c4ce 393d 95e1 91bc ff44 343d 309f 59bd
00000030: 95ba b83d 08f0 7abd 94fd b3ba bda3 b3bd
00000040: 128f 1e3d a585 27bd d0dd acbd a962 21bd
00000050: fb6c 00be a93e afbd 150c fdbd 28b9 793d
00000060: e04b 97bd 3079 08be 9c96 e5bd 0bdd 0bbe
00000070: ad34 85bd 3673 29be 0745 1f3d 0173 2fbe
00000080: 9fb7 513d d598 503c caca c9bd 32ec c73d
00000090: 80d9 06bd 2bec f83d 6a13 8dbc 559f e3bd
000000a0: cb8b 15bd 0824 ddbd 69f5 043e 8471 593d
000000b0: 85db 18bc c5e6 ffbd 8a57 283b 1f1a 67bd
000000c0: 243a 65bc 17b0 1bbe efa5 12be 6d24 febd
000000d0: f455 17be 2ab3 003d 8353 fbbc bef1 0b3e
000000e0: b2bc e9bc c7af 92bd cda2 a13c 8949 d0bd
000000f0: ea0a 8fbd 048c 29be 30d5 693e 608d c8bd
00000100: b806 12bd c932 cdbd 404f 593d 13e0 17be
00000110: 6eb6 abbd 9029 d1bd 4377 903d f42a 07bd
00000120: 6cbd 6a3d 9500 f3bc e6d1 3bbe 07c6 30be
00000130: 26a4 a2bd 76f4 d7bc 9419 a2bc 7560 113d
00000140: 3267 f7bd 3887 12be 59ed 503d e0d7 f8bd
00000150: 058c 293c 39de c7bd fde7 523a 175f ecbd
00000160: 6405 24bd 9519 09bd 6b9b 4ebd 29e9 bfbd
00000170: ca49 ddba ade8 403d 7cda 26be f8e1 04be
00000180: 9415 833d 88dd 29bd 3ac6 d5bd 538c cbbd
00000190: 1493 ffbd 2012 d43d 8e01 2cbd 5a75 22be
000001a0: 99be 84bd 0f48 20be 0f8f 29bb bc34 02be
000001b0: d3ea 41be eea4 17be e777 653d 0719 67bd
000001c0: 4f23 19bd 6f86 44be 8814 c1bd d9c1 e6bd
000001d0: faa2 cfbc 4b7f 36be 37c6 e7bd 102b 8c3d
000001e0: c7a2 88bd 9e9e eabd 9ed4 b0bd cb8e b8bd
000001f0: dbfb 25be e066 1bbe fca1 4f3e 892c 17be
00000200: 7ee9 3f3e 5bcc c5bd 67ae 893d 5c6d e73d
00000210: d2ea 16be 109f 183e ddb4 043c 231d f0bd
00000220: 7562 34be 4dc9 27be f840 d83d cbdf d1bd
00000230: 8686 553d 89d2 02bd 8e52 123d 0552 28be
00000240: 8985 9ebd 024a b63d f7fe 283d 0b74 203d
00000250: 3227 3c3e 5d48 34be 07a1 c93d 4d4c c5bd
00000260: c35a 013c fd0e 30be 2338 3c3d dc42 22be
00000270: 6c28 003b ed2d ef3d 627d f03d 7c2f 10be
00000280: b2ec 223e e46d 1b3d 4f15 b53d cd5c 02be
00000290: a464 0ebc 6c53 b3bd d66c b9bd 690d 3f3e
000002a0: b2f0 c53d 01ae 27bb e27a dfbd c0b0 7abd
000002b0: e613 15ba f86c c9bd 4906 14be d270 1a3d
000002c0: 616e 2ebe 6bbe ee3d a01a 013e 1b8c 44be
000002d0: 4cfb cc3d 40c3 0b3e 859c 53bd d3c1 e3bd
000002e0: b9d9 063b 8ea6 0d3e eeca cfbc bd85 0cbd
000002f0: 7377 e5bd a4ae 7bbd 7823 e4bd 1cbb eabd
00000300: 74df 323b 247b fb3c aad6 87bd ebae d4bd
00000310: bd40 85bc 9fb5 ebbc 934a 46bc 1aec 33bd
00000320: bdb3 3cbe f7bf 133d 52e6 1e3d 9fb3 fbbc
00000330: 7ec3 eabb 3132 24be 76f0 0ebe 357a 3ebe
00000340: 62f7 d1bd c3b2 a5bc ed74 663d 8dea 89bc
00000350: 1bf1 3ebe bef0 19be 3092 c6bd a90b cf3d
00000360: ffae 013d 1239 eabd 3eac fdbc ca55 ecbd
00000370: 1446 27be a3d3 133d 8e53 09be e32b bfbd
00000380: e6f5 2abe 986b 9a3d f035 053d db89 893d
00000390: 906f 0fbe 5608 aebd 4d47 07be 5b82 613c
000003a0: 0b0e 8fbc ca4b d03c 0877 203e e099 00bd
000003b0: ae85 b0bd 68bb 2cbe 7ad2 37be 6504 4dbe
000003c0: 69f9 efbc 7429 12be 2c2a 33bd a9af 1cbe
000003d0: b0a9 97bd 344c 24be d9bc 22be 4573 0b3e
000003e0: 411e d9bd bbaa 203b 8a02 f8bd a67f d5bd
000003f0: 6c20 d3bd b167 13be 2ae5 353e 2681 2fbe

lstm.weight_hh_l0 f4 [256, 64]
0.022996336 -0.045029074 0.06701262 0.0077993586 0.13671945 -0.15751961 0.06280003 -0.01535747
0.096012026 0.2032504 -0.05762204 0.046699367 -0.059066758 -0.14068535 0.08714182 -0.069672525
0.118068375 0.054657526 0.10989259 0.00012771017 -0.15227269 0.08473341 0.02898646 -0.09516927
-0.009997603 -0.026522376 0.024268117 -0.013210559 -0.013608049 -0.06677467 -0.16782925 0.15300052
0.050276693 -0.04299569 -0.05275242 0.015996225 -0.09052946 -0.07165888 0.08859086 -0.12238828
-0.12534855 -0.045807354 0.017826347 -0.0051115523 0.041486736 0.018211097 -0.00071263977 -0.09844398
-0.056208823 0.06017066 -0.09389273 0.07847726 -0.086454056 -0.039676912 0.15358354 0.0958268
-0.078465685 0.0031397007 0.15561496 0.06311035 0.13185696 0.16638231 0.002515778 0.04766128
-0.13509512 0.018025262 0.099951 0.014118237 -0.034000847 -0.15603763 -0.1179372 -0.077787854
-0.046611182 0.044414897 0.04336083 0.069696836 -0.1267147 -0.14049366 0.096514076 -0.038297895
0.025885211 0.01977792 -0.05307832 0.015317938 -0.061158784 0.027125644 -0.106101856 -0.09915618
-0.079785176 -0.017508043 0.15984492 -0.011650602 -0.042498115 0.00404993 -0.015602874 0.119181864
0.042410523 0.04403995 -0.16212827 0.07506395 0.09552188 0.03172846 -0.033881426 0.06503211
-0.093655005 -0.11033255 -0.06873058 0.04312822 0.0970188 0.073848 0.06837031 -0.13595405
-0.07015704 -0.043926857 0.07241017 0.118952565 -0.10968028 -0.06612298 -0.060804933 -0.036799062
0.05351855 0.020008855 0.14413424 -0.08601048 0.13344756 -0.042944036 0.052999783 0.13193552
-0.027831513 0.14119111 -0.06749934 -0.079936236 0.096202426 -0.05553886 -0.046197847 -0.02279531
0.11591494 0.06329949 0.015979236 -0.039934848 -0.099552795 -0.015230727 0.061039872 -0.023568636
-0.010866324 0.060312964 0.041683607 0.04037866 -0.061257485 -0.07803234 -0.1447735 -0.085473694
-0.13861358 0.0690646 -0.006932524 -0.019881923 0.14774036 -0.00061215775 0.057490237 -0.030705184
-0.07965116 0.042014074 -0.13023672 -0.056864135 0.033721704 -0.016483432 -0.07553903 0.04116171
0.07037016 -0.0060107573 -0.02663981 -0.09419173 -0.017653892 0.06068991 0.08554272 -0.042351708
-0.021149585 0.04051725 -0.120263495 0.10826252 -0.09727407 -0.02805547 0.022353426 0.048100155
-0.02186924 0.060264204 0.023614839 0.068197764 0.15179685 -0.032287855 -0.06226201 0.14573696
0.04506526 -0.04566144 0.0078040618 -0.17704043 -0.053750377 -0.032046765 -0.004585389 0.0779452
0.019781942 0.18664584 -0.028746169 -0.01985372 -0.043686725 -0.01659694 0.08572439 -0.03059938
0.09383625 -0.10986075 -0.09824831 -0.027904563 0.06624869 0.16681111 0.06359156 0.08772569
0.11142696 0.03743507 -0.023058783 0.115361884 -0.016954904 -0.115539044 -0.09424617 0.08138852
0.008747774 -0.083283894 -0.116401635 0.08762403 -0.045274723 -0.041440852 0.1105637 -0.078497075
0.062449373 0.07573618 0.07095063 0.08705643 0.07673959 0.053426586 0.04007998 -0.04556988
0.09744895 0.06440211 -0.07797625 -0.0010088808 -0.07103521 -0.11433907 0.060311057 0.10417565
0.13682552 0.005061055 -0.045617376 -0.026585361 0.026803745 0.027866708 -0.003270795 -0.08600323
00000000: d062 bc3c 6870 38bd ea3d 893d c391 ff3b
00000010: 2f00 0c3e d24c 21be 4d9d 803d e69d 7bbc
00000020: f4a1 c43d df20 503e 1705 6cbd d647 3f3d
00000030: fcef 71bd d20f 10be 6977 b23d 78b0 8ebd
00000040: d5cd f13d 92e0 5f3d 5e0f e13d f0e9 0539
00000050: 5fed 1bbe b688 ad3d 0375 ed3c 1be8 c2bd
00000060: fccc 23bc 7445 d9bc eecd c63c 1a71 58bc
00000070: 4bf4 5ebc 28c1 88bd 6edb 2bbe 2bac 1c3e
00000080: efee 4d3d 401c 30bd ec12 58bd 840a 833c
00000090: 8267 b9bd e4c1 92bd 206f b53d b5a6 fabd
000000a0: 5f5b 00be 7ea0 3bbd 8f08 923c cf7e a7bb
000000b0: ffed 293d 702f 953c 72d0 3aba ff9c c9bd
000000c0: 393b 66bd 8375 763d d54a c0bd b0b8 a03d
000000d0: d30e b1bd 4284 22bd 0145 1d3e d740 c43d
000000e0: 9eb2 a0bd 70c3 4d3b 8759 1f3e 0040 813d
000000f0: 8305 073e 2060 2a3e c0df 243b 7938 433d
00000100: 6056 0abe b7a9 933c 1cb3 cc3d 2e50 673c
00000110: 7944 0bbd 54c8 1fbe 0f89 f1bd 3d4f 9fbd
00000120: 5eeb 3ebd 65ec 353d 209b 313d 37bd 8e3d
00000130: 80c1 01be 92dd 0fbe 2ca9 c53d 41de 1cbd
00000140: 390d d43c 4e05 a23c a768 59bd 17f8 7a3c
00000150: a281 7abd 9936 de3c ee4b d9bd 6512 cbbd
00000160: 6966 a3bd 076d 8fbc 63ae 233e 2be2 3ebc
00000170: 8112 2ebd 46b5 843b 32a3 7fbc 9f15 f43d
00000180: a8b6 2d3d 3c63 343d f404 26be 21bb 993d
00000190: faa0 c33d b4f5 013d 40c7 0abd 8e2f 853d
000001a0: 32ce bfbd 08f6 e1bd 9ec2 8cbd 37a7 303d
000001b0: cbb1 c63d 9f3d 973d bc05 8c3d 8a37 0bbe
000001c0: 7fae 8fbd a6ec 33bd c94b 943d 679d f33d
000001d0: 0ea0 e0bd 7c6b 87bd 980e 79bd 9dba 16bd
000001e0: 4436 5b3d 9ce9 a33c ed97 133e 4326 b0bd
000001f0: 7aa6 083e 16e6 2fbd 4d16 593d 1b1a 073e
00000200: eafe e3bc 6794 103e 183d 8abd 9cb5 a3bd
00000210: c705 c53d b77c 63bd f439 3dbd 3bbd babc
00000220: d064 ed3d 2aa3 813d e3e6 823c b992 23bd
00000230: 56e2 cbbd 4d8a 79bc f204 7a3d 0313 c1bc
00000240: ab08 32bc ba0a 773d 6ebc 2a3d 1864 253d
00000250: 21e9 7abd 6bcf 9fbd 813f 14be d50c afbd
00000260: b8f0 0dbe be71 8d3d 3a2a e3bb 6adf a2bc
00000270: 4049 173e 3679 20ba e27a 6b3d 7089 fbbc
00000280: 2620 a3bd f316 2c3d c65c 05be 5eea 68bd
00000290: c51f 0a3d 4308 87bc 35b4 9abd 2e99 283d
000002a0: 3b1e 903d e3f5 c4bb bb3b dabc 98e7 c0bd
000002b0: e59e 90bc fc95 783d 0631 af3d fc78 2dbd
000002c0: e541 adbc 6af5 253d b54c f6bd bdb8 dd3d
000002d0: a137 c7bd 96d4 e5bc 881e b73c ab04 453d
000002e0: 1f27 b3bc 99d7 763d e873 c13c 45ab 8b3d
000002f0: a270 1b3e 4540 04bd 7306 7fbd 123c 153e
00000300: 5a96 383d 7d07 3bbd 37b9 ff3b 164a 35be
00000310: 5b29 5cbd 7843 03bd 0841 96bb bca1 9f3d
00000320: bd0d a23c 1620 3f3e 167d ebbc 45a4 a2bc
00000330: daf0 32bd 4ef6 87bc 4590 af3d 8dab fabc
00000340: 382d c03d acfe e0bd 6936 c9bd 1c98 e4bc
00000350: 65ad 873d 88d0 2a3e 4b3c 823d 87a9 b33d
00000360: d133 e43d 8455 193d c6e5 bcbc da42 ec3d
00000370: 03e5 8abc bc9f ecbd 2304 c1bd 06af a63d
00000380: d352 0f3c bf90 aabd fb63 eebd 3a74 b33d
00000390: fd71 39bd e2bd 29bd 396f e23d 13c3 a0bd
000003a0: eaca 7f3d 921b 9b3d 904e 913d a44a b23d
000003b0: a529 9d3d d6d5 5a3d e82a 243d 7ca7 3abd
000003c0: 5193 c73d 41e5 833d 03b2 9fbd 6c3c 84ba
000003d0: e87a 91bd 9a2a eabd ba08 773d 0b5a d53d
000003e0: fd1b 0c3e 35d7 a53b 49d9 3abd 8bc9 d9bc
000003f0: 8793 db3c b948 e43c d65a 56bb 7622 b0bd

lstm.bias_ih_l0 f4 [256]
0.035293646 -0.025373798 -0.04375795 -0.0028862322 0.06071111 -0.060935814 0.11593362 -0.043125693
0.06791766 0.17431968 -0.03237412 -0.048213348 -0.0799722 -0.022864854 -0.06423194 -0.087598644
-0.048023265 -0.036369283 0.104035355 0.0053247125 0.04892941 0.00821057 0.043844156 0.07547388
0.0016000826 0.012757265 0.033524424 0.14215091 -0.054109123 0.1404996 0.006595925 0.11268064
0.11079706 -0.026476324 0.022798743 0.083313785 -0.014321427 0.069932744 0.111266516 0.014991297
-0.009408661 0.12339313 0.1462924 0.13032949 -0.09303621 0.10720441 0.083034135 -0.054322973
0.11275624 -0.033502422 0.05607083 0.04024003 0.066769265 -0.04147666 0.0073587634 -0.029198145
0.07695295 -0.06473081 0.03261008 0.024931416 0.025273686 -0.012171982 0.068957545 0.033915605
-0.037407905 0.0009927372 -0.008831097 -0.024885114 -0.001237103 -0.0055713407 -0.06767098 -0.06407889
-0.045802012 0.007131003 0.11778686 0.022912728 -0.08275942 -0.06145106 0.03840129 0.14800479
-0.096274294 0.106796175 0.10545732 0.05620887 0.10154599 0.088006444 -0.078633465 -0.039575648
-0.050826967 -0.042513084 0.025231132 0.057345092 0.03779654 0.095081955 -0.037747927 0.13212334
-0.025420653 0.07348391 0.14129089 -0.11459789 -0.116616495 0.13822855 0.08838899 0.028618418
0.06230216 0.049371313 0.0026472004 0.07731107 0.069615625 -0.09184032 -0.0112746535 -0.04256168
0.086404495 -0.08482377 -0.117725246 -0.07707423 -0.015018056 -0.059348267 0.0036211782 -0.011310466
0.09507163 0.14892474 0.073249735 -0.06534976 0.081665084 -0.07643921 0.010926765 -0.001415548
-0.113097765 0.13522154 0.12201219 0.050008163 0.020801052 0.13269766 -0.05742291 0.047223523
-0.044850037 -0.082881965 -0.1067827 0.08796934 -0.06528762 -0.084996015 0.13255346 -0.0719215
0.015852166 -0.10128808 -0.05747983 0.14350659 0.0610537 0.011582183 -0.07753688 0.03819981
0.08203194 0.030120607 -0.058738593 0.0020702425 0.08668746 0.035567656 0.104845315 0.1098417
0.09644663 -0.056698952 -0.016033394 -0.0401811 -0.033136662 0.01499171 0.0615649 -0.073825195
-0.051339053 -0.1193991 -0.040609393 0.07867157 0.13882136 0.01498321 0.08167606 -0.13792954
-0.009026217 -0.047759302 -0.029055636 0.12355898 0.07410729 -0.11188681 -0.08988706 -0.098309994
0.06251652 0.055044 0.081608206 0.07647599 -0.07234376 0.029072622 -0.117538914 -0.043959584
0.040409356 0.02363992 -0.07793142 0.04181481 0.058652613 0.1423946 -0.02907848 0.12276097
0.009620621 -0.042163625 0.13355723 0.011685556 -0.044436913 0.015241961 0.12882498 -0.011978782
-0.010963415 0.023497632 -0.0846302 0.07940432 0.14884168 0.09818236 0.0016837033 -0.011074674
-0.1386422 -0.05815313 -0.0014353794 0.10203591 0.14791895 0.019326918 0.027187565 0.11720231
-0.014151009 -0.11547703 0.09853337 -0.05823519 -0.082403086 0.039378848 -0.09258764 -0.04661571
-0.026313094 0.02646043 0.07938914 -0.036005583 -0.09306422 -0.011346079 0.13888593 0.0030628808
-0.04995338 -0.0047301897 0.10324162 0.059801724 0.012783739 0.15793066 0.054163918 0.05819789
0.12990704 0.031657293 0.004684181 0.07685432 0.07559235 -0.054393347 0.1285167 -0.028603587
00000000: 1290 103d b6dc cfbc 893b 33bd f126 3dbb
00000010: 36ac 783d d597 79bd 9b6e ed3d 91a4 30bd
00000020: 6a18 8b3d dc80 323e ba9a 04bd 5c7b 45bd
00000030: 77c8 a3bd 134f bbbc 098c 83bd eb66 b3bd
00000040: 0bb4 44bd f5f7 14bd 7d10 d53d ed7a ae3b
00000050: 346a 483d a085 063c ee95 333d 0d92 9a3d
00000060: ddb9 d13a d903 513c e850 093d 0290 113e
00000070: 87a1 5dbd 21df 0f3e a122 d83b 1bc5 e63d
00000080: 92e9 e23d e0e4 d8bc 6ec4 ba3c 6ba0 aa3d
00000090: 6ba4 6abc e638 8f3d b3df e33d 0f9e 753c
000000a0: c926 1abc 8ab5 fc3d adcd 153e 1875 053e
000000b0: c589 bebd fc8d db3d cd0d aa3d c481 5ebd
000000c0: beec e63d d639 09bd 87aa 653d bbd2 243d
000000d0: 53be 883d 6ee3 29bd c821 f13b f330 efbc
000000e0: 8299 9d3d 9691 84bd 2692 053d f83c cc3c
000000f0: c30a cf3c fe6c 47bc 9d39 8d3d 17eb 0a3d
00000100: 0839 19bd bc1e 823a 4eb0 10bc dedb cbbc
00000110: 4a26 a2ba cb8f b6bb 1597 8abd cb3b 83bd
00000120: e49a 3bbd 30ab e93b 3d3a f13d 79b3 bb3c
00000130: c57d a9bd 1bb4 7bbd ac4a 1d3d 918e 173e
00000140: 752b c5bd f4b7 da3d 02fa d73d 463b 663d
00000150: 58f7 cf3d b93c b43d 950a a1bd 131a 22bd
00000160: f02f 50bd 3322 2ebd 85b1 ce3c b0e2 6a3d
00000170: 8bd0 1a3d 54ba c23d 929d 1abd 574b 073e
00000180: f93e d0bc bb7e 963d 8fae 103e 4cb2 eabd
00000190: a1d4 eebd c98b 0d3e 4905 b53d 2c71 ea3c
000001a0: 8d30 7f3d 9339 4a3d a77c 2d3b 4455 9e3d
000001b0: a392 8e3d c716 bcbd 53b9 38bc 2855 2ebd
000001c0: d7f4 b03d 16b8 adbd ef19 f1bd 18d9 9dbd
000001d0: 4b0e 76bc 2b17 73bd 4a51 6d3b 884f 39bc
000001e0: eab4 c23d ba7f 183e f503 963d 18d6 85bd
000001f0: 0640 a73d 298c 9cbd 2d06 333c e989 b9ba
00000200: cd9f e7bd 8477 0a3e 87e1 f93d 5cd5 4c3d
00000210: f866 aa3c e5e1 073e 4934 6bbd 746d 413d
00000220: acb4 37bd 05be a9bd e3b0 dabd 4529 b43d
00000230: 84b5 85bd 6412 aebd 18bc 073e 944b 93bd
00000240: 67dc 813c 2070 cfbd f86f 6bbd 64f3 123e
00000250: 7213 7a3d 32c3 3d3c a8cb 9ebd 6777 1c3d
00000260: 5d00 a83d 7ebf f63c e197 70bd e8ac 073b
00000270: 3289 b13d 64af 113d 24b9 d63d aff4 e03d
00000280: d085 c53d 293d 68bd 7758 83bc f094 24bd
00000290: 4fba 07bd ca9f 753c 7a2b 7c3d aa31 97bd
000002a0: e648 52bd 8487 f4bd 0956 26bd 8f1e a13d
000002b0: 3027 0e3e 237c 753c c745 a73d 673d 0dbe
000002c0: b3e2 13bc 429f 43bd 1606 eebc 7e0c fd3d
000002d0: 90c5 973d e924 e5bd b516 b8bd c056 c9bd
000002e0: a908 803d d175 613d 3422 a73d 729f 9c3d
000002f0: f728 94bd b529 ee3c 3eb8 f0bd f70e 34bd
00000300: 4884 253d 81a8 c13c 829a 9fbd 0246 2b3d
00000310: b93d 703d e4cf 113e fe35 eebc 1a6a fb3d
00000320: cf9f 1d3c c4b3 2cbd 3ac3 083e c674 3f3c
00000330: 7b03 36bd 6bb9 793c b2ea 033e a742 44bc
00000340: e59f 33bc 1b7e c03c 9952 adbd bb9e a23d
00000350: f469 183e d513 c93d b5af dc3a 8d72 35bc
00000360: 39f8 0dbe fa31 6ebd 5723 bcba 34f8 d03d
00000370: 1178 173e 7c53 9e3c 75b8 de3c c407 f03d
00000380: a2d9 67bc 397f ecbd ddcb c93d 0688 6ebd
00000390: f3c2 a8bd b74b 213d 979e bdbd 1df0 3ebd
000003a0: 8f8e d7bc 8bc3 d83c c696 a23d 977a 13bd
000003b0: 7498 bebd e8e4 39bc 1d38 0e3e 9dba 483b
000003c0: ea9b 4cbd b5ff 9abb 5870 d33d a7f2 743d
000003d0: e372 513c 93b8 213e fcda 5d3d e960 6e3d
000003e0: 5a06 053e 14ab 013d c27d 993b cc65 9d3d
000003f0: 29d0 9a3d 8fcb 5ebd e299 033e 1252 eabc

lstm.bias_hh_l0 f4 [256]
-0.07584872 0.14242655 -0.06926736 -0.011144175 -0.022936672 0.026789907 -0.012065075 0.12722743
0.12639332 -0.061247215 -0.09308549 -0.08697515 0.088852845 0.014393761 -0.04934571 -0.04689404
0.032555845 0.04285081 0.0674609 0.12754919 0.14550301 -0.03589658 0.017752532 -0.06355045
-0.06534295 0.031738106 0.09309247 -0.031915653 -0.041325133 -0.015246975 0.086033046 0.027025642
0.107655466 -0.14333934 0.06541669 0.09133663 0.08178405 -0.07323986 -0.09176547 0.041586764
0.035211414 0.1009218 0.13593872 0.0022262384 -0.011825039 0.09304181 -0.059532203 -0.031586565
0.046497297 0.012594141 0.06551254 0.0047683204 0.040641163 0.07087843 0.02083969 -0.0014363594
0.086777985 0.10422768 0.004774062 -0.10339189 -0.012803096 0.11190811 0.113599144 -0.016721988
0.09983935 0.02020694 0.011185771 -0.013228662 -0.0006763867 0.007137678 0.034566 -0.081691116
0.028237984 -0.06339814 -0.098338746 -0.08631434 -0.035733704 0.057233933 0.030140704 0.07114206
-0.037317928 -0.072382554 -0.033243496 -0.06589547 0.023595355 0.07712664 0.04808847 -0.10325743
0.09714067 0.13970526 -0.026831925 -0.07549737 0.05177342 0.055093627 0.0024956241 -0.03044644
0.034846634 -0.1028197 -0.037594408 0.027510865 0.01730724 0.095904104 0.09894314 0.040784054
0.07892197 0.120181635 -0.037435766 0.094807364 0.113115855 -0.018991603 0.12090914 -0.025629917
-0.02690467 0.1296077 0.047686096 0.024104608 -0.0708243 0.10835109 0.059228715 -0.014799833
0.0100631025 0.12955862 0.077675976 -0.074323915 0.029327063 -0.013287553 0.15595435 0.08345336
-0.014736487 0.0033536544 -0.050945066 -0.035562873 0.023332473 -0.11019726 0.006059151 0.13617155
0.05098708 0.00042980624 -0.03813863 0.0026858884 -0.081984326 -0.08962464 0.052527912 0.04410916
0.073487036 -0.056988142 0.051007688 -0.03893115 -0.09834432 -0.04164918 -0.100228466 -0.033428248
-0.015942108 0.085293554 0.087120086 0.022132406 0.07402342 0.03736312 -0.12583974 -0.06048906
-0.0689208 -0.042237952 0.015770657 0.05348736 0.09510471 -0.073291674 0.009025484 0.07973763
0.012811901 -0.12654205 -0.044699866 0.054755744 0.046228025 0.1226036 0.10459275 -0.08705573
0.088726975 -0.13604799 -0.042456124 0.058523905 -0.00015401903 0.10023084 0.09799955 -0.06638017
0.13962072 -0.09396792 0.040195536 0.01974013 0.10537494 0.14083564 -0.00087895314 -0.039027523
0.13970982 0.12069768 0.020881252 0.13336904 0.018458715 0.019419795 0.043321308 0.038580976
0.0023527723 0.067932464 0.024606168 -0.04465011 -0.1069896 0.077464536 -0.03251615 0.04446207
0.13261816 0.10843349 0.066657625 0.0972205 0.12824178 -0.030839488 0.14806099 -0.07932901
-0.09713246 -0.010819997 0.1550026 0.10271479 0.06668537 0.1005576 -0.080202594 -0.08754507
0.05100845 -0.064380616 0.08756837 -0.092904374 0.124967106 -0.07074322 0.054284487 0.11672671
-0.024444243 0.14776526 0.1029183 -0.04128337 -0.03006895 0.12686113 -0.008171083 0.040148318
0.098600544 0.10037959 -0.07192564 0.13396218 0.06821467 0.07588705 -0.016809074 0.09553212
-0.008807499 0.13313113 0.090797566 0.06726055 0.018994246 0.11453816 0.14466836 0.051528234
00000000: 9356 9bbd 44d8 113e 0cdc 8dbd 0f96 36bc
00000010: b0e5 bbbc 8276 db3c 98ac 45bc e847 023e
00000020: 406d 013e 5cde 7abd 9ba3 bebd 0720 b2bd
00000030: 7bf8 b53d cfd3 6b3c ba1e 4abd f713 40bd
00000040: 4759 053d 5584 2f3d f128 8a3d 419c 023e
00000050: befe 143e 4b08 13bd c26d 913c bd26 82bd
00000060: 86d2 85bd d1ff 013d 44a7 be3d fdb9 02bd
00000070: 8b44 29bd 73ce 79bc 1832 b03d e164 dd3c
00000080: 787a dc3d 8cc7 12be 30f9 853d b30e bb3d
00000090: 657e a73d c8fe 95bd 89ef bbbd e256 2a3d
000000a0: d839 103d 17b0 ce3d 8533 0b3e 15e6 113b
000000b0: cfbd 41bc b48c be3d 0ad8 73bd ea60 01bd
000000c0: f373 3e3d a857 4e3c 702b 863d 923f 9c3b
000000d0: 5977 263d b628 913d ffb7 aa3c 3944 bcba
000000e0: a8b8 b13d 5275 d53d bc6f 9c3b 21bf d3bd
000000f0: 14c4 51bc 1430 e53d aba6 e83d 8dfc 88bc
00000100: 9378 cc3d 0689 a53c 8644 373c 08bd 58bc
00000110: 8b4f 31ba 2fe3 e93b 1495 0d3d ac4d a7bd
00000120: 5853 e73c e2d6 81bd d365 c9bd 93c5 b0bd
00000130: 815d 12bd 216e 6a3d a3e9 f63c eeb2 913d
00000140: afda 18bd 4e3d 94bd 552a 08bd 34f4 86bd
00000150: 0c4b c13c 92f4 9d3d 6af8 443d a278 d3bd
00000160: b0f1 c63d e50e 0f3e a0ce dbbc 5d9e 9abd
00000170: 5e10 543d dba9 613d a08d 233b d06a f9bc
00000180: 58bb 0e3d 2393 d2bd 98fc 19bd 775e e13c
00000190: eac7 8d3c 5f69 c43d b3a2 ca3d 2e0d 273d
000001a0: d8a1 a13d ca21 f63d 3f56 19bd 5d2a c23d
000001b0: 49a9 e73d 4794 9bbc 369f f73d d5f5 d1bc
000001c0: 2f67 dcbc e2b7 043e 7f52 433d 0777 c53c
000001d0: 550c 91bd 2de7 dd3d cf99 723d 007b 72bc
000001e0: b6df 243c 04ab 043e 9514 9f3d 2337 98bd
000001f0: 4f3f f03c 09b4 59bc 7fb2 1f3e 98e9 aa3d
00000200: 4e71 71bc fcc8 5b3b c6ab 50bd 60aa 11bd
00000210: be23 bf3c 1aaf e1bd d88b c63b 8e70 0b3e
00000220: d4d7 503d 9e57 e139 4137 1cbd bb05 303b
00000230: 66e7 a7bd 208d b7bd 8227 573d ceab 343d
00000240: 5f80 963d 666c 69bd 70ed 503d 4576 1fbd
00000250: bf68 c9bd 5598 2abd 9544 cdbd 0fec 08bd
00000260: 0699 82bc 63ae ae3d 046c b23d 054f b53c
00000270: 9799 973d 120a 193d 22dc 00be 60c3 77bd
00000280: 5926 8dbd b401 2dbd 7731 813c 9015 5b3d
00000290: 42c6 c23d f219 96bd a0df 133c 7c4d a33d
000002a0: 02e9 513c 3d94 01be 3517 37bd 8f47 603d
000002b0: 9959 3d3d 9917 fb3d b934 d63d 464a b2bd
000002c0: 7db6 b53d 2a50 0bbe 79e6 2dbd c3b6 6f3d
000002d0: 2b80 21b9 d445 cd3d fdb3 c83d 54f2 87bd
000002e0: bcf8 0e3e 4172 c0bd 13a4 243d 0eb6 a13c
000002f0: d1ce d73d 3837 103e 8c69 66ba 53db 1fbd
00000300: 1710 0f3e 5830 f73d 290f ab3c e591 083e
00000310: bb36 973c 4316 9f3c af71 313d 1607 1e3d
00000320: f830 1a3b 2d20 8b3d e092 c93c 09e3 36bd
00000330: 5d1d dbbd baa5 9e3d a82f 05bd dc1d 363d
00000340: 0ecd 073e 6112 de3d cb83 883d 8b1b c73d
00000350: d051 033e 18a3 fcbc 4d9d 173e 3f77 a2bd
00000360: 62ed c6bd 5b46 31bc 00b9 1e3e 225c d23d
00000370: 5792 883d 25f1 cd3d 4241 a4bd d44a b3bd
00000380: 3dee 503d fcd9 83bd 0c57 b33d a644 bebd
00000390: c1ee ff3d d2e1 90bd 6959 5e3d 6a0e ef3d
000003a0: 4b3f c8bc c74f 173e d4c6 d23d c018 29bd
000003b0: 2953 f6bc e2e7 013e 02e0 05bc 9072 243d
000003c0: 15ef c93d d193 cd3d c04d 93bd 622d 093e
000003d0: 22b4 8b3d ab6a 9b3d 2fb3 89bc 58a6 c33d
000003e0: 544d 10bc 8753 083e 13f4 b93d e6bf 893d
000003f0: d299 9b3c fc92 ea3d f123 143e 450f 533d

fc1.weight f4 [32, 64]
-0.034688096 -0.055470098 -0.022186037 0.040812712 -0.06393077 -0.08354041 0.049827747 -0.03704646
-0.0685642 0.027859243 0.033583943 -0.084786266 0.03674021 -0.12393921 0.08215345 0.10035347
0.06360691 0.10269058 0.008359656 -0.016059365 0.0073992647 0.07134088 -0.07987226 -0.10260362
-0.055764638 0.07899546 0.081947684 -0.031369254 0.13375445 -0.1414662 -0.04506866 0.056950722
-0.11216314 0.12077132 -0.10557694 0.08602912 0.04831888 -0.043488484 0.117314 -0.045036558
-0.006395138 0.09429879 -0.11132348 0.122457944 -0.033034682 -0.0765701 0.09073445 -0.06146289
-0.07423365 -0.086091615 0.075842075 0.07993847 -0.050346702 0.037884228 0.063324355 -0.041217852
0.036377527 0.060605217 0.01456816 -0.034340944 0.15465173 -0.010139829 0.20813744 0.15890108
0.114643574 0.019479718 0.020334762 0.04582278 -0.12855366 -0.035470054 -0.055715073 -0.032020424
-0.0761181 -0.027798478 -0.071276 -0.1044789 0.062375907 0.13562553 -0.06462991 -0.096148446
-0.05578324 -0.033453904 -0.13570966 0.09606993 0.09842623 0.07928049 -0.05097537 -0.068483606
0.13268144 -0.08916054 -0.11865254 -0.117801934 0.024464425 -0.0028662838 -0.062670134 0.09294171
-0.055606943 -0.0052999384 0.07588391 0.074705504 0.09082611 -0.029567119 0.05019038 0.003681868
0.03015039 -0.059749402 0.06197357 0.0146375215 0.011419646 -0.02316707 0.036939286 -0.10711845
0.088409156 0.11159801 0.08111914 -0.018082049 -0.10292712 -0.020147089 -0.113976575 -0.0741458
0.083973594 -0.0008241757 0.11086384 -0.052603334 -0.071698666 -0.11368134 0.034431554 0.032633346
0.008562441 0.16058347 0.10775242 -0.1692994 0.04958031 0.060842372 0.047095682 0.10158335
-0.004425871 -0.09035862 0.0705501 0.014366467 0.0455866 -0.08436894 -0.00026887291 0.10062374
0.1661803 -0.07904147 0.07277225 0.09637058 -0.07379669 0.08248186 -0.008889065 0.11225773
-0.044914227 0.1503595 0.04235504 0.10146625 -0.05020028 0.0489278 0.050370183 0.08454566
-0.050417602 0.0036269003 -0.14433762 -0.060304016 0.13037457 -0.07896442 0.010297934 -0.13274206
-0.16956763 -0.102609456 0.019105282 -0.05224628 -0.04431061 -0.04826954 0.046359103 -0.083765104
0.14427137 -0.17259383 -0.14955556 0.014226178 0.078340404 0.06051316 0.031586066 -0.007924288
0.059582386 -0.047921114 0.06217846 -0.050458908 0.04905714 0.07672791 0.09429934 -0.044461943
-0.07872731 0.11704111 0.11280979 0.010781717 0.006097418 -0.01558029 -0.085734844 0.16069435
0.12488849 -0.10138389 0.012877689 0.17845307 0.013112338 -0.15354002 0.12903187 0.06463016
0.015915893 0.007369113 0.10787734 0.10853809 -0.15109032 0.111741535 -0.12980065 -0.11491708
-0.040583856 0.11987803 0.15095031 0.08735707 0.13229111 -0.14937018 -0.11757954 -0.018108739
-0.1544597 -0.10416858 -0.13795033 -0.07344511 0.05288146 -0.030736195 0.03501996 -0.077358015
-0.047025166 -0.16499259 -0.0862884 -0.06270349 0.14361739 0.056401156 -0.05794587 -0.09969595
0.049954683 -0.13533162 0.06982869 0.1418546 -0.018980002 -0.07506968 0.12511002 0.032336533
0.052613508 -0.038551774 -0.05476184 0.04956166 0.10363879 0.13042499 0.018620234 0.13267423
00000000: 1b15 0ebd 9d34 63bd 7ebf b5bc 3b2b 273d
00000010: 23ee 82bd 3c17 abbd 2e18 4c3d 07be 17bd
00000020: 636b 8cbd 1139 e43c 518f 093d 6ca4 adbd
00000030: e77c 163d d7d3 fdbd 1140 a83d 1f86 cd3d
00000040: 5744 823d 704f d23d f0f6 083c ee8e 83bc
00000050: 8875 f23b 2b1b 923d 1194 a3bd d921 d2bd
00000060: 7669 64bd 5fc8 a13d 30d4 a73d 0c7d 00bd
00000070: edf6 083e 84dc 10be ea99 38bd 2945 693d
00000080: cab5 e5bd f456 f73d b938 d8bd 0930 b03d
00000090: 05ea 453d fb20 32bd 5342 f03d 4178 38bd
000000a0: 4e8e d1bb b91f c13d 91fd e3bd 3bcb fa3d
000000b0: 604f 07bd c9d0 9cbd fcd2 b93d 83c0 7bbd
000000c0: d007 98bd cd50 b0bd 1753 9b3d c8b6 a33d
000000d0: 5838 4ebd 7e2c 1b3d 33b0 813d 0dd4 28bd
000000e0: 9a00 153d 2d3d 783d 4baf 6e3c 17a9 0cbd
000000f0: 065d 1e3e 8621 26bc fb21 553e f7b6 223e
00000100: 40ca ea3d ee93 9f3c 1695 a63c abb0 3b3d
00000110: 92a3 03be 0c49 11bd 7d35 64bd d927 03bd
00000120: cee3 9bbd a2b9 e3bc 27f9 91bd 09f9 d5bd
00000130: e17d 7f3d 6be1 0a3e b05c 84bd 7ae9 c4bd
00000140: f77c 64bd f606 09bd 79f7 0abe 50c0 c43d
00000150: b193 c93d cf5d a23d 8dcb 50bd 2241 8cbd
00000160: a5dd 073e cd99 b6bd 1a00 f3bd 2442 f1bd
00000170: 9e69 c83c 43d8 3bbb 3359 80bd 3958 be3d
00000180: 1bc4 63bd 1bab adbb 0669 9b3d 33ff 983d
00000190: 0a03 ba3d be36 f2bc 6e94 4d3d 7f4b 713b
000001a0: f3fd f63c cabb 74bd 00d8 7d3d 37d2 6f3c
000001b0: 7819 3b3c dec8 bdbc a64d 173d eb60 dbbd
000001c0: dc0f b53d 7f8d e43d cb21 a63d ce20 94bc
000001d0: 74cb d2bd 820b a5bc 8d6c e9bd c1d9 97bd
000001e0: 59fa ab3d 7f0d 58ba 950c e33d 9876 57bd
000001f0: c0d6 92bd c3d1 e8bd 1a08 0d3d 8baa 053d
00000200: 7b49 0c3c fe6f 243e 4dad dc3d d25c 2dbe
00000210: b914 4b3d da35 793d 67e7 403d ee0a d03d
00000220: e606 91bb f10d b9bd 927c 903d 5461 6b3c
00000230: 04b9 3a3d 9fc9 acbd 83f7 8cb9 d213 ce3d
00000240: 2b2b 2a3e 7fe0 a1bd 9e09 953d f05d c53d
00000250: b822 97bd 40ec a83d 71a3 11bc 61e7 e53d
00000260: fbf7 37bd d7f7 193e 7a7c 2d3d 8acd cf3d
00000270: cf9e 4dbd 8468 483d f750 4e3d 4626 ad3d
00000280: b082 4ebd 4ab1 6d3b 3ecd 13be 5801 77bd
00000290: e980 053e 19b8 a1bd aab8 283c 89ed 07be
000002a0: 23a3 2dbe e824 d2bd ae82 9c3c 3200 56bd
000002b0: 0b7f 35bd 48b6 45bd 0be3 3d3d 0a8d abbd
000002c0: e0bb 133e 70bc 30be 1825 19be ea14 693c
000002d0: ef70 a03d a6dc 773d 6460 013d dfd4 01bc
000002e0: a90c 743d ee48 44bd d7ae 7e3d 00ae 4ebd
000002f0: 24f0 483d 8623 9d3d 0320 c13d ba1d 36bd
00000300: c93b a1bd 40b3 ef3d d208 e73d cca5 303c
00000310: d9cc c73b 7944 7fbc c095 afbd 0f8d 243e
00000320: 89c5 ff3d 5ba2 cfbd f1fc 523c 67bc 363e
00000330: 22d5 563c 9839 1dbe ee20 043e d15c 843d
00000340: 0c62 823c 9a78 f13b cbee dc3d 3849 de3d
00000350: 6cb7 1abe bfd8 e43d 76ea 04be a559 ebbd
00000360: 423b 26bd 9d82 f53d b892 1a3e 43e8 b23d
00000370: 5277 073e 7ff4 18be 8bcd f0bd c758 94bc
00000380: af2a 1ebe 5656 d5bd da42 0dbe 646a 96bd
00000390: 3b9a 583d 79ca fbbc 1771 0f3d e16d 9ebd
000003a0: 769d 40bd d1f3 28be f9b7 b0bd b06a 80bd
000003b0: 7010 133e e604 673d a658 6dbd 642d ccbd
000003c0: 489d 4c3d 5f94 0abe 5802 8f3d 5542 113e
000003d0: f37b 9bbc 22be 99bd d71c 003e 5073 043d
000003e0: 4381 573d 77e8 1dbd f34d 60bd 2b01 4b3d
000003f0: 9340 d43d 218e 053e 7689 983c c1db 073e

fc1.bias f4 [32]
0.10768633 -0.10867424 0.10430639 0.09247838 0.038996592 -0.04940095 -0.06510495 -0.018618748
-0.04245869 0.09758769 -0.100108474 0.100878336 -0.050709378 0.058280904 0.045535937 -0.019065097
0.0069883154 -0.091224186 0.064031616 0.08819946 -0.09336305 0.08107309 -0.12499935 0.13421975
-0.056903437 -0.1187429 0.098690666 0.090143204 0.039523672 0.06392123 -0.069140196 0.11621999
00000000: a78a dc3d 9a90 debd 979e d53d 4e65 bd3d
00000010: e4ba 1f3d a758 4abd be55 85bd 5886 98bc
00000020: 2ae9 2dbd 0edc c73d ac05 cdbd 4d99 ce3d
00000030: a3b4 4fbd f5b7 6e3d e483 3a3d 682e 9cbc
00000040: 3dfe e43b bfd3 babd 0223 833d eba1 b43d
00000050: 2035 bfbd a609 a63d a9ff ffbd e770 093e
00000060: 9413 69bd 7a2f f3bd 551e ca3d 009d b83d
00000070: 93e3 213d 22e9 823d 6099 8dbd bf04 ee3d

fc2.weight f4 [32, 32]
-0.15247522 -0.048573464 -0.089931026 -0.10362238 0.1301185 0.13160858 0.090859964 0.17084455
-0.10890434 -0.058474634 -0.003940316 0.003889892 0.11275165 0.17344335 0.26980135 -0.1452285
0.15711328 0.09309068 -0.0056059267 -0.0017261925 -0.031443298 -0.082087204 -0.07624017 0.26198298
-0.11267854 0.0348572 0.035945974 0.11026352 -0.025450885 0.12970869 -0.17299823 -0.1255538
-0.15362328 -0.0050913244 -0.10932399 0.117985114 -0.084038325 0.015028745 0.14944805 -0.17422083
0.0729215 -0.15058148 0.08566289 -0.046321556 -0.15168107 0.029130027 0.012908086 0.0614987
0.10600285 -0.018248767 -0.08197899 0.17276917 -0.054591104 0.15124719 0.11787991 -0.17336941
-0.05119112 0.01141946 -0.14166424 0.030218735 -0.07307001 -0.09071818 0.13157605 0.07600249
0.15856637 -0.03616208 -0.06938941 -0.13394493 0.006521047 0.13869683 -0.019348294 0.18100947
0.11299901 -0.040623922 0.025107577 0.15448347 0.19784863 0.1722515 -0.025152702 0.030020311
0.14569366 0.15672801 -0.17342587 0.11561149 -0.08167737 -0.10837763 -0.099570386 0.01508738
-0.027642518 -0.0031706244 -0.10354934 0.092250496 -0.11856428 0.14258163 -0.15953003 0.03882923
-0.13723095 -0.09830432 0.013788451 -0.061204914 -0.11860098 -0.016510382 -0.1274232 -0.10513582
0.10448228 -0.017452212 -0.049921513 0.13206461 0.015384104 0.12784465 0.07319617 0.014513731
-0.06514057 -0.10015245 0.13352992 0.025152674 0.15070947 0.07782124 -0.020651486 -0.16289856
0.07129051 -0.048777774 0.007340088 -0.09360362 0.111006364 0.1415715 -0.10484144 -0.0695321
-0.1315948 0.085569814 -0.12808697 -0.13669059 -0.12922713 -0.1425761 0.13655888 -0.07611259
0.10927726 -0.048919976 -0.05334457 -0.048424512 -0.14339468 0.050737366 -0.07110449 0.052915826
-0.15062538 0.027651027 0.14357899 -0.054338604 0.03768231 -0.17452095 -0.07220368 0.14641885
0.07011913 0.064768195 0.07672043 -0.036094964 -0.07503715 0.16636257 -0.064823836 -0.014098242
-0.13397355 0.13550521 -0.057753257 -0.06590717 -0.10995181 0.041146114 -0.13688001 0.13847288
0.12995861 -0.13453801 -0.1622029 0.032376215 -0.10511114 -0.18905167 0.09716845 -0.044455275
0.022772854 0.01890634 -0.124003395 -0.10052709 0.06145847 -0.15608607 -0.024276927 -0.029375967
-0.09801248 0.17471905 -0.15665284 -0.15152945 -0.12780237 0.100247905 -0.15047958 0.107310936
0.16217937 0.16591425 0.15533784 0.019035954 -0.092006266 0.043291584 0.072783306 0.24876018
-0.15492061 0.12430381 0.041138355 0.2659016 0.010764471 -0.036354445 0.28608152 -0.17301561
-0.0006033425 0.14980018 -0.05838614 0.22447038 0.10828538 -0.030340241 -0.03554623 0.2260045
-0.0358731 0.07306047 -0.06643131 -0.106966086 -0.1227925 -0.18501303 -0.053822704 -0.091045134
0.0442858 0.0015351325 -0.12895887 -0.1497258 -0.03144095 0.06372489 0.010401204 0.28198233
-0.094932675 -0.13640513 -0.03728345 0.07753373 -0.13200949 0.09520048 0.24017833 -0.17467105
0.08733602 0.034271985 0.052265514 -0.10127215 0.1113971 -0.11735727 -0.076905586 0.17811558
-0.03807497 0.12320714 -0.06556032 -0.1603725 -0.15544167 0.0037821278 -0.13775697 0.1427631
00000000: 7722 1cbe f8f4 46bd c22d b8bd f837 d4bd
00000010: c93d 053e 66c4 063e ca14 ba3d e0f1 2e3e
00000020: 3d09 dfbd 1983 6fbd c41d 81bb 8fed 7e3b
00000030: 56ea e63d 229b 313e 6723 8a3e c8b6 14be
00000040: 4ee2 203e 54a6 be3d ecb1 b7bb 6941 e2ba
00000050: b0ca 00bd 561d a8bd ce23 9cbd a222 863e
00000060: 02c4 e6bd 6cc6 0e3d 163c 133d d7d1 e13d
00000070: 607e d0bc 5bd2 043e 7326 31be 2d91 00be
00000080: 6c4f 1dbe 20d5 a6bb 42e5 dfbd 2ea2 f13d
00000090: 491c acbd 203b 763c e908 193e f266 32be
000000a0: de57 953d 0832 1abe 0670 af3d acbb 3dbd
000000b0: 4852 1bbe 18a2 ee3c 707c 533c 10e6 7b3d
000000c0: 0618 d93d 707e 95bc 9ae4 a7bd 67ea 303e
000000d0: ec9a 5fbd 8be0 1a3e 066b f13d c087 31be
000000e0: c8ad 51bd b018 3b3c 6e10 11be 488d f73c
000000f0: bba5 95bd 74ca b9bd dfbb 063e 32a7 9b3d
00000100: 395f 223e b01e 14bd 091c 8ebd dc28 09be
00000110: 82ae d53b 8b06 0e3e 5080 9ebc 8c5a 393e
00000120: 066c e73d 4565 26bd 68ae cd3c ea30 1e3e
00000130: d598 4a3e b262 303e 0a0d cebc 28ed f53c
00000140: b830 153e 4f7d 203e 8d96 31be b8c5 ec3d
00000150: 7746 a7bd 17f5 ddbd 8feb cbbd 0f31 773c
00000160: 9072 e2bc 40ca 4fbb ad11 d4bd d4ed bc3d
00000170: d4d1 f2bd eb00 123e d75b 23be 660b 1f3d
00000180: 4586 0cbe c653 c9bd f5e8 613c 01b2 7abd
00000190: 12e5 f2bd c840 87bc 3a7b 02be 7351 d7bd
000001a0: cefa d53d f1f7 8ebc 807a 4cbd f23b 073e
000001b0: 9c0d 7c3c b5e9 023e e0e7 953d 00cb 6d3c
000001c0: 6b68 85bd ba1c cdbd 11bc 083e fb0c ce3c
000001d0: 9553 1a3e be60 9f3d 4e2d a9bc e1ce 26be
000001e0: c200 923d 34cb 47bd 1f85 f03b 41b3 bfbd
000001f0: 4e57 e33d 1ff8 103e 1cb7 d6bd d866 8ebd
00000200: cac0 06be 3a3f af3d 3b29 03be 9ef8 0bbe
00000210: 1e54 04be 78ff 11be 17d6 0b3e ebe0 9bbd
00000220: c2cc df3d 5060 48bd d67f 5abd c858 46bd
00000230: 0ed6 12be fcd1 4f3d 3b9f 91bd 44be 583d
00000240: 8a3d 1abe 6884 e23c 5f06 133e 2892 5ebd
00000250: c458 1a3d 9fb5 32be 86df 93bd d3ee 153e
00000260: 9e9a 8f3d 30a5 843d 9a1f 9d3d 50d8 13bd
00000270: 14ad 99bd f35a 2a3e 5cc2 84bd 50fc 66bc
00000280: 5d30 09be e1c1 0a3e ae8e 6cbd 57fa 86bd
00000290: 6a2e e1bd d488 283d 462a 0cbe d6cb 0d3e
000002a0: df13 053e 55c4 09be 8418 26be ec9c 043d
000002b0: 8244 d7bd c396 41be 4100 c73d bc16 36bd
000002c0: 238e ba3c 78e1 9a3c 7ef5 fdbd 26e1 cdbd
000002d0: e0bb 7b3d 07d5 1fbe 68e0 c6bc dea5 f0bc
000002e0: c4ba c8bd 8de9 323e 9a69 20be 892a 1bbe
000002f0: a0de 02be c64e cd3d 5217 1abe d6c5 db3d
00000300: 5912 263e 6de5 293e e210 1f3e 4af1 9b3c
00000310: c86d bcbd 8452 313d 6a0f 953d fdba 7e3e
00000320: 82a3 1ebe ff92 fe3d b180 283d 4124 883e
00000330: 775d 303c 66e8 14bd 4779 923e 012b 31be
00000340: a129 1eba 3865 193e 4e26 6fbd 90db 653e
00000350: bac4 dd3d 198c f8bc ec98 11bd b96d 673e
00000360: acef 12bd baa0 953d 230d 88bd 0911 dbbd
00000370: a27a fbbd 0e74 3dbe 3275 5cbd df75 babd
00000380: 0765 353d 8036 c93a cb0d 04be b851 19be
00000390: 3ac8 00bd 3282 823d d069 2a3c fd5f 903e
000003a0: 106c c2bd c9ad 0bbe 88b6 18bd 01ca 9e3d
000003b0: 7f2d 07be 78f8 c23d 4ff1 753e f8dc 32be
000003c0: 3add b23d c860 0c3d 5d14 563d c667 cfbd
000003d0: 2a24 e43d 0259 f0bd ad80 9dbd ee63 363e
000003e0: 80f4 1bbd 0654 fc3d 7d44 86bd b038 24be
000003f0: 1a2c 1fbe 93dd 773b 2a10 0dbe 7d30 123e

fc2.bias f4 [32]
0.07780009 -0.047075495 0.001382748 -0.092853956 -0.057841532 -0.050492134 -0.003824152 0.0064467876
0.05631116 0.10349901 0.16257192 0.013239829 -0.076123215 0.0538225 0.11788093 -0.15713036
-0.012287486 0.08964281 -0.1265182 0.1257909 -0.1193197 0.052784286 0.050063517 0.03463051
-0.121858485 0.045140177 -0.12672535 -0.08898972 0.057666663 -0.14235365 0.14442042 0.06425934
00000000: a755 9f3d 3cd2 40bd 533d b53a 372a bebd
00000010: 3eeb 6cbd d7d0 4ebd a09e 7abb 933f d33b
00000020: 88a6 663d 4af7 d33d 4179 263e deeb 583c
00000030: 7de6 9bbd fb74 5c3d 8f6b f13d c8e6 20be
00000040: 7451 49bc a696 b73d fd8d 01be 54cf 003e
00000050: e35d f4bd 5634 583d 670f 4d3d b9d8 0d3d
00000060: f190 f9bd e8e4 383d 4ac4 01be 3e40 b6bd
00000070: e133 6c3d 28c5 11be f2e2 133e 679a 833d

fc3.weight f4 [1, 32]
0.15824993 -0.100499265 0.03997763 0.114959836 0.0653619 -0.029926615 0.27952784 0.19058797
0.030275686 -0.11248836 -0.16120063 0.1728209 -0.027103426 -0.08163374 -0.053201906 -0.093005195
0.06448192 0.03475827 0.026004668 -0.07923658 0.04944908 0.13839439 0.14281695 0.12933074
0.05439563 0.062258307 -0.057165645 -0.123119324 0.101638995 0.0056830654 -0.056534525 -0.00085786486
00000000: 450c 223e 8fd2 cdbd 95bf 233d 1070 eb3d
00000010: 76dc 853d a928 f5bc 461e 8f3e 7e29 433e
00000020: b704 f83c 4c60 e6bd c711 25be f6f7 303e
00000030: 0108 debc 972f a7bd 3eea 59bd 8279 bebd
00000040: 190f 843d b05e 0e3d be07 d53c ca46 a2bd
00000050: 1e8b 4a3d 42b7 0d3e 9b3e 123e 476f 043e
00000060: f4cd 5e3d 9102 7f3d 8626 6abd fc25 fcbd
00000070: 1b28 d03d 0239 ba3b bf90 67bd 56e2 60ba

exp_avg f4 [256, 1]
5.745997e-06 2.7371889e-06 -3.3842161e-07 5.365439e-06 2.0605237e-06 2.5809506e-06 9.4316334e-07 4.8971237e-06
4.546083e-06 -2.109643e-06 4.1443877e-06 5.9226804e-06 -1.7935176e-07 3.9438664e-06 1.4703011e-06 7.0962574e-06
3.472725e-06 3.874273e-06 3.2563173e-07 3.2395462e-07 4.7264584e-06 7.3411e-06 4.470233e-06 -1.26855e-06
-2.2799677e-08 6.6959205e-06 1.922452e-06 3.7712018e-06 2.2607853e-06 2.2567126e-06 4.4925073e-06 4.1075837e-06
5.035782e-06 -3.7220637e-08 4.805898e-06 -1.0618935e-06 1.5085209e-06 -1.8144679e-06 3.3332572e-06 5.748043e-06
3.0162546e-06 3.448911e-06 -2.3386292e-06 2.479751e-06 3.5656135e-06 2.929742e-06 6.4674655e-06 3.1868494e-06
5.3949834e-06 5.5413266e-06 1.356467e-06 5.5435976e-06 3.734261e-06 6.8473846e-06 2.290353e-06 -3.7005866e-06
3.0709507e-06 4.3447435e-06 3.1485033e-06 1.3798518e-07 4.656752e-06 5.601844e-06 -5.3819867e-06 5.0414924e-06
4.6052432e-06 2.5319932e-06 9.202303e-07 3.020536e-06 9.959355e-07 1.4362352e-06 8.914643e-07 4.0917434e-06
3.3826132e-06 -1.508499e-06 2.3477023e-06 4.092436e-06 -6.5695275e-08 2.7114202e-06 1.166538e-06 4.242816e-06
2.189704e-06 2.602119e-06 3.6011264e-07 1.2014528e-06 3.8346184e-06 5.6666336e-06 3.4046043e-06 -2.615924e-07
1.7923679e-07 4.779557e-06 1.5472089e-06 3.0136293e-06 2.0218483e-06 1.4993508e-06 3.1346744e-06 3.4442776e-06
3.3016631e-06 -6.83417e-08 3.6238916e-06 -3.5531073e-07 1.1556476e-06 -1.3072026e-06 2.139726e-06 4.1716985e-06
1.7445476e-06 3.092152e-06 -2.0237158e-06 2.0349873e-06 2.2626666e-06 2.4809965e-06 4.7507037e-06 2.799533e-06
3.782952e-06 4.8484617e-06 1.0121776e-06 3.442623e-06 2.3306188e-06 4.1584985e-06 1.3860342e-06 -3.058976e-06
2.5543893e-06 3.0686492e-06 2.266388e-06 1.18484834e-07 3.2947642e-06 4.278782e-06 -5.316091e-06 2.6141324e-06
-3.7170357e-05 3.071971e-05 -1.4123696e-05 -3.821696e-05 3.762186e-05 -4.61859e-05 -5.3439726e-06 2.7833288e-05
4.5097084e-05 7.4797485e-05 -2.8818476e-05 3.446066e-05 1.1235895e-06 -1.6978678e-05 2.715677e-06 4.940796e-05
1.9435538e-05 -2.15693e-05 -1.2218479e-06 -2.1689957e-06 -4.001555e-05 7.5828975e-05 -2.0656524e-05 2.236583e-05
-5.335861e-06 4.221567e-05 9.421881e-06 3.232694e-05 1.1259584e-05 -4.530222e-05 -3.7623107e-05 4.24823e-05
-3.255925e-05 1.2181209e-06 -4.5851255e-05 2.2920682e-05 1.2501032e-05 5.252378e-05 3.273131e-05 -6.412629e-05
-2.2037919e-05 -2.0514628e-05 4.6019995e-05 2.1402062e-05 1.7743678e-05 1.929472e-05 3.2469216e-05 -1.3909793e-05
2.5170777e-05 -2.6293297e-05 -1.4626856e-05 2.0694837e-05 -4.0083603e-05 -4.919209e-05 2.4189123e-05 4.4206845e-05
2.6678477e-05 -3.4867408e-05 2.0616802e-05 7.0329907e-07 4.2380456e-05 2.3421615e-05 4.902395e-05 3.1300544e-05
4.8334346e-06 3.0917975e-06 7.8489484e-07 3.9256456e-06 1.7964408e-06 1.7633467e-06 1.5799776e-06 5.044286e-06
5.879595e-06 -2.6944012e-06 4.524398e-06 5.669048e-06 -1.9640316e-07 6.8831678e-06 2.3120367e-06 6.7320125e-06
4.9607147e-06 4.8913967e-06 6.501582e-07 8.481761e-07 6.1764113e-06 5.283272e-06 6.200294e-06 -1.220699e-06
2.8435142e-07 8.911008e-06 3.3480333e-06 5.554973e-06 2.6913556e-06 4.7693275e-06 4.9771347e-06 4.6961354e-06
3.970326e-06 -5.3218713e-08 4.7628855e-06 -1.4373416e-06 2.232788e-06 -2.3968873e-06 3.7973803e-06 7.6238066e-06
4.32493e-06 6.588615e-06 -2.850112e-06 4.192563e-06 3.872965e-06 4.059918e-06 6.360645e-06 4.8367797e-06
6.6502253e-06 7.262796e-06 1.446867e-06 6.877312e-06 3.3187027e-06 5.8690666e-06 5.3996614e-06 -3.929061e-06
3.083199e-06 5.3955587e-06 3.8463945e-06 1.02748196e-07 4.346794e-06 6.745979e-06 -6.605865e-06 3.3635147e-06
00000000: bdcd c036 8cb0 3736 50b0 b5b4 c508 b436
00000010: 8747 0a36 6534 2d36 b12d 7d35 f951 a436
00000020: 8e8a 9836 6493 0db6 0510 8b36 70bb c636
00000030: d693 40b4 8e55 8436 2957 c535 631c ee36
00000040: f60c 6936 c0ff 8136 7cd2 ae34 fceb ad34
00000050: f897 9e36 9253 f636 02ff 9536 0c43 aab5
00000060: 05d9 c3b2 85ad e036 7903 0136 c114 7d36
00000070: ffb7 1736 0772 1736 58be 9636 e0d3 8936
00000080: 0af9 a836 86dc 1fb3 5942 a136 6286 8eb5
00000090: 6278 ca35 a488 f3b5 ecb0 5f36 50df c036
000000a0: dc6a 4a36 d773 6736 58f1 1cb6 cc69 2636
000000b0: c648 6f36 969c 4436 1b03 d936 a8dd 5536
000000c0: 8e06 b536 a2ef b936 da0f b635 2403 ba36
000000d0: 1e9a 7a36 96c2 e536 f7b3 1936 9857 78b6
000000e0: 8816 4e36 10c9 9136 e04a 5336 1429 1434
000000f0: 3241 9c36 79f7 bb36 ea96 b4b6 172a a936
00000100: bd86 9a36 50eb 2936 bf05 7735 6ab4 4a36
00000110: 15ac 8535 aac4 c035 f64c 6f35 cf4b 8936
00000120: da00 6336 a277 cab5 388d 1d36 c251 8936
00000130: 5c14 8db3 d8f5 3536 f191 9c35 835d 8e36
00000140: d4f2 1236 10a0 2e36 8155 c134 9b41 a135
00000150: 1fab 8036 0324 be36 a87a 6436 fc70 8cb4
00000160: 3c74 4034 1560 a036 b1a9 cf35 c23d 4a36
00000170: 17af 0736 4d3d c935 4c5d 5236 3d24 6736
00000180: 2492 5d36 3fc3 92b3 fc31 7336 89c1 beb4
00000190: c01b 9b35 2473 afb5 3698 0f36 9efa 8b36
000001a0: 3326 ea35 c482 4f36 2ccf 07b6 d190 0836
000001b0: 51d8 1736 327f 2636 3c68 9f36 9cdf 3b36
000001c0: 9fde 7d36 f8af a236 28da 8735 d007 6736
000001d0: ba67 1c36 3b89 8b36 c607 ba35 cf48 4db6
000001e0: 136c 2b36 feee 4d36 4018 1836 ba71 fe33
000001f0: 9e1b 5d36 7592 8f36 e060 b2b6 746e 2f36
00000200: 5ee7 1bb8 0ad9 0038 d0f4 6cb7 264b 20b8
00000210: 2acc 1d38 bcb7 41b8 6050 b3b6 887b e937
00000220: a026 3d38 98dc 9c38 35bf f1b7 da89 1038
00000230: 3ece 9635 6f6d 8eb7 fa3e 3636 653b 4f38
00000240: 8009 a337 b8ef b4b7 60fe a3b5 108f 11b6
00000250: 5fd6 27b8 5f06 9f38 8c47 adb7 419e bb37
00000260: b20a b3b6 bb10 3138 ac12 1e37 ca96 0738
00000270: 8ce7 3c37 e302 3eb8 81cd 1db8 062f 3238
00000280: 3a90 08b8 517e a335 6950 40b8 ca45 c037
00000290: 86bb 5137 fb4c 5c38 fa48 0938 8a7b 86b8
000002a0: 12de b8b7 d416 acb7 9805 4138 9488 b337
000002b0: 42d8 9437 18db a137 8e2f 0838 1b5e 69b7
000002c0: d525 d337 6d90 dcb7 de65 75b7 d399 ad37
000002d0: 711f 28b8 9b53 4eb8 bfe9 ca37 bd6a 3938
000002e0: 98cb df37 983e 12b8 3ff2 ac37 58ca 3c35
000002f0: abc1 3138 8979 c437 119f 4d38 b448 0338
00000300: e32e a236 ad7c 4f36 90b1 5235 0ab9 8336
00000310: 3c1d f135 22ac ec35 9e0f d435 1642 a936
00000320: 5649 c536 76d1 34b6 48d0 9736 c038 be36
00000330: e4e2 52b4 f6f5 e636 7d28 1b36 8ce3 e136
00000340: 3774 a636 c720 a436 8886 2e35 38ae 6335
00000350: f83e cf36 f646 b136 1f0c d036 e6d6 a3b5
00000360: f6a8 9834 7d80 1537 c6ae 6036 db64 ba36
00000370: 239d 3436 3608 a036 4301 a736 7f93 9d36
00000380: d738 8536 9892 64b3 e0d0 9f36 aeea c0b5
00000390: 01d7 1536 36da 20b6 7fd6 7e36 00d0 ff36
000003a0: de1e 9136 c613 dd36 8d44 3fb6 d8ad 8c36
000003b0: 84f4 8136 6e3a 8836 866d d536 9f4b a236
000003c0: 0025 df36 f1b2 f336 f931 c235 a9c3 e636
000003d0: e1b6 5e36 e6ee c436 bd2e b536 61d6 83b6
000003e0: f5e8 4e36 7f0b b536 4710 8136 6ba6 dc33
000003f0: adda 9136 855b e236 f3a7 ddb6 beb8 6136
