checkpoints/StockPrediction_epoch_3.pt (torch, 255962 bytes, 27 tensors)

lstm.weight_ih_l0 f4 [256, 1]
0.01978726 0.029982902 -0.080139026 0.039235212 -0.049283713 -0.004275033 -0.10522404 -0.0016451986
0.044445857 -0.025329687 0.043424897 -0.053174593 0.08738845 -0.060901348 -0.0015570562 -0.08807109
0.03867956 -0.04090682 -0.0844574 -0.03885894 -0.1260703 -0.08654574 -0.12345151 0.0587158
-0.0751197 -0.13398159 -0.111840226 -0.13700859 -0.06456769 -0.16743006 0.038619254 -0.17246038
0.05129046 0.0115715 -0.099115476 0.095284924 -0.032875832 0.11366918 -0.016916867 -0.112189345
-0.036599513 -0.10749768 0.123032495 0.053663816 -0.009388961 -0.124799006 0.0021611014 -0.05594019
-0.0141705945 -0.15191889 -0.14363128 -0.12414743 -0.14829235 0.031255312 -0.030849455 0.1306787
-0.02823074 -0.07237555 0.019853562 -0.10209236 -0.070550375 -0.16554095 0.22122432 -0.09769815
-0.035408486 -0.09983733 0.054072987 -0.1486557 -0.08611912 -0.10385065 0.07174735 -0.032510094
0.057114966 -0.03940351 -0.18335375 -0.17210786 -0.08225008 -0.02561376 -0.020210696 0.035531238
-0.12052484 -0.14229362 0.051529367 -0.12082799 0.010345837 -0.09806909 0.0013496072 -0.11901179
-0.04015491 -0.03354171 -0.04973515 -0.093312114 -0.00087895244 0.04532102 -0.16267362 -0.13030379
0.06416751 -0.04359892 -0.10445326 -0.101912126 -0.12441474 0.08884912 -0.04128496 -0.15928386
-0.0645355 -0.15556934 -0.0154258795 -0.12592891 -0.18914258 -0.1473017 0.05630406 -0.055181775
-0.037140425 -0.19130716 -0.09436754 -0.11223423 -0.025309747 -0.17793049 -0.112795204 0.057378102
-0.066020496 -0.11471928 -0.08569056 -0.090477385 -0.16225566 -0.15126002 0.19036156 -0.14729004
0.18691295 -0.095569156 0.06934378 0.11236315 -0.14645582 0.14835522 0.00701059 -0.11650071
-0.17580521 -0.16323933 0.10451272 -0.10158358 0.055498227 -0.032165118 0.035204466 -0.1648846
-0.076528534 0.0876884 0.0424596 0.04057696 0.18322572 -0.17613654 0.09824938 -0.09562513
0.005958251 -0.1721967 0.04631757 -0.15755336 0.002601714 0.11662147 0.117261216 -0.14037506
0.15894021 0.040114865 0.088034876 -0.12606268 -0.008061724 -0.08633854 -0.09028655 0.1868898
0.0951357 -0.0034184873 -0.10769449 -0.059512835 -0.0007927385 -0.09762665 -0.14421798 0.03636322
-0.1706401 0.11618068 0.12448869 -0.19156177 0.09917909 0.13593449 -0.05039694 -0.10986214
0.002408116 0.13761263 -0.024686817 -0.03590754 -0.11211943 -0.061556738 -0.10896414 -0.11372642
0.0026719659 0.030886889 -0.065324806 -0.10445408 -0.018893374 -0.0320695 -0.011062883 -0.043371163
-0.18469153 0.025080133 0.038841933 -0.030299602 -0.010598301 -0.15968426 -0.13968773 -0.1860413
-0.102123916 -0.019669466 0.057013996 -0.016240707 -0.18655176 -0.15124975 -0.09647169 0.0987904
0.031672124 -0.11435311 -0.03044083 -0.11503576 -0.16262367 0.03559233 -0.13406092 -0.093847126
-0.16699886 0.07396389 0.0323893 0.064088136 -0.13956396 -0.09740086 -0.13138486 0.013625877
-0.017014215 0.0263204 0.14600933 -0.030325295 -0.0859108 -0.16805518 -0.17961787 -0.19931382
-0.028991925 -0.14217386 -0.04412077 -0.15255398 -0.07467365 -0.16037199 -0.15855725 0.12655683
-0.10545571 0.002254377 -0.12064923 -0.1048005 -0.103345074 -0.14352009 0.1647765 -0.17146246
00000000: e418 a23c b49e f53c ee1f a4bd 1ab5 203d
00000010: b8dd 49bd 9315 8cbb b47f d7bd b4a3 d7ba
00000020: dc0c 363d 3480 cfbc 4ede 313d 9acd 59bd
00000030: b7f8 b23d b173 79bd 2316 ccba 9e5e b4bd
00000040: 756e 1e3d e98d 27bd 00f8 acbd 8d2a 1fbd
00000050: 9318 01be e53e b1bd 25d4 fcbd fb7f 703d
00000060: 5bd8 99bd 7832 09be 7d0c e5bd fb4b 0cbe
00000070: 113c 84bd c972 2bbe 392f 1e3d 7499 30be
00000080: f215 523d 6496 3d3c 0efd cabd be24 c33d
00000090: cfa8 06bd 63cb e83d 3e95 8abc 87c3 e5bd
000000a0: 5fe9 15bd be27 dcbd 76f8 fb3d 97ce 5b3d
000000b0: 28d4 19bc 9f96 ffbd 44a1 0d3b 8a21 65bd
000000c0: c82b 68bc a090 1bbe 1414 13be 0241 febd
000000d0: f3d9 17be 9205 003d ffb7 fcbc a3d0 053e
000000e0: 2744 e7bc a239 94bd f0a3 a23c cd15 d1bd
000000f0: b77c 90bd 9183 29be a188 623e f815 c8bd
00000100: 7d08 11bd 8477 ccbd a37b 5d3d 3339 18be
00000110: 395f b0bd a6af d4bd 46f0 923d 4e29 05bd
00000120: 62f1 693d 9365 21bd 16c1 3bbe 0b3d 30be
00000130: bb72 a8bd f3d3 d1bc e790 a5bc 3489 113d
00000140: bad5 f6bd 6bb5 11be 7510 533d aa74 f7bd
00000150: 9681 293c 72d8 c8bd 4ee5 b03a 74bc f3bd
00000160: 7a79 24bd 0863 09bd 16b7 4bbd 6c1a bfbd
00000170: 8069 66ba 89a2 393d ea93 26be 5b6e 05be
00000180: 416a 833d c894 32bd 97eb d5bd 4eb7 d0bd
00000190: 28cd febd 87f6 b53d 6b1a 29bd 4f1b 23be
000001a0: 302b 84bd 924d 1fbe d4bc 7cbc 82f3 00be
000001b0: 98ae 41be 42d6 16be 169f 663d 4906 62bd
000001c0: 8f20 18bd 06e6 43be c543 c1bd 0fdb e5bd
000001d0: 6356 cfbc 6933 36be 2c01 e7bd 4d05 6b3d
000001e0: c135 87bd f1f1 eabd 887e afbd 354c b9bd
000001f0: 5926 26be e8e3 1abe 24ee 423e 33d3 16be
00000200: 1c66 3f3e c3b9 c3bd 1d04 8e3d a71e e63d
00000210: 84f8 15be 6eea 173e 17b9 e53b ed97 eebd
00000220: 4806 34be 3628 27be c40a d63d 0d0b d0bd
00000230: 1c52 633d 92bf 03bd 8f32 103d 82d7 28be
00000240: feba 9cbd fa95 b33d 1eea 2d3d 0734 263d
00000250: 869f 3b3e 235d 34be f936 c93d 1cd7 c3bd
00000260: 6f3d c33b 5554 30be 7eb7 3d3d ab55 21be
00000270: 8581 2a3b 3dd7 ee3d a626 f03d 7bbe 0fbe
00000280: 39c1 223e 7c4f 243d a14b b43d 9316 01be
00000290: 5215 04bc 43d2 b0bd 28e8 b8bd 0a60 3f3e
000002a0: 82d6 c23d b308 60bb ee8e dcbd bbc3 73bd
000002b0: c8cf 4fba 7bf0 c7bd e1ad 13be 9af1 143d
000002c0: 47bc 2ebe 23f0 ed3d edf3 fe3d c528 44be
000002d0: 681e cb3d 6932 0b3e 066d 4ebd 67ff e0bd
000002e0: 7bd1 1d3b 53ea 0c3e 023c cabc c913 13bd
000002f0: df9e e5bd eb22 7cbd 9728 dfbd 66e9 e8bd
00000300: 261c 2f3b 8006 fd3c 03c9 85bd 05ec d5bd
00000310: 47c6 9abc 4f5b 03bd 1841 35bc f6a5 31bd
00000320: c71f 3dbe da74 cd3c b818 1f3d df36 f8bc
00000330: 7fa4 2dbc 4584 23be 4d0a 0fbe 9c81 3ebe
00000340: 5826 d1bd dc21 a1bc 8287 693d 3b0b 85bc
00000350: 6d07 3fbe 37e1 1abe f392 c5bd 9f52 ca3d
00000360: a1ba 013d f731 eabd 0c5f f9bc de97 ebbd
00000370: d286 26be 43c9 113d 4447 09be ec32 c0bd
00000380: c001 2bbe 617a 973d a5aa 043d a440 833d
00000390: dbe9 0ebe 1a7a c7bd c189 06be 123f 5f3c
000003a0: 6561 8bbc e19d d73c 7883 153e c16c f8bc
000003b0: 00f2 afbd a816 2cbe bfed 37be ec18 4cbe
000003c0: 7980 edbc 0696 11be fbb7 34bd 1c37 1cbe
000003d0: 80ee 98bd 8e38 24be d55c 22be 1d98 013e
000003e0: 2af9 d7bd 2bbe 133b f216 f7bd a5a1 d6bd
000003f0: 95a6 d3bd eef6 12be 2cbb 283e db93 2fbe

lstm.weight_hh_l0 f4 [256, 64]
0.02244083 -0.044476256 0.06739519 0.007334453 0.1375492 -0.15839997 0.06232806 -0.014809836
0.09653524 0.20544054 -0.058264628 0.047247563 -0.05962988 -0.14118403 0.08765862 -0.06931382
0.11862517 0.054099407 0.110147595 0.00052024936 -0.15273783 0.08507624 0.028522573 -0.09485441
-0.010385491 -0.026075227 0.024700798 -0.01272515 -0.013146868 -0.067267776 -0.1682824 0.15344894
0.049697906 -0.04331976 -0.053240355 0.016891785 -0.09007978 -0.07020878 0.08923665 -0.12276659
-0.12581411 -0.046351288 0.019524984 -0.004601542 0.041947823 0.018690541 -0.00015340035 -0.09893009
-0.05561482 0.059682734 -0.09462182 0.078969985 -0.086888805 -0.04019352 0.15400997 0.09724291
-0.07781687 0.002633878 0.15606746 0.06393239 0.13226897 0.16687113 0.00526904 0.048059415
-0.13557525 0.018450027 0.100262456 0.013496913 -0.032997157 -0.1573858 -0.11810139 -0.077419765
-0.04599471 0.04995196 0.042834975 0.070213385 -0.12575457 -0.14085366 0.09666048 -0.037768878
0.026401222 0.019346215 -0.05272086 0.015598235 -0.06163491 0.027642636 -0.106355265 -0.09867485
-0.082343094 -0.017122282 0.16027313 -0.011143468 -0.04218382 0.0032359522 -0.016145993 0.119646125
0.041622736 0.044982407 -0.1627753 0.07646716 0.0960041 0.03434982 -0.033401787 0.06457082
-0.09417419 -0.11065111 -0.06342228 0.043492347 0.09724011 0.0742099 0.06877953 -0.13622923
-0.069556326 -0.044255327 0.07163566 0.11932564 -0.11044515 -0.06665707 -0.060297567 -0.031637143
0.053816553 0.019429965 0.14443864 -0.086432315 0.13390413 -0.04259992 0.06282779 0.13275106
-0.027491398 0.14071943 -0.06810088 -0.079585984 0.095861726 -0.055036016 -0.04553926 -0.023319526
0.1155729 0.06668698 0.01639342 -0.04027122 -0.09944034 -0.014710835 0.060442597 -0.02387095
-0.011341598 0.060794316 0.041284267 0.039865933 -0.060822092 -0.07822438 -0.14419945 -0.0847409
-0.13510722 0.0686628 -0.0073618926 -0.020364625 0.1472476 -0.00037817837 0.057791956 -0.031052656
-0.07933352 0.042288285 -0.12996522 -0.055334445 0.03332013 -0.01554506 -0.076252714 0.04147711
0.07074361 -0.005478035 -0.023551704 -0.09469563 -0.018102592 0.060171835 0.085028924 -0.04179424
-0.021482868 0.04107881 -0.119591855 0.10776006 -0.09696345 -0.02751168 0.02198958 0.048872698
-0.02244048 0.06060622 0.023134338 0.06848984 0.15149544 -0.032718692 -0.058890067 0.14538065
0.044485003 -0.044987515 0.008591141 -0.17758788 -0.052970827 -0.032857265 -0.005367422 0.07863527
0.020326417 0.18719864 -0.02946427 -0.019268952 -0.043926787 -0.017300636 0.086497925 -0.030180795
0.094543524 -0.110552594 -0.097599015 -0.027229536 0.06568972 0.16711801 0.06291696 0.087044716
0.10944587 0.037951108 -0.022427715 0.11594907 -0.016290931 -0.11605567 -0.09472617 0.08187535
0.008165346 -0.08342043 -0.11694755 0.08732862 -0.04466957 -0.04112935 0.11135495 -0.07889701
0.061857004 0.07500395 0.07114743 0.08776335 0.07736081 0.054043923 0.040763643 -0.046249505
0.09807903 0.06375049 -0.0788715 -0.00039009206 -0.07152305 -0.1149772 0.060880154 0.10495399
0.13765262 0.0044793827 -0.044977892 -0.026180895 0.027270574 0.028475167 -0.0013453068 -0.085511155
00000000: d5d5 b73c bc2c 36bd 7d06 8a3d da55 f03b
00000010: b3d9 0c3e 9a33 22be b54b 7f3d f4a4 72bc
00000020: 45b4 c53d 015f 523e e4a6 6ebd a986 413d
00000030: 763e 74bd 8c92 10be 5d86 b33d 67f4 8dbd
00000040: c1f1 f23d 5797 5d3d 1095 e13d 5861 083a
00000050: 4e67 1cbe 743c ae3d 2ca8 e93c 0743 c2bd
00000060: e827 2abc b79b d5bc 5459 ca3c 267d 50bc
00000070: f665 57bc b0c3 89bd 3952 2cbe b821 1d3e
00000080: 0890 4b3d 1070 31bd 8f12 5abd a460 8a3c
00000090: bf7b b8bd 9fc9 8fbd b4c1 b63d 0d6d fbbd
000000a0: 6ad5 00be d9da 3dbd dcf2 9f3c 88c8 96bb
000000b0: 7bd1 2b3d e81c 993c 18da 20b9 dc9b cabd
000000c0: 5ecc 63bd e275 743d 16c9 c1bd 04bb a13d
000000d0: c2f2 b1bd f6a1 24bd cab4 1d3e 4a27 c73d
000000e0: 735e 9fbd 249d 2c3b 26d0 1f3e fcee 823d
000000f0: 8471 073e 44e0 2a3e e9a7 ac3b f3d9 443d
00000100: 3dd4 0abe 8324 973c 6756 cd3d 2822 5d3c
00000110: 0728 07bd be29 21be 24df f1bd 418e 9ebd
00000120: f364 3cbd 6d9a 4c3d ba73 2f3d 09cc 8f3d
00000130: cec5 00be f13b 10be eef5 c53d 8ab3 1abd
00000140: 6047 d83c f47b 9e3c d4f1 57bd bd8f 7f3c
00000150: e374 7cbd cf72 e23c cad0 d9bd 0a16 cabd
00000160: 7fa3 a8bd 0744 8cbc a41e 243e 1893 36bc
00000170: f1c8 2cbd 4512 543b 9a44 84bc 0709 f53d
00000180: 9a7c 2a3d 793f 383d 91ae 26be d09a 9c3d
00000190: cc9d c43d 66b2 0c3d 50d0 08bd b53d 843d
000001a0: 66de c0bd 0d9d e2bd 8ae3 81bd 0825 323d
000001b0: d325 c73d 5cfb 973d 48dc 8c3d ad7f 0bbe
000001c0: 8c73 8ebd 1345 35bd b8b5 923d 0061 f43d
000001d0: 1131 e2bd 8083 88bd 95fa 76bd f395 01bd
000001e0: bf6e 5c3d 972b 9f3c b9e7 133e 6d03 b1bd
000001f0: 2a1e 093e 417d 2ebd dbab 803d e5ef 073e
00000200: a435 e1bc c118 103e 7978 8bbd fafd a2bd
00000210: 2753 c43d 726d 61bd 6087 3abd 9708 bfbc
00000220: 7cb1 ec3d 2f93 883d 7e4b 863c 6ff3 24bd
00000230: 61a7 cbbd b705 71bc a892 773d 038d c3bc
00000240: 1cd2 39bc 7603 793d b119 293d 764a 233d
00000250: 9620 79bd 1b34 a0bd 05a9 13be a38c adbd
00000260: 8c59 0abe 159f 8c3d 083c f1bb b7d3 a6bc
00000270: 13c8 163e 3e46 c6b9 42b7 6c3d 2462 febc
00000280: 9d79 a2bd 7b36 2d3d 9a15 05be 5fa6 62bd
00000290: b07a 083d b5b0 7ebc 622a 9cbd e7e3 293d
000002a0: 07e2 903d 1781 b3bb 81ef c0bc c8ef c1bd
000002b0: e34b 94bc be76 763d a523 ae3d 7030 2bbd
000002c0: d7fc afbc 4142 283d 93ec f4bd 4eb1 dc3d
000002d0: c694 c6bd 2d60 e1bc 7e23 b43c bd2e 483d
000002e0: 19d5 b7bc 3a3e 783d 3984 bd3c 6744 8c3d
000002f0: 9f21 1b3e 0904 06bd b636 71bd aade 143e
00000300: e835 363d d444 38bd dbc1 0c3c 99d9 35be
00000310: f0f7 58bd 5795 06bd 33e1 afbb 870b a13d
00000320: 9683 a63c 00b1 3f3e 0e5f f1bc ecd9 9dbc
00000330: 93ec 33bd 10ba 8dbc d325 b13d b73d f7bc
00000340: 09a0 c13d 6669 e2bd fee1 c7bd 7a10 dfbc
00000350: 5588 863d fc20 2b3e 9bda 803d 8044 b23d
00000360: 2825 e03d 9f72 1b3d 54ba b7bc b576 ed3d
00000370: 8f74 85bc 98ae edbd cbff c1bd 43ae a73d
00000380: f2c7 053c 55d8 aabd 3282 efbd 59d9 b23d
00000390: 70f7 36bd 4077 28bd 100e e43d c194 a1bd
000003a0: c55d 7d3d ac9b 993d beb5 913d 45bd b33d
000003b0: 586f 9e3d 295d 5d3d c7f7 263d 1f70 3dbd
000003c0: a9dd c83d 9e8f 823d 6287 a1bd 4585 ccb9
000003d0: ad7a 92bd 2b79 ebbd 785d 793d 1ef2 d63d
000003e0: cff4 0c3e c9c7 923b bd3a 38bd 5179 d6bc
000003f0: 8a66 df3c c144 e93c 0155 b0ba 7920 afbd

lstm.bias_ih_l0 f4 [256]
0.036085438 -0.025328761 -0.044299204 -0.0019686648 0.061719723 -0.059255987 0.115278184 -0.043023612
0.0691811 0.1779351 -0.032037675 -0.047481686 -0.07888966 -0.023093345 -0.06449492 -0.085826516
-0.047907274 -0.035995193 0.10386948 0.004661341 0.049453728 0.010243327 0.043557353 0.07504928
0.0042606257 0.013624493 0.03370138 0.14258683 -0.054405782 0.14273934 0.007918346 0.11364518
0.11211303 -0.026039407 0.024003116 0.08273053 -0.013503185 0.07378908 0.11151785 0.01656385
-0.009185021 0.12334464 0.15012997 0.1299778 -0.09308721 0.107441865 0.08337355 -0.054369073
0.11404109 -0.03353252 0.056092862 0.04048165 0.06793441 -0.04093182 0.007508345 -0.024662262
0.077112034 -0.06388799 0.032432888 0.025491966 0.02656372 -0.011754779 0.0731907 0.034984846
-0.03632178 0.0010212397 -0.009809122 -0.023614738 0.000187689 -0.0038379936 -0.06913937 -0.063930884
-0.04418389 0.010849839 0.11825401 0.023692967 -0.0819783 -0.062202733 0.037432656 0.15004471
-0.09626675 0.10717478 0.1046719 0.05504206 0.10230652 0.090275966 -0.07921856 -0.040758528
-0.048972163 -0.041527867 0.02502666 0.058050588 0.037103828 0.09789915 -0.036277533 0.13345495
-0.023505326 0.07363947 0.14248817 -0.11487475 -0.115722656 0.14173062 0.08862077 0.030761153
0.06275309 0.048943922 0.0058013694 0.07667195 0.06876106 -0.09169372 -0.011063107 -0.043036483
0.08778108 -0.085043125 -0.11748874 -0.07685029 -0.013623741 -0.058479268 0.00390962 -0.0066411234
0.094826244 0.15003176 0.07245217 -0.06485883 0.08311318 -0.076412715 0.014899062 2.6801026e-05
-0.1129587 0.1347527 0.12251746 0.050781965 0.020425031 0.13388826 -0.057130642 0.04707002
-0.045085363 -0.08471574 -0.10717276 0.08792448 -0.06505499 -0.08437206 0.13237624 -0.072424985
0.015495306 -0.100895755 -0.055541083 0.14300106 0.06191632 0.011366331 -0.076959915 0.03709665
0.0823104 0.029652204 -0.059162565 0.0016922819 0.086157985 0.035789464 0.10544319 0.10926521
0.09712649 -0.056584228 -0.015386421 -0.04061958 -0.032694988 0.013366453 0.061248146 -0.07331595
-0.05159582 -0.11887086 -0.04283083 0.07872694 0.13850355 0.014797062 0.08128236 -0.13744225
-0.009993265 -0.047007896 -0.029597325 0.12298585 0.07462416 -0.11140712 -0.09038879 -0.10106061
0.06252937 0.055356342 0.0812861 0.076706685 -0.07274141 0.028836047 -0.120949194 -0.04462057
0.04086588 0.023553377 -0.0784241 0.042493854 0.059608463 0.14403085 -0.02967845 0.1227358
0.010361977 -0.038646836 0.13376497 0.0120764235 -0.043455925 0.015160049 0.12858135 -0.010757728
-0.010934199 0.023685168 -0.08497229 0.07891413 0.14914389 0.09960131 0.0015048252 -0.011593018
-0.13658367 -0.05759453 -0.0012183858 0.102234714 0.14774498 0.020445313 0.028072294 0.11780854
-0.013044802 -0.11499829 0.09936378 -0.058898836 -0.081861384 0.042573724 -0.09237309 -0.045794006
-0.026271112 0.026397519 0.083194844 -0.036279056 -0.09316614 -0.011208224 0.1391843 0.0031086807
-0.049235363 -0.0048124962 0.103198305 0.0599468 0.013777287 0.1583055 0.05440379 0.06264226
0.13008656 0.03215434 0.0045819017 0.07743247 0.076488085 -0.054063678 0.1319202 -0.02746626
00000000: 53ce 133d 437e cfbc 1573 35bd b704 01bb
00000010: d2cd 7c3d 68b6 72bd f816 ec3d 8739 30bd
00000020: d2ae 8d3d 9e34 363e f039 03bd 287c 42bd
00000030: e790 a1bd 412e bdbc ea15 84bd d0c5 afbd
00000040: 6b3a 44bd b26f 13bd 86b9 d43d 2abe 983b
00000050: fe8f 4a3d a1d3 273c 3269 323d 70b3 993d
00000060: b89c 8b3b 4439 5f3c 750a 0a3d 4802 123e
00000070: 99d8 5ebd 432a 123e f3bb 013c cebe e83d
00000080: 849b e53d 9850 d5bc 2fa2 c43c a06e a93d
00000090: 763c 5dbc bb1e 973d 7863 e43d e9b0 873c
000000a0: c57c 16bc 1d9c fc3d acbb 193e e718 053e
000000b0: 82a4 bebd 7b0a dc3d c0bf aa3d 1bb2 5ebd
000000c0: 608e e93d 6559 09bd a1c1 653d 16d0 253d
000000d0: 3221 8b3d 20a8 27bd 9008 f63b 8308 cabc
000000e0: eaec 9d3d b5d7 82bd 59d8 043d 87d4 d03c
000000f0: 299c d93c 1e97 40bc 01e5 953d 454c 0f3d
00000100: 26c6 14bd 1edb 853a 71b6 20bc b273 c1bc
00000110: 62ce 4439 d986 7bbb f198 8dbd 32ee 82bd
00000120: 2bfa 34bd 86c3 313c 292f f23d c117 c23c
00000130: 3de4 a7bd 4bc8 7ebd fc52 193d 52a5 193e
00000140: 8027 c5bd 737e db3d 395e d63d c873 613d
00000150: 1586 d13d 9be2 b83d 573d a2bd 6af2 26bd
00000160: 0997 48bd 2019 2abd b604 cd3c 74c6 6d3d
00000170: 2ffa 173d 597f c83d c097 14bd 6aa8 083e
00000180: 3e8e c0bc 4ad0 963d 6be8 113e 7443 ebbd
00000190: 0000 edbd d521 113e ce7e b53d d0fe fb3c
000001a0: b184 803d 6c79 483d 6a19 be3b 2f06 9d3d
000001b0: 99d2 8c3d ebc9 bbbd 0942 35bc 0647 30bd
000001c0: 91c6 b33d 172b aebd f09d f0bd af63 9dbd
000001d0: 1d36 5fbc f587 6fbd 451c 803b c89d d9bb
000001e0: 4334 c23d eda1 193e ce61 943d b5d4 84bd
000001f0: 3e37 aa3d 457e 9cbd 321b 743c c4d2 e037
00000200: e456 e7bd 9dfc 093e 6fea fa3d c000 503d
00000210: 6552 a73c 011a 093e d201 6abd 7ecc 403d
00000220: 6eab 38bd 727f adbd 647d dbbd c011 b43d
00000230: 8d3b 85bd 42cb acbd a38d 073e 8d53 94bd
00000240: 06e0 7d3c 6fa2 cebd 0c7f 63bd df6e 123e
00000250: f89b 7d3d d939 3a3c 299d 9dbd a8f2 173d
00000260: 5b92 a83d 2ee9 f23c 7254 72bd 8fcf dd3a
00000270: 9973 b03d f997 123d 99f2 d73d 70c6 df3d
00000280: 41ea c63d ddc4 67bd 5417 7cbc b760 26bd
00000290: 2eeb 05bd f8fe 5a3c 56df 7a3d ac26 96bd
000002a0: 2356 53bd 9172 f3bd 616f 2fbd 973b a13d
000002b0: e0d3 0d3e 606f 723c 5e77 a63d a9bd 0cbe
000002c0: cbba 23bc 5a8b 40bd 1776 f2bc 01e0 fb3d
000002d0: 8dd4 983d 6b29 e4bd c21d b9bd ddf8 cebd
000002e0: 660f 803d 55bd 623d 5479 a63d 6518 9d3d
000002f0: 73f9 94bd 9339 ec3c 36b4 f7bd 0fc4 36bd
00000300: fb62 273d 03f3 c03c d19c a0bd 090e 2e3d
00000310: 0128 743d d37c 133e 3920 f3bc e85c fb3d
00000320: 48c5 293c 254c 1ebd aff9 083e 31dc 453c
00000330: d7fe 31bd db61 783c d4aa 033e 2e41 30bc
00000340: 5b25 33bc 6607 c23c f405 aebd bb9d a13d
00000350: 2db9 183e c6fb cb3d 8e3d c53a a4f0 3dbc
00000360: 97dc 0bbe 3ee8 6bbd 3eb2 9fba 6f60 d13d
00000370: 764a 173e ee7c a73c def7 e53c 9b45 f13d
00000380: ddb9 55bc 3984 ebbd 3d7f cb3d e83f 71bd
00000390: f1a6 a7bd c961 2e3d 1a2e bdbd 7f92 3bbd
000003a0: 8436 d7bc 9c3f d83c 0f62 aa3d 5999 14bd
000003b0: e4cd bebd b3a2 37bc 5486 0e3e 02bb 4b3b
000003c0: 05ab 49bd 25b2 9dbb a259 d33d c78a 753d
000003d0: 21ba 613c d61a 223e 82d6 5e3d 964a 803d
000003e0: 6935 053e 45b4 033d c723 963b ea94 9e3d
000003f0: c9a5 9c3d e071 5dbd 1716 073e ec00 e1bc

lstm.bias_hh_l0 f4 [256]
-0.075057 0.1424717 -0.06980874 -0.010226608 -0.021928018 0.028469713 -0.012720505 0.12732951
0.12765694 -0.05763196 -0.09274908 -0.08624351 0.089935385 0.014165273 -0.049608774 -0.045121875
0.032671835 0.043224897 0.06729503 0.12688592 0.14602728 -0.033863805 0.017465727 -0.06397505
-0.06268244 0.032605343 0.09326938 -0.03147981 -0.041621793 -0.013007152 0.08735551 0.027990216
0.10897143 -0.14290236 0.066621155 0.09075338 0.08260221 -0.069383524 -0.09151414 0.0431593
0.035435073 0.10087331 0.13977629 0.001874685 -0.011875983 0.09327927 -0.059192773 -0.031632666
0.04778217 0.01256406 0.06553444 0.0050099525 0.04180637 0.07142331 0.020989284 0.0030995307
0.08693707 0.105070494 0.00459687 -0.10283149 -0.0115130665 0.11232534 0.117832296 -0.015652759
0.10092557 0.020235436 0.010207745 -0.011958285 0.0007484057 0.008871032 0.033097614 -0.08154311
0.029856095 -0.059679333 -0.097871594 -0.0855341 -0.03495262 0.05648226 0.029172078 0.073182106
-0.037310395 -0.07200395 -0.034028944 -0.06706227 0.024355989 0.07939616 0.047503415 -0.10444035
0.098995365 0.14069052 -0.027036397 -0.07479188 0.05108071 0.05791086 0.0039659766 -0.029114839
0.036761925 -0.10266414 -0.036397193 0.027233923 0.01820092 0.099406175 0.09917492 0.042926766
0.07937296 0.11975422 -0.034281585 0.094168246 0.11226129 -0.018845016 0.12112066 -0.026104698
-0.025528042 0.12938848 0.04792264 0.024328504 -0.06942987 0.109220125 0.05951719 -0.010130492
0.009817674 0.13066565 0.07687841 -0.07383299 0.030775012 -0.013261001 0.15992671 0.08489562
-0.014597408 0.0028848983 -0.05043981 -0.03478907 0.022956451 -0.109006725 0.006351418 0.13601796
0.050751753 -0.0014040747 -0.038528662 0.0026410022 -0.0817517 -0.08900069 0.052350674 0.043605693
0.07313019 -0.056595862 0.052946437 -0.03943673 -0.097481646 -0.041865043 -0.0996515 -0.034531407
-0.015663682 0.08482515 0.08669605 0.021754434 0.07349394 0.037584927 -0.12524188 -0.061065618
-0.06824094 -0.04212323 0.016417634 0.053048883 0.09554643 -0.07491693 0.008708714 0.08024688
0.012555147 -0.12601376 -0.0469213 0.054810945 0.045910254 0.122417405 0.10419905 -0.08656835
0.0877599 -0.1352966 -0.042997885 0.057950754 0.00036277878 0.100710526 0.09749782 -0.069130786
0.13963366 -0.09365561 0.03987337 0.019970814 0.10497729 0.1405989 -0.0042892033 -0.03968851
0.14016639 0.12061115 0.02038863 0.13404801 0.019414544 0.021056043 0.0427213 0.03855572
0.0030941328 0.07144927 0.024813756 -0.04425924 -0.10600858 0.07738251 -0.032759793 0.0456832
0.1326473 0.1086211 0.06631553 0.096730314 0.12854399 -0.02942057 0.1478821 -0.07984741
-0.09507421 -0.010261394 0.15521964 0.102913596 0.06651132 0.10167601 -0.07931778 -0.086938836
0.05211466 -0.06390187 0.088398784 -0.09356802 0.12550877 -0.067548454 0.054499067 0.11754849
-0.02440226 0.1477023 0.106724 -0.041556843 -0.030170893 0.12699905 -0.007872897 0.040194124
0.099318594 0.10029728 -0.07196896 0.13410714 0.06920825 0.076261885 -0.016569173 0.09997652
-0.008628016 0.13362822 0.09069522 0.0678387 0.019889835 0.11486793 0.14807186 0.052665535
00000000: 7cb7 99bd 1ae4 113e e2f7 8ebd 818d 27bc
00000010: 63a2 b3bc 5139 e93c aa69 50bc ab62 023e
00000020: 80b8 023e 7d0f 6cbd 3bf3 bdbd 70a0 b0bd
00000030: 0b30 b83d 7615 683c 9232 4bbd b7d1 38bd
00000040: e7d2 053d 970c 313d fad1 893d 62ee 013e
00000050: 2d88 153e c6b4 0abd 4914 8f3c 5a05 83bd
00000060: a75f 80bd 2e8d 053d 0404 bf3d f9f0 00bd
00000070: 9d7b 2abd f31b 55bc 72e7 b23d bd4b e53c
00000080: 6a2c df3d ff54 12be ac70 883d e8dc b93d
00000090: 592b a93d f318 8ebd c46b bbbd cec7 303d
000000a0: 5e24 113d aa96 ce3d 8421 0f3e feb7 f53a
000000b0: 7c93 42bc 3409 bf3d 1f74 72bd 4191 01bd
000000c0: 3db7 433d 7dd9 4d3c ec36 863d 872a a43b
000000d0: 283d 2b3d 6246 923d b8f1 ab3c 7f21 4b3b
000000e0: 100c b23d 332f d73d 57a1 963b 5199 d2bd
000000f0: 4da1 3cbc d40a e63d 0f52 f13d 373a 80bc
00000100: 11b2 ce3d c9c4 a53c 633e 273c afec 43bc
00000110: a830 443a ce57 113c 5d91 073d 1300 a7bd
00000120: c594 f43c 5172 74bd e770 c8bd 812c afbd
00000130: 7a2a 0fbd f159 673d 48fa ee3c 80e0 953d
00000140: c9d2 18bd cf76 93bd ef61 0bbd f257 89bd
00000150: 3686 c73c 749a a23d f192 423d d2e4 d5bd
00000160: 15be ca3d 2d11 103e 6f7b ddbc 7c2c 99bd
00000170: 023a 513d f033 6d3d 06f5 813b 3e82 eebc
00000180: ac93 163d 9441 d2bd 3915 15bd ad19 df3c
00000190: 191a 953c 7795 cb3d 381c cb3d fad3 2f3d
000001a0: 4a8e a23d b341 f53d d96a 0cbd 48db c03d
000001b0: 3fe9 e53d dd60 9abc 1c0e f83d 85d9 d5bc
000001c0: 2f20 d1bc 6a7e 043e 884a 443d 924c c73c
000001d0: 3f31 8ebd cdae df3d 4cc8 733d 5dfa 25bc
000001e0: 4fda 203c 37cd 053e 6e72 9d3d c035 97bd
000001f0: e11b fc3c ab44 59bc d4c3 233e c1dd ad3d
00000200: f729 6fbc 9010 3d3b f999 4ebd fc7e 0ebd
00000210: 2b0f bc3c eb3e dfbd 8e1f d03b 4b48 0b3e
00000220: 12e1 4f3d ee08 b8ba 3bd0 1dbd aa14 2d3b
00000230: 6f6d a7bd fe45 b6bd a96d 563d e29b 323d
00000240: 48c5 953d 10d1 67bd 5dde 583d 6988 21bd
00000250: 75a4 c7bd ae7a 2bbd 1616 ccbd ce70 0dbd
00000260: 1f51 80bc cfb8 ad3d b38d b13d 5b36 b23c
00000270: fe83 963d a7f2 193d 683f 00be f11f 7abd
00000280: e8c1 8bbd 6889 2cbd 467e 863c c949 593d
00000290: d9ad c33d 0c6e 99bd feae 0e3c 7a58 a43d
000002a0: 1ab4 4d3c c009 01be 8d30 40bd 7181 603d
000002b0: 640c 3c3d fab5 fa3d 5066 d53d bf4a b1bd
000002c0: 76bb b33d 318b 0abe 8d1e 30bd c55d 6d3d
000002d0: 5833 be39 5241 ce3d f0ac c73d 7194 8dbd
000002e0: 20fc 0e3e 83ce bfbd 4252 233d d599 a33c
000002f0: 55fe d63d 28f9 0f3e 728c 8cbb 6b90 22bd
00000300: c787 0f3e fb02 f73d 0e06 a73c e243 093e
00000310: 400b 9f3c b97d ac3c 88fc 2e3d 9aec 1d3d
00000320: efc6 4a3b ff53 923d 3846 cb3c 2d49 35bd
00000330: 071b d9bd b97a 9e3d 222f 06bd 4f1e 3b3d
00000340: b2d4 073e bd74 de3d 70d0 873d 8b1a c63d
00000350: 09a1 033e 6803 f1bc 686e 173e 0a87 a3bd
00000360: 44b6 c2bd 681f 28bc e6f1 1e3e 5dc4 d23d
00000370: 1637 883d 833b d03d 5c71 a2bd fd0c b2bd
00000380: 2f76 553d fcde 82bd 6c0a b53d 97a0 bfbd
00000390: 5f85 003e d856 8abd 6a3a 5f3d 43bd f03d
000003a0: 40e7 c7bc 463f 173e 1d92 da3d 8237 2abd
000003b0: f328 f7bc 0a0c 023e 53fd 00bc 98a2 243d
000003c0: 8c67 cb3d a968 cd3d 7664 93bd 6253 093e
000003d0: 0ebd 8d3d 312f 9c3d 13bc 87bc 7dc0 cc3d
000003e0: 865c 0dbc d6d5 083e 6abe b93d 04ef 8a3d
000003f0: 02f0 a23c e13f eb3d 26a0 173e d1b7 573d

fc1.weight f4 [32, 64]
-0.034789767 -0.055434775 -0.022276854 0.040705536 -0.0638061 -0.08373968 0.049942184 -0.037025396
-0.06844959 0.028688349 0.033540357 -0.08467443 0.036834177 -0.12387299 0.08206134 0.10047954
0.06364518 0.10268154 0.0083486 -0.016108528 0.007336171 0.07150382 -0.07981617 -0.10243321
-0.05588165 0.079061605 0.081920624 -0.031312745 0.13372333 -0.14164713 -0.045183524 0.057058755
-0.11235668 0.120796956 -0.1056991 0.08649099 0.048370853 -0.04284896 0.117312506 -0.045157004
-0.006469175 0.09435567 -0.11034164 0.122435145 -0.033039145 -0.076572806 0.090743616 -0.061408143
-0.07410135 -0.086083986 0.07582589 0.07994722 -0.05046716 0.03782038 0.06337571 -0.040331285
0.036338795 0.060523424 0.014533952 -0.03422988 0.15476228 -0.010114204 0.2104627 0.15903154
0.114643574 0.019479718 0.020334762 0.04582278 -0.12855366 -0.035470054 -0.055715073 -0.032020424
-0.0761181 -0.027798478 -0.071276 -0.1044789 0.062375907 0.13562553 -0.06462991 -0.096148446
-0.05578324 -0.033453904 -0.13570966 0.09606993 0.09842623 0.07928049 -0.05097537 -0.068483606
0.13268144 -0.08916054 -0.11865254 -0.117801934 0.024464425 -0.0028662838 -0.062670134 0.09294171
-0.055606943 -0.0052999384 0.07588391 0.074705504 0.09082611 -0.029567119 0.05019038 0.003681868
0.03015039 -0.059749402 0.06197357 0.0146375215 0.011419646 -0.02316707 0.036939286 -0.10711845
0.088409156 0.11159801 0.08111914 -0.018082049 -0.10292712 -0.020147089 -0.113976575 -0.0741458
0.083973594 -0.0008241757 0.11086384 -0.052603334 -0.071698666 -0.11368134 0.034431554 0.032633346
0.008659754 0.16044705 0.10755231 -0.16924919 0.049649376 0.06086954 0.047329746 0.101412214
-0.0044773337 -0.08823701 0.07063477 0.014290329 0.046410713 -0.0842177 -0.0005062383 0.10056205
0.16607007 -0.07892511 0.07266929 0.09620624 -0.073685795 0.082450084 -0.008686835 0.112529516
-0.04492844 0.15024076 0.042261653 0.10132679 -0.050346285 0.048876777 0.050425317 0.08445163
-0.050372098 0.004487478 -0.1443342 -0.05982333 0.13028193 -0.077934876 0.010019284 -0.13264659
-0.16949762 -0.10245559 0.021535588 -0.052393917 -0.04446676 -0.048449915 0.04621653 -0.08357111
0.14423698 -0.17239417 -0.14939702 0.014069925 0.07835656 0.06067961 0.031511966 -0.0064837206
0.059402276 -0.04788045 0.062027752 -0.05074187 0.04901214 0.07660031 0.09914485 -0.044500884
-0.078618795 0.11676443 0.112383075 0.010737448 0.006635659 -0.016263714 -0.08507565 0.16031435
0.12500185 -0.098640434 0.012925365 0.17834245 0.014132892 -0.15328318 0.12832195 0.064613305
0.015793681 0.0075251036 0.10767713 0.10814942 -0.15101472 0.111797534 -0.12935653 -0.114079304
-0.040991962 0.11969419 0.15084167 0.08724731 0.13195959 -0.14973591 -0.11758304 -0.01821363
-0.15452756 -0.10319905 -0.13807358 -0.072790034 0.05270813 -0.027197309 0.034574714 -0.07726794
-0.046947967 -0.16467959 -0.08285973 -0.06303602 0.14315374 0.056110907 -0.05814905 -0.099312104
0.050035816 -0.13496327 0.06971542 0.14163294 -0.01920267 -0.07480458 0.1250521 0.03779449
0.05206823 -0.038634453 -0.05508851 0.048909456 0.10359516 0.13017449 0.032492515 0.1328484
00000000: b77f 0ebd 930f 63bd f37d b6bc d9ba 263d
00000010: c6ac 82bd b67f abbd 2d90 4c3d f1a7 17bd
00000020: 4c2f 8cbd d403 eb3c 9d61 093d ca69 adbd
00000030: 6fdf 163d 1fb1 fdbd c70f a83d 38c8 cd3d
00000040: 6758 823d b34a d23d 91c8 083c 08f6 83bc
00000050: 4364 f03b 9870 923d a976 a3bd 81c8 d1bd
00000060: 28e4 64bd 0deb a13d 00c6 a73d cb41 00bd
00000070: c5ee 083e f20b 11be 5c12 39bd 71b6 693d
00000080: 421b e6bd 6564 f73d c578 d8bd 3022 b13d
00000090: 8420 463d 6482 2fbd 8a41 f03d 8df6 38bd
000000a0: 60fb d3bb 8c3d c13d ccfa e1bd 47bf fa3d
000000b0: 0e54 07bd 34d2 9cbd cad7 b93d 1b87 7bbd
000000c0: 73c2 97bd cd4c b0bd 9b4a 9b3d 5ebb a33d
000000d0: a7b6 4ebd 8be9 1a3d 20cb 813d 6b32 25bd
000000e0: fdd7 143d 69e7 773d d01f 6e3c a134 0cbd
000000f0: 017a 1e3e 0cb6 25bc 8983 573e 2ad9 223e
00000100: 40ca ea3d ee93 9f3c 1695 a63c abb0 3b3d
00000110: 92a3 03be 0c49 11bd 7d35 64bd d927 03bd
00000120: cee3 9bbd a2b9 e3bc 27f9 91bd 09f9 d5bd
00000130: e17d 7f3d 6be1 0a3e b05c 84bd 7ae9 c4bd
00000140: f77c 64bd f606 09bd 79f7 0abe 50c0 c43d
00000150: b193 c93d cf5d a23d 8dcb 50bd 2241 8cbd
00000160: a5dd 073e cd99 b6bd 1a00 f3bd 2442 f1bd
00000170: 9e69 c83c 43d8 3bbb 3359 80bd 3958 be3d
00000180: 1bc4 63bd 1bab adbb 0669 9b3d 33ff 983d
00000190: 0a03 ba3d be36 f2bc 6e94 4d3d 7f4b 713b
000001a0: f3fd f63c cabb 74bd 00d8 7d3d 37d2 6f3c
000001b0: 7819 3b3c dec8 bdbc a64d 173d eb60 dbbd
000001c0: dc0f b53d 7f8d e43d cb21 a63d ce20 94bc
000001d0: 74cb d2bd 820b a5bc 8d6c e9bd c1d9 97bd
000001e0: 59fa ab3d 7f0d 58ba 950c e33d 9876 57bd
000001f0: c0d6 92bd c3d1 e8bd 1a08 0d3d 8baa 053d
00000200: a4e1 0d3c 3b4c 243e 6344 dc3d a94f 2dbe
00000210: 255d 4b3d 5752 793d d6dc 413d 35b1 cf3d
00000220: 99b6 92bb 9bb5 b4bd f6a8 903d fc21 6a3c
00000230: 2919 3e3d 547a acbd 14b5 04ba 7af3 cd3d
00000240: 460e 2a3e 7da3 a1bd a3d3 943d c707 c53d
00000250: 94e8 96bd 97db a83d 3a53 0ebc e075 e63d
00000260: e206 38bd b7d8 193e 8e1a 2d3d 6c84 cf3d
00000270: e837 4ebd 0433 483d c78a 4e3d faf4 ac3d
00000280: f952 4ebd b20b 933b 58cc 13be 4f09 75bd
00000290: a068 053e 529c 9fbd ec27 243c 82d4 07be
000002a0: c990 2dbe 3dd4 d1bd 676b b03c 019b 56bd
000002b0: c722 36bd 6b73 46bd 8b4d 3d3d 5527 abbd
000002c0: dcb2 133e 1988 30be 88fb 18be 8b85 663c
000002d0: 6779 a03d 2f8b 783d b112 013d 6475 d4bb
000002e0: cd4f 733d 4a1e 44bd d010 7e3d b5d6 4fbd
000002f0: f4c0 483d a0e0 9c3d 750c cb3d 8f46 36bd
00000300: e402 a1bd 3122 ef3d 1929 e63d 1fec 2f3c
00000310: f16f d93b 7b3b 85bc 243c aebd 7229 243e
00000320: 7c00 003e ff03 cabd e9c4 533c 679f 363e
00000330: a58d 673c 44f6 1cbe d466 033e fb53 843d
00000340: c061 813c 2595 f63b d485 dc3d 717d dd3d
00000350: 9aa3 1abe 1bf6 e43d 0a76 04be 69a2 e9bd
00000360: 30e7 27bd 3a22 f53d 3d76 1a3e b8ae b23d
00000370: 6a20 073e 5f54 19be 60cf f0bd c034 95bc
00000380: 793c 1ebe 065a d3bd 2963 0dbe f112 95bd
00000390: 7be4 573d e4cc debc 379e 0d3d a73e 9ebd
000003a0: 834c 40bd c4a1 28be 5db2 a9bd 0719 81bd
000003b0: e596 123e 8dd4 653d b32d 6ebd 2564 cbbd
000003c0: 5bf2 4c3d d033 0abe f5c6 8e3d 3a08 113e
000003d0: eb4e 9dbc 2533 99bd a80d 003e 65ce 1a3d
000003e0: 7f45 553d 293f 1ebd 7da4 61bd 4855 483d
000003f0: b329 d43d 764c 053e df16 053d 6909 083e

fc1.bias f4 [32]
0.107439585 -0.10867424 0.10379453 0.091594666 0.038996592 -0.04940095 -0.06510495 -0.012289392
-0.04245869 0.09615194 -0.10899418 0.09913473 -0.050709378 0.058352746 0.044568934 -0.019065097
0.007017259 -0.09244559 0.06320167 0.08630293 -0.09336305 0.07914586 -0.12499935 0.123909555
-0.056903437 -0.1187429 0.09849406 0.08987749 0.0394959 0.06564871 -0.069140196 0.11637155
00000000: 4909 dc3d 9a90 debd 3a92 d43d fc95 bb3d
00000010: e4ba 1f3d a758 4abd be55 85bd 7259 49bc
00000020: 2ae9 2dbd 4feb c43d 5738 dfbd 2607 cb3d
00000030: a3b4 4fbd 4a03 6f3d ea8d 363d 682e 9cbc
00000040: 09f1 e53b 1d54 bdbd e16f 813d 97bf b03d
00000050: 2035 bfbd 3a17 a23d a9ff ffbd 4bc4 fd3d
00000060: 9413 69bd 7a2f f3bd 41b7 c93d b111 b83d
00000070: 74c6 213d d572 863d 6099 8dbd 3554 ee3d

fc2.weight f4 [32, 32]
-0.1567029 -0.048573464 -0.091579564 -0.10511638 0.1301185 0.13160858 0.090859964 0.14659213
-0.10890434 -0.06274746 -0.08344724 0.00229597 0.11275165 0.17320909 0.2686088 -0.1452285
0.15678091 -0.00909698 -0.0069536814 -0.0019837145 -0.031443298 -0.08328217 -0.07624017 0.24867651
-0.11267854 0.0348572 0.034229945 0.10857169 -0.025888111 0.12755737 -0.17299823 -0.12632573
-0.15362328 -0.0050913244 -0.10932399 0.117985114 -0.084038325 0.015028745 0.14944805 -0.17422083
0.0729215 -0.15058148 0.08566289 -0.046321556 -0.15168107 0.029130027 0.012908086 0.0614987
0.10600285 -0.018248767 -0.08197899 0.17276917 -0.054591104 0.15124719 0.11787991 -0.17336941
-0.05119112 0.01141946 -0.14166424 0.030218735 -0.07307001 -0.09071818 0.13157605 0.07600249
0.15922521 -0.03616208 -0.06874627 -0.13280997 0.006521047 0.13869683 -0.019348294 0.15606277
0.11299901 -0.024307476 0.025107577 0.15564294 0.19784863 0.17244627 -0.02308741 0.030020311
0.1455739 0.15672801 -0.1723896 0.11590495 -0.08167737 -0.10736696 -0.099570386 0.024155257
-0.027642518 -0.0031706244 -0.10134694 0.093302324 -0.11856428 0.14258623 -0.15953003 0.039524272
-0.13723095 -0.09830432 0.013788451 -0.061204914 -0.11860098 -0.016510382 -0.1274232 -0.10513582
0.10448228 -0.017452212 -0.049921513 0.13206461 0.015384104 0.12784465 0.07319617 0.014513731
-0.06514057 -0.10015245 0.13352992 0.025152674 0.15070947 0.07782124 -0.020651486 -0.16289856
0.07129051 -0.048777774 0.007340088 -0.09360362 0.111006364 0.1415715 -0.10484144 -0.0695321
-0.1315948 0.085569814 -0.12808697 -0.13669059 -0.12922713 -0.1425761 0.13655888 -0.07611259
0.10927726 -0.048919976 -0.05334457 -0.048424512 -0.14339468 0.050737366 -0.07110449 0.052915826
-0.15062538 0.027651027 0.14357899 -0.054338604 0.03768231 -0.17452095 -0.07220368 0.14641885
0.07011913 0.064768195 0.07672043 -0.036094964 -0.07503715 0.16636257 -0.064823836 -0.014098242
-0.13397355 0.13550521 -0.057753257 -0.06590717 -0.10995181 0.041146114 -0.13688001 0.13847288
0.12995861 -0.13453801 -0.1622029 0.032376215 -0.10511114 -0.18905167 0.09716845 -0.044455275
0.022772854 0.01890634 -0.124003395 -0.10052709 0.06145847 -0.15608607 -0.024276927 -0.029375967
-0.09801248 0.17471905 -0.15665284 -0.15152945 -0.12780237 0.100247905 -0.15047958 0.107310936
0.16425252 0.16591425 0.15709342 0.02067274 -0.092006266 0.043291584 0.072783306 0.22326213
-0.15492061 0.12622862 0.04657509 0.2544947 0.010764471 -0.03732784 0.28487563 -0.17301561
-0.0023889667 0.15227364 -0.05500958 0.21561265 0.10828538 -0.02852786 -0.03554623 0.21515982
-0.0358731 0.07306047 -0.0646296 -0.10475237 -0.12084718 -0.18323274 -0.053822704 -0.089297265
0.043876454 0.0015351325 -0.12899894 -0.1482333 -0.03144095 0.06372489 0.010401204 0.25702104
-0.094932675 -0.12973484 -0.03728345 0.07842296 -0.13200949 0.09484661 0.23954733 -0.17467105
0.086776376 0.018568736 0.05411354 -0.101035476 0.1113971 -0.11551213 -0.076905586 0.180551
-0.03807497 0.12320714 -0.06050965 -0.15863317 -0.15543157 0.0029460322 -0.13775697 0.14399667
00000000: ba76 20be f8f4 46bd 118e bbbd 4247 d7bd
00000010: c93d 053e 66c4 063e ca14 ba3d 3f1c 163e
00000020: 3d09 dfbd be81 80bd 63e6 aabd fc77 163b
00000030: 56ea e63d b95d 313e 1887 893e c8b6 14be
00000040: 2d8b 203e 800b 15bc b5db e3bb 3501 02bb
00000050: b0ca 00bd d88f aabd ce23 9cbd 0ea5 7e3e
00000060: 02c4 e6bd 6cc6 0e3d b334 0c3d d65a de3d
00000070: 4e13 d4bc 669e 023e 7326 31be 885b 01be
00000080: 6c4f 1dbe 20d5 a6bb 42e5 dfbd 2ea2 f13d
00000090: 491c acbd 203b 763c e908 193e f266 32be
000000a0: de57 953d 0832 1abe 0670 af3d acbb 3dbd
000000b0: 4852 1bbe 18a2 ee3c 707c 533c 10e6 7b3d
000000c0: 0618 d93d 707e 95bc 9ae4 a7bd 67ea 303e
000000d0: ec9a 5fbd 8be0 1a3e 066b f13d c087 31be
000000e0: c8ad 51bd b018 3b3c 6e10 11be 488d f73c
000000f0: bba5 95bd 74ca b9bd dfbb 063e 32a7 9b3d
00000100: ef0b 233e b01e 14bd d8ca 8cbd 56ff 07be
00000110: 82ae d53b 8b06 0e3e 5080 9ebc ebce 1f3e
00000120: 066c e73d 7920 c7bc 68ae cd3c dd60 1f3e
00000130: d598 4a3e c195 303e cf21 bdbc 28ed f53c
00000140: 5311 153e 4f7d 203e e686 30be 935f ed3d
00000150: 7746 a7bd 35e3 dbbd 8feb cbbd 3fe1 c53c
00000160: 9072 e2bc 40ca 4fbb fc8e cfbd 4a15 bf3d
00000170: d4d1 f2bd 2002 123e d75b 23be 34e4 213d
00000180: 4586 0cbe c653 c9bd f5e8 613c 01b2 7abd
00000190: 12e5 f2bd c840 87bc 3a7b 02be 7351 d7bd
000001a0: cefa d53d f1f7 8ebc 807a 4cbd f23b 073e
000001b0: 9c0d 7c3c b5e9 023e e0e7 953d 00cb 6d3c
000001c0: 6b68 85bd ba1c cdbd 11bc 083e fb0c ce3c
000001d0: 9553 1a3e be60 9f3d 4e2d a9bc e1ce 26be
000001e0: c200 923d 34cb 47bd 1f85 f03b 41b3 bfbd
000001f0: 4e57 e33d 1ff8 103e 1cb7 d6bd d866 8ebd
00000200: cac0 06be 3a3f af3d 3b29 03be 9ef8 0bbe
00000210: 1e54 04be 78ff 11be 17d6 0b3e ebe0 9bbd
00000220: c2cc df3d 5060 48bd d67f 5abd c858 46bd
00000230: 0ed6 12be fcd1 4f3d 3b9f 91bd 44be 583d
00000240: 8a3d 1abe 6884 e23c 5f06 133e 2892 5ebd
00000250: c458 1a3d 9fb5 32be 86df 93bd d3ee 153e
00000260: 9e9a 8f3d 30a5 843d 9a1f 9d3d 50d8 13bd
00000270: 14ad 99bd f35a 2a3e 5cc2 84bd 50fc 66bc
00000280: 5d30 09be e1c1 0a3e ae8e 6cbd 57fa 86bd
00000290: 6a2e e1bd d488 283d 462a 0cbe d6cb 0d3e
000002a0: df13 053e 55c4 09be 8418 26be ec9c 043d
000002b0: 8244 d7bd c396 41be 4100 c73d bc16 36bd
000002c0: 238e ba3c 78e1 9a3c 7ef5 fdbd 26e1 cdbd
000002d0: e0bb 7b3d 07d5 1fbe 68e0 c6bc dea5 f0bc
000002e0: c4ba c8bd 8de9 323e 9a69 20be 892a 1bbe
000002f0: a0de 02be c64e cd3d 5217 1abe d6c5 db3d
00000300: d031 283e 6de5 293e 19dd 203e e159 a93c
00000310: c86d bcbd 8452 313d 6a0f 953d d49e 643e
00000320: 82a3 1ebe 1342 013e 86c5 3e3d 214d 823e
00000330: 775d 303c 14e5 18bd 38db 913e 012b 31be
00000340: 3690 1cbb 9fed 1b3e ba51 61bd 90c9 5c3e
00000350: bac4 dd3d 42b3 e9bc ec98 11bd db52 5c3e
00000360: acef 12bd baa0 953d 865c 84bd 6988 d6bd
00000370: ba7e f7bd 5da1 3bbe 3275 5cbd 7ce1 b6bd
00000380: ccb7 333d 8036 c93a 4c18 04be 78ca 17be
00000390: 3ac8 00bd 3282 823d d069 2a3c 4398 833e
000003a0: 106c c2bd 36d9 04be 88b6 18bd 389c a03d
000003b0: 7f2d 07be f13e c23d e54b 753e f8dc 32be
000003c0: d0b7 b13d 761d 983c 29a6 5d3d b0eb cebd
000003d0: 2a24 e43d a091 ecbd ad80 9dbd 5de2 383e
000003e0: 80f4 1bbd 0654 fc3d f7d8 77bd bc70 22be
000003f0: 7429 1fbe 3812 413b 2a10 0dbe dd73 133e

fc2.bias f4 [32]
0.07723765 -0.047075495 0.0018844405 -0.092853956 -0.057841532 -0.050492134 -0.0037505832 0.0071041216
0.056251474 0.10313661 0.16231419 0.013133534 -0.08739407 0.053478252 0.117327705 -0.15713036
-0.012287486 0.09016209 -0.1265182 0.12542768 -0.1193197 0.052784286 0.049618464 0.034499828
-0.121858485 0.04501011 -0.12672535 -0.08898972 0.05686362 -0.14235365 0.14406316 0.06426876
00000000: c62e 9e3d 3cd2 40bd 55ff f63a 372a bebd
00000010: 3eeb 6cbd d7d0 4ebd 58cc 75bb b1c9 e83b
00000020: f267 663d 4939 d33d b135 263e 092e 573c
00000030: aafb b2bd 030c 5b3d 8249 f03d c8e6 20be
00000040: 7451 49bc e7a6 b83d fd8d 01be 1d70 003e
00000050: e35d f4bd 5634 583d bb3c 4b3d b14f 0d3d
00000060: f190 f9bd 855c 383d 4ac4 01be 3e40 b6bd
00000070: d4e9 683d 28c5 11be 4b85 133e 579f 833d

fc3.weight f4 [1, 32]
0.1575073 -0.100499265 0.03930987 0.114959836 0.0653619 -0.029926615 0.27232012 0.18837506
0.02982605 -0.111902654 -0.16072105 0.16843182 -0.02528532 -0.081149556 -0.05273731 -0.093005195
0.06448192 0.033620063 0.026004668 -0.07863719 0.04944908 0.13839439 0.13555431 0.1287234
0.05439563 0.06177806 -0.057165645 -0.123119324 0.100592144 0.0056830654 -0.056083795 -0.00086374715
00000000: 9849 213e 8fd2 cdbd 6303 213d 1070 eb3d
00000010: 76dc 853d a928 f5bc 8b6d 8b3e 64e5 403e
00000020: c355 f43c 382d e5bd 0f94 24be 6479 2c3e
00000030: 2923 cfbc bd31 a6bd 1403 58bd 8279 bebd
00000040: 190f 843d 31b5 093d be07 d53c 890c a1bd
00000050: 1e8b 4a3d 42b7 0d3e c0ce 0a3e 11d0 033e
00000060: f4cd 5e3d fe0a 7d3d 8626 6abd fc25 fcbd
00000070: 4103 ce3d 0239 ba3b 1fb8 65bd 176d 62ba

exp_avg f4 [256, 1]
-3.27506e-05 -1.6456685e-05 1.247523e-05 -3.0158259e-05 -2.0629017e-05 -1.7221637e-05 -7.480404e-07 -2.4250905e-05
-3.3566233e-05 1.3046768e-05 -3.1604497e-05 -3.254322e-05 -2.5088764e-06 -2.5534468e-05 -1.5537585e-06 -3.7956634e-05
-1.7900053e-05 -2.8142806e-05 8.3109404e-07 6.12332e-06 -3.9480114e-05 -3.9189377e-05 -2.6242797e-05 1.0090778e-05
-1.9319295e-06 -4.1555613e-05 -1.3007177e-05 -2.6347649e-05 -9.931459e-06 -1.6685943e-05 -2.6802596e-05 -2.4625226e-05
-1.973211e-05 -2.863578e-07 -3.2145537e-05 6.1869296e-06 -5.7899642e-06 9.90405e-06 -1.5825872e-05 -3.4780784e-05
-2.2337925e-05 -2.3046003e-05 1.26685445e-05 -1.3022186e-05 -1.7422775e-05 -2.1261449e-05 -4.2249285e-05 -1.6960945e-05
-2.7507094e-05 -3.207319e-05 -6.6671373e-06 -3.920261e-05 -2.9066974e-05 -3.744883e-05 -2.385319e-05 1.6406571e-05
-1.5488413e-05 -3.8491362e-05 -1.4955285e-05 -1.6976937e-06 -2.7830045e-05 -3.2381482e-05 1.3699614e-05 -2.6716541e-05
-2.5151561e-05 -1.341274e-05 1.0631974e-06 -1.6889097e-05 -1.2577045e-05 -1.05950985e-05 -1.6822579e-06 -1.9836782e-05
-2.4676328e-05 3.0697554e-06 -1.9168983e-05 -2.4268553e-05 -2.3809837e-06 -1.6702843e-05 -2.2628296e-06 -2.1175887e-05
-1.1495543e-05 -1.755165e-05 -4.0344503e-07 -3.0175116e-07 -3.0105022e-05 -2.7427515e-05 -1.7952561e-05 1.6289841e-06
-1.6038538e-06 -2.7252241e-05 -8.7122025e-06 -1.8415254e-05 -8.685757e-06 -9.69635e-06 -1.858763e-05 -1.9319568e-05
-1.3588872e-05 -2.802601e-07 -2.1631608e-05 2.395385e-07 -4.450958e-06 2.6620933e-06 -9.759573e-06 -2.382149e-05
-1.5238057e-05 -2.0307421e-05 3.840756e-06 -1.01729365e-05 -1.1328611e-05 -1.756039e-05 -2.7249656e-05 -1.3526247e-05
-1.8902396e-05 -2.4788269e-05 -5.1988523e-06 -2.5531133e-05 -1.7253471e-05 -2.2381442e-05 -1.5544261e-05 6.3943703e-06
-1.2248372e-05 -2.653458e-05 -1.004704e-05 -1.3255661e-06 -1.7773371e-05 -2.4370624e-05 2.8589307e-06 -1.3929216e-05
0.00023500902 -0.00012521517 0.00018170012 0.0002206511 -0.00024346763 0.00028437568 -3.3299235e-05 -0.00013315807
-0.0003554226 -0.00054571684 0.00017509883 -0.00022731815 4.7215868e-05 0.00010594235 6.022653e-06 -0.00037138254
-8.621564e-05 0.0001351019 6.183777e-05 0.00010740786 0.00029113048 -0.00055540574 0.00011521221 -0.00015958908
4.171611e-06 -0.0002929818 -5.5006996e-05 -0.00021564442 -2.6219843e-05 0.0002894298 0.0002749456 -0.00025125046
0.00020447084 -6.1541283e-07 0.0003282444 -0.00014298811 -3.713951e-05 -0.00035609782 -0.00018771383 0.00042575673
0.00012382162 9.8325654e-05 -0.00030198612 -5.9011618e-05 -9.6076736e-05 -0.00012114194 -0.00020728898 5.0956434e-05
-0.00018912897 0.00016692704 5.864541e-05 -0.00015500563 0.00029747203 0.00031183433 -0.00014382825 -0.00028654136
-0.00013130048 0.00027498123 -7.537225e-05 -4.7066067e-05 -0.00027463425 -0.00017724163 -0.00022155119 -0.00023417057
-2.6751255e-05 -1.6248061e-05 9.600577e-06 -2.3541908e-05 -1.8847655e-05 -1.4819372e-05 -1.8880746e-06 -2.1868122e-05
-3.975971e-05 1.2227883e-05 -2.8604029e-05 -2.8583581e-05 -2.888023e-06 -3.238999e-05 -2.8649056e-06 -3.3520773e-05
-1.8730812e-05 -2.8707203e-05 6.2602555e-07 5.0717144e-06 -4.0690305e-05 -3.243e-05 -2.9400453e-05 1.0329423e-05
-2.5070296e-06 -4.632227e-05 -1.5481168e-05 -2.9035245e-05 -9.587615e-06 -2.0911888e-05 -2.8108567e-05 -2.5539546e-05
-1.7213759e-05 -2.9131752e-07 -2.860395e-05 7.260021e-06 -6.6025286e-06 9.672131e-06 -1.6720365e-05 -3.758005e-05
-2.4584548e-05 -3.134883e-05 1.2079993e-05 -1.744987e-05 -1.7512946e-05 -2.4104002e-05 -3.932576e-05 -2.0636115e-05
-2.8831519e-05 -3.3227272e-05 -6.9849957e-06 -3.8069713e-05 -2.654488e-05 -3.1302126e-05 -3.1646778e-05 1.4533495e-05
-1.4865262e-05 -3.8102145e-05 -1.6203698e-05 -1.4834435e-06 -2.4809626e-05 -3.3352473e-05 1.1411726e-05 -2.0724954e-05
00000000: b05d 09b8 760c 8ab7 b44c 5137 5efc fcb7
00000010: 7a0c adb7 2f77 90b7 f2cc 48b5 6c6e cbb7
00000020: 78c9 0cb8 71e3 5a37 128f 04b8 047f 08b8
00000030: 2b5e 28b6 da32 d6b7 bc8a d0b5 a033 1fb8
00000040: 1228 96b7 3714 ecb7 5918 5f35 eb76 cd36
00000050: 7397 25b8 465f 24b8 fa23 dcb7 904b 2937
00000060: 4ca6 01b6 004c 2eb8 6639 5ab7 2505 ddb7
00000070: 4b9f 26b7 caf8 8bb7 23d6 e0b7 4592 ceb7
00000080: 6286 a5b7 b7bc 99b4 02d4 06b8 5299 cf36
00000090: 6a47 c2b6 9229 2637 cdc1 84b7 95e1 11b8
000000a0: 5462 bbb7 ea52 c1b7 fc8a 5437 dd79 5ab7
000000b0: 2027 92b7 9d5a b2b7 d334 31b8 5a47 8eb7
000000c0: 09bf e6b7 5386 06b8 46b6 dfb6 7b6d 24b8
000000d0: dad4 f3b7 6012 1db8 5618 c8b7 d8a0 8937
000000e0: 1ded 81b7 c971 21b8 76e8 7ab7 50dc e3b5
000000f0: 9174 e9b7 5ad1 07b8 65d7 6537 561d e0b7
00000100: 91fc d2b7 4807 61b7 2fb3 8e35 0fad 8db7
00000110: ff01 53b7 9ac1 31b7 f1c9 e1b5 2a67 a6b7
00000120: 0300 cfb7 ff01 4e36 14cd a0b7 5294 cbb7
00000130: fdc8 1fb6 151d 8cb7 1edb 17b6 dfa2 b1b7
00000140: fbdc 40b7 e23b 93b7 1099 d8b4 5d00 a2b4
00000150: 0b8a fcb7 2414 e6b7 d598 96b7 78a3 da35
00000160: ff43 d7b5 be9b e4b7 a02a 12b7 757a 9ab7
00000170: 0bb9 11b7 82ad 22b7 a2ec 9bb7 7510 a2b7
00000180: c3fb 63b7 a876 96b4 8675 b5b7 ec99 8034
00000190: 7059 95b6 6aa6 3236 0cbd 23b7 43d4 c7b7
000001a0: f5a6 7fb7 db59 aab7 d8df 8036 6eac 2ab7
000001b0: 0410 3eb7 a64e 93b7 3196 e4b7 caee 62b7
000001c0: 9690 9eb7 67f0 cfb7 cd71 aeb6 b12b d6b7
000001d0: 8cbb 90b7 c8bf bbb7 0c65 82b7 398f d636
000001e0: 5b7e 4db7 9496 deb7 b58f 28b7 1bea b1b5
000001f0: 0618 95b7 846f ccb7 0edc 3f36 87b1 69b7
00000200: c16c 7639 314c 03b9 c186 3e39 945e 6739
00000210: 584b 7fb9 4218 9539 c8aa 0bb8 59a0 0bb9
00000220: 0458 bab9 700e 0fba bc9a 3739 405c 6eb9
00000230: a709 4638 5e2d de38 3216 ca36 1fb6 c2b9
00000240: abce b4b8 24aa 0d39 e6ae 8138 2840 e138
00000250: dfa2 9839 a698 11ba 169e f138 5e57 27b9
00000260: def9 8b36 5a9b 99b9 50b7 66b8 9c1e 62b9
00000270: aff2 dbb7 9cbe 9739 9326 9039 44ba 83b9
00000280: 3967 5639 d932 25b5 3818 ac39 14ef 15b9
00000290: 3fc6 1bb8 a4b2 bab9 0cd5 44b9 1a38 df39
000002a0: 1dd6 0139 2f34 ce38 e453 9eb9 3e83 77b8
000002b0: ce7c c9b8 950d feb8 b65b 59b9 0eba 5538
000002c0: ec50 46b9 2309 2f39 08fa 7538 0289 22b9
000002d0: 05f6 9b39 b27d a339 9ad0 16b9 ee3a 96b9
000002e0: b4ad 09b9 5b2b 9039 2b11 9eb8 ce68 45b8
000002f0: c9fc 8fb9 f0d9 39b9 3250 68b9 af8b 75b9
00000300: e267 e0b7 724c 88b7 2a12 2137 dd7b c5b7
00000310: 081b 9eb7 b8a0 78b7 c069 fdb5 6f71 b7b7
00000320: aac3 26b8 5c26 4d37 aff2 efb7 c6c6 efb7
00000330: dbcf 41b6 7dda 07b8 b442 40b6 a898 0cb8
00000340: 1d20 9db7 40d0 f0b7 260c 2835 b22d aa36
00000350: e2aa 2ab8 7305 08b8 fea0 f6b7 894c 2d37
00000360: 713e 28b6 294a 42b8 8edd 81b7 b790 f3b7
00000370: 7eda 20b7 f06b afb7 b0ca ebb7 c23d d6b7
00000380: 4466 90b7 6066 9cb4 84f2 efb7 1b9b f336
00000390: 4a8b ddb6 7c45 2237 b642 8cb7 459f 1db8
000003a0: ea3a ceb7 8d7c 03b8 2dab 4a37 4f61 92b7
000003b0: c4e8 92b7 f332 cab7 b7f1 24b8 b81b adb7
000003c0: 37db f1b7 835d 0bb8 a860 eab6 0bad 1fb8
000003d0: b2ac deb7 674a 03b8 78bc 04b8 e3d4 7337
000003e0: d065 79b7 decf 1fb8 2ded 87b7 bb1a c7b5
000003f0: 441e d0b7 f2e3 0bb8 fd74 3f37 80da adb7
